pointnet_table_classifier.pth (torch, 479771 bytes, 44 tensors)

sa1.mlp_convs.0.weight f4 [64, 3, 1, 1]
0	0xbee97099	-0.45593718
1	0x3e5ee0e2	0.21765473
2	0xbe6ad2dc	-0.22931999
3	0xbede07ab	-0.43365225
4	0x3e9f8969	0.31159523
5	0x3f055053	0.5207569
6	0x3daee1b9	0.08539147
7	0xbe1afe2b	-0.1513602
8	0x3ecf45d9	0.40482977
9	0xbdf3322f	-0.11874806
10	0xbecf768b	-0.4052013
11	0x3efa498c	0.48884237
12	0x3f07e1c2	0.53078854
13	0xbeb24426	-0.34817618
14	0xbe0a5117	-0.13507496
15	0x3e863e0f	0.26219222
16	0xbee22b3e	-0.44173616
17	0xbbfeef9a	-0.0077800276
18	0x3e966e42	0.29380995
19	0x3effc84f	0.4995751
20	0xbed51663	-0.41618642
21	0x3ef03d64	0.46921837
22	0xbe9b18a3	-0.30292234
23	0xbf1ff415	-0.62481815
24	0x3e0b8055	0.13623174
25	0x3eac4fd7	0.33654663
26	0xbd84311c	-0.06454679
27	0x3e3e1edd	0.18566461
28	0x3ef45b0e	0.4772572
29	0x3e817b09	0.2528918
30	0xbee12420	-0.43972874
31	0x3eb5f988	0.3554194
32	0xbf1e2fc3	-0.6179163
33	0xbd5e9634	-0.054342464
34	0x3ed68bfd	0.41903678
35	0xbea7ced2	-0.3277498
36	0xbeac0875	-0.33600202
37	0x3ea83949	0.32856205
38	0xbedc16c4	-0.4298612
39	0xbe66e212	-0.22547176
40	0xbecbd695	-0.3981215
41	0x3e951139	0.29114702
42	0x3e906987	0.2820551
43	0xbe916c0c	-0.28402746
44	0x3e230eb5	0.15923579
45	0xbeb502ed	-0.35353795
46	0x3e270cde	0.16313502
47	0x3e76015c	0.24023956
48	0xbf05f29a	-0.52323306
49	0x3ea54bbb	0.3228434
50	0x3e8d5c37	0.27609417
51	0x3e07dfe8	0.13269007
52	0xbe57e5a3	-0.21083693
53	0x3ef34b3b	0.47518334
54	0x3f07c206	0.5303043
55	0x3e648068	0.22314608
56	0xbd9b106a	-0.0757149
57	0x3d6d163c	0.057882532
58	0x3f104be7	0.5636582
59	0xbef88431	-0.48538354
60	0xbc900c63	-0.017584031
61	0xbe954bb2	-0.29159313
62	0x3f1ff616	0.6248487
63	0xbf01dea8	-0.5073037
64	0xbe4c2c1f	-0.19938706
65	0x3e6717bd	0.22567649
66	0xbecc854f	-0.39945456
67	0xbe2a3adc	-0.16624016
68	0x3eae3420	0.34024143
69	0xbe48c42f	-0.19606088
70	0xbc44e6f6	-0.012017956
71	0xbea5abf7	-0.3235776
72	0xbe3dacfa	-0.18523017
73	0xbd49a0fb	-0.04922579
74	0xbe292816	-0.16519198
75	0x3ec2265a	0.37919885
76	0xbf08cb39	-0.53435093
77	0xbefa1edc	-0.4885167
78	0x3e8ecd40	0.27890968
79	0xbd9f0cba	-0.07766099
80	0x3cdd9822	0.027050082
81	0x3ec239e4	0.37934792
82	0xbf126f02	-0.57200634
83	0xbede4f84	-0.4342004
84	0xbeb33b6f	-0.35006282
85	0xbe81bf77	-0.2534139
86	0x3ed27a4e	0.41108936
87	0x3e146be7	0.14494286
88	0xbedd0b12	-0.43172508
89	0x3d12aa5a	0.03580699
90	0x3f01625a	0.505407
91	0x3ddfc68d	0.109265424
92	0xbef8dc54	-0.48605597
93	0xbea8b5fe	-0.3295135
94	0xbe945c5f	-0.28976724
95	0x3f080660	0.5313473
96	0xbd269ace	-0.040674977
97	0xbe6cf4e1	-0.23140289
98	0x3e1505e6	0.14553031
99	0x3f07c211	0.53030497
100	0x3ef6ccc2	0.48203093
101	0x3d956b9b	0.07295915
102	0xbda6971f	-0.08134293
103	0xbdb54959	-0.088518806
104	0x3e3fdfd5	0.18737729
105	0xbc97ef00	-0.018546581
106	0x3e6d0330	0.23145747
107	0x3e931bff	0.28732297
108	0xbe5eed8b	-0.21770303
109	0xbf1a2de1	-0.60226256
110	0xbecf55fb	-0.40495285
111	0xbf1868c8	-0.59534883
112	0x3d1fe976	0.039041005
113	0xbc9e7368	-0.01934214
114	0xbe8c9ae7	-0.2746193
115	0xbc09c50b	-0.008408795
116	0x3f150cf8	0.58222914
117	0x3e105959	0.14096583
118	0x3d223a4d	0.03960638
119	0xbf124238	-0.5713229
120	0x3f159406	0.5842899
121	0x3ee35976	0.4440419
122	0xbf078a11	-0.5294505
123	0xbe835d32	-0.2565704
124	0x3ce1c56c	0.027559958
125	0xbe92199a	-0.28535157
126	0x3da0c791	0.07850564
127	0xbebab824	-0.36468613
128	0x3da8563d	0.08219574
129	0x3e9094e2	0.2823859
130	0xbd0983a0	-0.033572793
131	0x3eb86bc3	0.36019716
132	0xbe8068f7	-0.25080082
133	0x3e4c4371	0.19947602
134	0x3eea9387	0.4581568
135	0x3b341d7a	0.002748339
136	0xbc841e7b	-0.016127815
137	0x3deec6c8	0.11659008
138	0x3d45f550	0.04832965
139	0x3f01f5f8	0.50765944
140	0xbc838511	-0.016054662
141	0x3eb3e459	0.35135153
142	0x3ec0f4be	0.37686723
143	0x3ee8a978	0.45441794
144	0xbebafc4c	-0.36520612
145	0xbe55ab18	-0.20866048
146	0x3e1cc999	0.15311278
147	0x3e8e9cae	0.27853912
148	0xbd8ee46f	-0.06977164
149	0xbeb1a4db	-0.34696087
150	0x3ed9ac84	0.4251443
151	0xbe32d1ac	-0.17462796
152	0xbe7ac689	-0.24489798
153	0x3ef2a2d4	0.47389853
154	0xbe9a428f	-0.30128905
155	0xbcab06d9	-0.020877289
156	0xbed1b103	-0.40955362
157	0xbf0e7f88	-0.5566335
158	0xbe517cb5	-0.20457728
159	0xbee74afe	-0.45174402
160	0xbec47725	-0.3837215
161	0x3ef77cba	0.48337346
162	0xbeaea57f	-0.34110638
163	0x3f09ce52	0.53830445
164	0xbe8f6417	-0.2800605
165	0xbd045cf3	-0.032315206
166	0xbe0438ea	-0.12912336
167	0xbddeb048	-0.10873467
168	0x3f09a43d	0.5376623
169	0x3e671e48	0.22570145
170	0xbedd7bfd	-0.43258658
171	0xbe4659d5	-0.19370206
172	0x3e9114a2	0.28336054
173	0xbebb59a0	-0.36591816
174	0xbed231a1	-0.4105349
175	0x3f0b83ee	0.54498184
176	0x3e3bdf1a	0.18346825
177	0xbf0e0ada	-0.5548531
178	0x3f05cd93	0.52266806
179	0xbe962827	-0.2932751
180	0xbec76f5b	-0.38952145
181	0x3eac90b4	0.3370415
182	0x3db0a008	0.086242735
183	0x3ef86c0b	0.4851993
184	0xbdb20db7	-0.08694022
185	0x3f0d0135	0.55079967
186	0xbecba031	-0.39770654
187	0x3eccea87	0.4002268
188	0xbea95c8d	-0.33078423
189	0x3eb865ce	0.3601517
190	0xbeff1663	-0.49821767
191	0x3cd7672f	0.026294319

sa1.mlp_convs.0.bias f4 [64]
0	0x3d294b03	0.041331302
1	0x3e3373a7	0.17524587
2	0x3ee27682	0.4423104
3	0xbe75b7a7	-0.23995839
4	0x3ed6f989	0.41987255
5	0xbe36761a	-0.1781849
6	0x3ebf535d	0.3736829
7	0x3ec55392	0.38540322
8	0xbed8f81e	-0.42376798
9	0xbeed1d74	-0.46311533
10	0xbec47a9a	-0.38374788
11	0xbe05fa6a	-0.13083807
12	0xbeed9166	-0.46399993
13	0xbe011b17	-0.1260799
14	0x3ea7e3a7	0.32790872
15	0x3ef68e7c	0.48155582
16	0xbd7c5178	-0.061601132
17	0xbe9c22db	-0.30495343
18	0x3e817645	0.25285545
19	0xbe5ec31a	-0.21754113
20	0xbd54c668	-0.051947027
21	0x3dd5d827	0.104416184
22	0xbd50a222	-0.050935872
23	0x3ef2b7bc	0.47405803
24	0x3eced8cb	0.40399775
25	0xbeac66a1	-0.3367205
26	0x3ee029b9	0.43781832
27	0xbf0b8ca0	-0.5451145
28	0x3ec10f53	0.37707004
29	0xbeb4aa71	-0.35286286
30	0x3d0055f2	0.031331964
31	0x3e79565d	0.24349351
32	0xbeceb86b	-0.40375075
33	0x3e8b1e96	0.27171773
34	0xbdd2cc36	-0.102928564
35	0x3f0d9c15	0.5531629
36	0xbec9e734	-0.39434206
37	0xbe1770fa	-0.14789191
38	0xbd8cb00d	-0.068695165
39	0xbe80c84e	-0.2515282
40	0x3e31f725	0.17379434
41	0xbea4a069	-0.32153633
42	0x3ea9d97c	0.3317374
43	0x3f0e5bf0	0.55609035
44	0x3ed3da3c	0.41377437
45	0x3e57d933	0.21078949
46	0xbd73528d	-0.0594049
47	0xbe7d8710	-0.24758554
48	0xbeb9938b	-0.3624538
49	0xbf0d7845	-0.5526164
50	0x3d4167c5	0.047218103
51	0xbeb22653	-0.34794864
52	0x3ccb2e66	0.024802398
53	0x3e7741e8	0.24146235
54	0x3ed66d3e	0.4188022
55	0xbe34643e	-0.17616364
56	0x3f164156	0.58693445
57	0xbedf2fb1	-0.43591073
58	0xbeedc3f0	-0.4643855
59	0x3e6fad7b	0.23406021
60	0x3eb78268	0.3584168
61	0xbe689931	-0.22714688
62	0xbea9e1fa	-0.3318022
63	0xbe9115f0	-0.2833705

sa1.mlp_convs.1.weight f4 [64, 64, 1, 1]
0	0xbdb45d8c	-0.08806905
1	0xbddb854a	-0.10718782
2	0x3dc1fda1	0.09472204
3	0xbe10ca1d	-0.141396
4	0x3e0be520	0.13661623
5	0xbcd36b28	-0.025807932
6	0x3d831395	0.06400219
7	0xbcf17cf3	-0.029478526
8	0xbc3bb495	-0.011456628
9	0xbd3af419	-0.045642946
10	0x3d7f19fc	0.06228064
11	0xbe0dad08	-0.13835537
12	0xbd8b8e1b	-0.06814214
13	0x3d0b7143	0.03404356
14	0xbd988728	-0.07447654
15	0xbccb59b7	-0.024823053
16	0x3c764a86	0.015032416
17	0xbda1162d	-0.07865558
18	0x3d83c3ce	0.06433831
19	0x3d12feb3	0.03588743
20	0x3d036e92	0.03208787
21	0xbd4b0ac4	-0.049570814
22	0xbded8ee9	-0.115995236
23	0xbd7a008c	-0.061035678
24	0xbcd32498	-0.025774285
25	0x3d0838a5	0.033257145
26	0x3bcd7d5a	0.0062710466
27	0x3c398022	0.011322053
28	0xbe03e1d8	-0.12879121
29	0x3d445293	0.04793031
30	0xbafb291d	-0.0019162033
31	0x3c79da2f	0.015249773
32	0x3d45c592	0.04828412
33	0xbd49e02c	-0.049286053
34	0xbda4adb7	-0.08040946
35	0xbe1ed32d	-0.15510245
36	0xb91996ea	-0.00014647437
37	0xbd4c6e93	-0.04991014
38	0xbc00913b	-0.007847126
39	0x3da28955	0.0793635
40	0xbddb5a9e	-0.10710643
41	0xbcdfe06f	-0.027328698
42	0xbdb7fa62	-0.089833036
43	0xbd52c60e	-0.05145841
44	0xbda63d52	-0.08117165
45	0x3d90f846	0.070786044
46	0x3d8db268	0.06918794
47	0xbdbfde8c	-0.09368619
48	0x3dc27b85	0.09496216
49	0x3de2e136	0.11078112
50	0xbc678591	-0.014130966
51	0x3dd65b1d	0.10466597
52	0x3b1c664b	0.0023864682
53	0x3d8c0015	0.06835953
54	0xbd194d4a	-0.037427224
55	0xbbb8509a	-0.005624843
56	0xbd6f2956	-0.05838903
57	0x3d1b3b6e	0.037898473
58	0x3d20cbef	0.039256986
59	0xbd76a94e	-0.060220055
60	0xbe0fa736	-0.1402863
61	0xbdc21756	-0.09477107
62	0xbde0b8df	-0.10972761
63	0x3e0ef39f	0.13960122
64	0xbbe4ab9f	-0.0069784666
65	0x3d5afd17	0.05346402
66	0x3d3b48b9	0.04572365
67	0x3d32d1fc	0.043657288
68	0xbe00c0a1	-0.12573482
69	0x3b9052a5	0.0044043832
70	0x3d31037d	0.043216217
71	0x3db97e0e	0.09057246
72	0xbe039d0b	-0.12852876
73	0x3c879cca	0.016554255
74	0x3e08f241	0.13373663
75	0xbdd58caa	-0.1042722
76	0x3de71561	0.112833746
77	0x3d9d6f23	0.07687213
78	0x3d2e715c	0.042588577
79	0x3d27ea42	0.04099489
80	0xbd6b44c7	-0.057438638
81	0xbcbdc8a1	-0.023166956
82	0xbe1ef5a9	-0.155234
83	0x3c7ff2ec	0.015621882
84	0x3c0dd153	0.008655864
85	0x3bfac264	0.0076525677
86	0x3e08c4d1	0.1335633
87	0xbd4b8653	-0.04968865
88	0xbd2cc111	-0.04217631
89	0x3de6c5a4	0.11268166
90	0x3d7e70b8	0.062119216
91	0x3d3d7b23	0.04626001
92	0x3d6d73b7	0.057971682
93	0xbd824ef2	-0.06362714
94	0x3bf76d0b	0.0075508407
95	0x3c9455f8	0.0181074
96	0x3e09522b	0.13410251
97	0x3db4c244	0.08826116
98	0x3d88835a	0.06665678
99	0x3c9aa27b	0.018876305
100	0x3d059d97	0.032620993
101	0xbb8cbbd2	-0.004294851
102	0xbc3805fb	-0.011231895
103	0x3e0782d4	0.132335
104	0x3b1e59fa	0.0024162517
105	0xbd173e22	-0.03692449
106	0x3defe695	0.11713902
107	0x3d8c8c62	0.068627134
108	0x3a40c596	0.00073536613
109	0x3a89958b	0.0010496838
110	0xbe09ba2b	-0.13449924
111	0xbc5c172c	-0.013433259
112	0x3c8dfc61	0.017332258
113	0xbc2971ad	-0.010342044
114	0x3d1a9e16	0.03774842
115	0xbc080a0b	-0.008303176
116	0xbcd999e8	-0.026562646
117	0x3dd3f403	0.10349276
118	0x3dd7c373	0.10535326
119	0xbd45f60c	-0.04833035
120	0x3d95cb20	0.07314134
121	0x3d972f92	0.0738212
122	0xbda8c4ff	-0.08240699
123	0x3df7866c	0.12086186
124	0x3cad1a02	0.021130566
125	0x3d596e42	0.053083666
126	0x3c96df7f	0.018417118
127	0xbcf6d52c	-0.030130945
128	0x3dcdc1df	0.100467436
129	0xbca165a7	-0.019701792
130	0x3d9b117e	0.07571696
131	0x3daf22bc	0.08551547
132	0x3b9eafd1	0.0048427363
133	0xbdd19b24	-0.10234669
134	0x3d8f51a7	0.06997996
135	0xbd93e168	-0.07220727
136	0x3d9788f0	0.07399166
137	0xbe1346ec	-0.14382523
138	0x3d97af26	0.07406454
139	0x3c199ce4	0.009375785
140	0xbc856dba	-0.016287673
141	0x3d8d7bf7	0.0690841
142	0x3c12fb81	0.008971096
143	0xbd5cb39e	-0.053882234
144	0x3c6c2c95	0.014414926
145	0xbd070515	-0.03296383
146	0xbd4f9197	-0.050675955
147	0x3da05529	0.07828743
148	0x3db3b826	0.08775358
149	0x3d7cb9f8	0.06170079
150	0xbd99075e	-0.07472108
151	0x3d6bd949	0.057580266
152	0xbcc0b2ac	-0.023522697
153	0x3db1ea0f	0.08687221
154	0xbde01a96	-0.10942571
155	0x3ced5723	0.028972214
156	0x3db2f442	0.08737995
157	0x3d85ea02	0.06538774
158	0xbdfaf055	-0.12252871
159	0x3dea253a	0.11432882
160	0xbc81e1fe	-0.015854832
161	0xbdd185da	-0.10230608
162	0xbdd008de	-0.10157941
163	0x3da4d5bb	0.08048578
164	0x3d2ade7b	0.04171608
165	0x3d14ac17	0.03629693
166	0xbcb7601d	-0.022384698
167	0xbdf2ecb3	-0.11861553
168	0xbca5a439	-0.020219909
169	0x3d27c7ab	0.040961903
170	0x3db1f98f	0.08690178
171	0xbdf68ea0	-0.12038922
172	0xbd8a3586	-0.0674849
173	0xbc3f35af	-0.011670514
174	0xbcbab8a1	-0.022793116
175	0xbd43b585	-0.047780532
176	0xbdae4737	-0.08509677
177	0xbdc1dca8	-0.09465915
178	0x3c9b2869	0.018940168
179	0x3ce90df0	0.028449029
180	0x3e0d2982	0.13785365
181	0xbd87df8b	-0.06634434
182	0x3d8e6862	0.06953503
183	0x3e09d496	0.13460001
184	0x3db76b05	0.08955959
185	0x3c934b29	0.017980175
186	0xbe04d81f	-0.12973069
187	0x3d3ec315	0.046572763
188	0xbcac6c54	-0.021047749
189	0x3d913b87	0.07091432
190	0x3b3fa670	0.0029243492
191	0x3ddee44f	0.1088339
192	0xbdf49da3	-0.11944129
193	0x3d959185	0.07303146
194	0x3d05b85f	0.032646533
195	0xbd6daf83	-0.05802871
196	0x3e0728b3	0.1319912
197	0x3d328edd	0.043593276
198	0xbe1ef356	-0.15522513
199	0x3cd88d8f	0.026434688
200	0xbca090fd	-0.019600386
201	0xbcf72d2a	-0.030172903
202	0xbcc1a2a3	-0.023637122
203	0x3d2252bb	0.03962968
204	0xbe02ca31	-0.12772442
205	0xbd96e07a	-0.07367034
206	0xbdfc4fd0	-0.123199105
207	0xbd6ce4b6	-0.057835303
208	0x3ddc5fc1	0.10760451
209	0xbdfb25d9	-0.12263078
210	0x3db8dcdd	0.09026501
211	0x3d3cb17b	0.046067696
212	0x3d6b1e01	0.05740166
213	0xbda2db7a	-0.07952018
214	0xbd014cc9	-0.03156737
215	0xbd75592d	-0.059899498
216	0xbd043e95	-0.032286245
217	0x3d002e23	0.031294
218	0x3da65a88	0.08122736
219	0xbcafda2e	-0.02146634
220	0xbcabb308	-0.020959392
221	0x3d882ca9	0.06649143
222	0x3dc38c64	0.09548262
223	0xbc0f7543	-0.008755985
224	0xbdad7393	-0.0846931
225	0xbdf72d35	-0.120691694
226	0x3c427410	0.011868492
227	0x3cfeafe4	0.03108973
228	0x3df2a15d	0.11847184
229	0x3d9f8a41	0.07790042
230	0x3d6a8bc3	0.057262193
231	0x3d40ee62	0.04710234
232	0xbda05599	-0.078288265
233	0xbc9761de	-0.018479284
234	0xbbc80fd4	-0.0061054025
235	0x3d88bd0e	0.06676684
236	0x3c936029	0.017990189
237	0x3d811ca3	0.0630429
238	0xbd6add32	-0.057339855
239	0x3cae0355	0.021241823
240	0x3dbd566d	0.09245
241	0xbd1a6c55	-0.03770097
242	0xbd7db849	-0.061943326
243	0x3d9a5f5b	0.07537719
244	0x3da101e3	0.07861688
245	0x3dc25794	0.094893605
246	0xbd7006c4	-0.058600202
247	0x3d2dbdcd	0.042417336
248	0xbe07422a	-0.13208833
249	0xbde0f836	-0.109848425
250	0x3db02ac0	0.08601904
251	0xbc3efa05	-0.011656289
252	0xbd7e8a50	-0.062143624
253	0xbd4df931	-0.050286476
254	0xbe15851f	-0.14601563
255	0xbbe977f6	-0.007124896

sa1.mlp_convs.1.bias f4 [64]
0	0x3cfb6fcf	0.030692963
1	0xbdbec633	-0.09315147
2	0xbd9f6abc	-0.0778403
3	0xbce4d1a3	-0.027931994
4	0xbd028a32	-0.031870075
5	0xbc3bc0bf	-0.0114595285
6	0x3cdb28dd	0.026752884
7	0x3d0136c3	0.031546365
8	0x3def06c5	0.11671213
9	0x3da54764	0.08070257
10	0x3dd059f1	0.10173405
11	0x3e035ee3	0.12829165
12	0xbd895ca5	-0.06707124
13	0x3dad8d76	0.08474247
14	0x3d20f5a9	0.03929678
15	0xbdedea06	-0.11616902
16	0xbd02730c	-0.031848
17	0xbe11fe9c	-0.14257282
18	0x3d3ec07a	0.04657028
19	0xbcdbfe6f	-0.026854722
20	0x3d8f1c51	0.06987823
21	0x3ceacbd8	0.028661653
22	0xbd72e7ce	-0.059303097
23	0xbe1ed4ff	-0.15510939
24	0xbc2cc595	-0.010545154
25	0xbd307f65	-0.043090243
26	0xbda6a826	-0.081375405
27	0xbcde6d33	-0.02715168
28	0x3cb7dc71	0.022443982
29	0xbddd58ac	-0.108079284
30	0x3dec5499	0.11539573
31	0xba1ddef7	-0.0006022299
32	0xbddc0f47	-0.107451014
33	0xbd9ea1e2	-0.077457204
34	0xbd9d5996	-0.07683103
35	0x3dade3ea	0.08490737
36	0x3cbc77cd	0.023006344
37	0x3ddbf697	0.10740393
38	0x3dff6728	0.12470847
39	0x3d90bf0a	0.07067688
40	0xbceddd38	-0.02903615
41	0x3df19a24	0.11796978
42	0x3de2df81	0.11077786
43	0xbd414348	-0.047183305
44	0xbe16f6b8	-0.14742553
45	0x3cc4cea4	0.024024315
46	0xbdc72a74	-0.09724894
47	0xbdf38690	-0.118909
48	0xbdb71faf	-0.0894159
49	0x3c8597ba	0.0163077
50	0x3e08ba75	0.13352378
51	0x3d8197a7	0.063277535
52	0xbcd8a747	-0.026446952
53	0x3d52d6c6	0.051474355
54	0xbdc51072	-0.09622277
55	0x3c804667	0.01565857
56	0x3defd14f	0.11709844
57	0x3da157cc	0.07878074
58	0xbe103469	-0.14082493
59	0xbdc124c0	-0.09430838
60	0xbd36ce60	-0.04463041
61	0xbdd67903	-0.104723
62	0x3e0e8ce2	0.1392093
63	0x3e04211b	0.12903254

sa1.mlp_convs.2.weight f4 [128, 64, 1, 1]
0	0xbde09667	-0.10966187
1	0xbde38460	-0.11109233
2	0x3dcfce12	0.10146727
3	0x3dbafe41	0.09130526
4	0xbb8f0997	-0.004365157
5	0xbd24ebf5	-0.04026409
6	0x3deb1d95	0.11480252
7	0xbdc073b5	-0.09397069
8	0xbda56166	-0.08075218
9	0xbd400022	-0.046875127
10	0xbd8cbfd8	-0.06872529
11	0xbdca436e	-0.098761424
12	0x3c806060	0.015670955
13	0xbd1678ae	-0.036736183
14	0x3b4fcf5a	0.0031709285
15	0xbb3c196a	-0.0028701671
16	0x3da715c5	0.08158449
17	0x3d634b40	0.055491686
18	0xbba268d5	-0.0049563446
19	0x3cfb652d	0.030687893
20	0xbd825614	-0.06364074
21	0x3cdea1c5	0.027176747
22	0x3cef5c80	0.029218912
23	0x3cae8438	0.021303281
24	0xbb687e2c	-0.0035475595
25	0xbd80ee8e	-0.06295501
26	0xbd23759b	-0.03990708
27	0xbc34aeb9	-0.011027985
28	0x3d9121b5	0.07086507
29	0xbd6772c5	-0.056505937
30	0x3dfc59da	0.12321825
31	0x3de99c89	0.1140681
32	0x3d2a5766	0.041587256
33	0xbdb81aea	-0.089895085
34	0x3d94e33b	0.07269903
35	0xbd20c9a9	-0.039254818
36	0xbe096bd3	-0.13420038
37	0xbd73d1e5	-0.059526343
38	0x3dcdfd46	0.10058074
39	0x3cb82533	0.022478675
40	0x3d87b440	0.06626177
41	0xbddda005	-0.10821537
42	0xbcbee757	-0.02330367
43	0x3dd07187	0.101779036
44	0x3bea86a4	0.0071571637
45	0x3e04d8f7	0.1297339
46	0x3e2df1a5	0.16986711
47	0xbddf122a	-0.108921364
48	0xbb17b3d4	-0.0023147957
49	0xbde9e2ba	-0.11420198
50	0xbd4674a5	-0.048451085
51	0x3dcb50be	0.0992751
52	0xb985f5c3	-0.00025550844
53	0x3da36f2a	0.07980187
54	0x3b800670	0.0039070174
55	0xbca767df	-0.020435272
56	0xbda5cf73	-0.080962084
57	0xbddfa6b5	-0.10920469
58	0x3e0e4221	0.13892414
59	0xbd15720f	-0.036485728
60	0x3e443d1c	0.19163936
61	0x3da1a755	0.07893244
62	0x3dc47c53	0.095940255
63	0x3dc82fe2	0.09774758
64	0xb938d5f8	-0.00017627317
65	0xbe0a6c09	-0.13517775
66	0x3c4a019c	0.012329485
67	0x3db3076e	0.087416515
68	0xbd99ce04	-0.075099975
69	0xbe08b5c0	-0.13350582
70	0xbdf3ff60	-0.11913943
71	0xbd5db6ae	-0.054129295
72	0xbd327dbc	-0.04357694
73	0x3d0e0bd4	0.03467925
74	0x3df2e3b4	0.11859837
75	0x3cf6ec3b	0.03014194
76	0xbbc4c160	-0.0060044974
77	0xbddbe7bd	-0.1073756
78	0x3d039ac8	0.032130033
79	0x3db23003	0.08700564
80	0xbc3a032d	-0.011353296
81	0x3e110d33	0.14165191
82	0xbd95c21a	-0.073124126
83	0x3de3cb38	0.11122745
84	0xb9d857ef	-0.00041264246
85	0x3d27c8b9	0.04096291
86	0x3db83b61	0.08995701
87	0xbc0b997a	-0.008520478
88	0xbe0982de	-0.13428828
89	0xbe0d5418	-0.1380161
90	0x3dc4e730	0.09614408
91	0x3d952972	0.07283296
92	0x3df69657	0.12040394
93	0xbd998d2a	-0.07497628
94	0x3d97d9e1	0.07414604
95	0xbdd400e2	-0.10351731
96	0x3cd4258a	0.025896806
97	0x3d0a6b23	0.03379358
98	0x3bc9a52b	0.0061537228
99	0x3ca1f1ad	0.01976856
100	0xbe065683	-0.13118939
101	0x3d237555	0.03990682
102	0xbd273521	-0.040822152
103	0x3ce7d732	0.028300855
104	0x3e057292	0.13031986
105	0x3c17d4f3	0.00926708
106	0x3c04aa19	0.008097195
107	0xbc9c4248	-0.019074574
108	0x3d5a9173	0.053361367
109	0x3d670301	0.05639935
110	0xbd297935	-0.041375358
111	0xbc698dfe	-0.014255045
112	0x3de59bf9	0.1121139
113	0xbdf1f6f2	-0.11814679
114	0xbd503959	-0.05083594
115	0xbdbc7148	-0.09201294
116	0xbd822915	-0.06355492
117	0x3d9c8a9d	0.07643626
118	0xbd7d9992	-0.061914034
119	0x3dbb85dc	0.09156391
120	0x3e1b9653	0.15194063
121	0xbd65e621	-0.05612767
122	0xbd7f4b1e	-0.062327497
123	0x3dd93020	0.10604882
124	0xbd822b94	-0.06355968
125	0x3d7442fa	0.059634186
126	0xbd88d4bb	-0.066812
127	0xbcbf7658	-0.02337186
128	0xbd077b80	-0.033076763
129	0x3c3b8837	0.01144605
130	0x3d92b79f	0.07163929
131	0x3deb5bd9	0.11492128
132	0xba9fd074	-0.0012192861
133	0xbcc6527a	-0.02420925
134	0xbdc62585	-0.09675125
135	0xbd83e79a	-0.06440659
136	0x3d3461a8	0.044038445
137	0xbd0469a6	-0.032327317
138	0x3daecd17	0.085352115
139	0x3d043718	0.032279104
140	0x3c92a2a8	0.017899826
141	0x3d6e8841	0.05823541
142	0x3d2dcbec	0.042430803
143	0x3de8f6e0	0.11375213
144	0xbdb6a4be	-0.08918141
145	0xbddf0d1a	-0.10891171
146	0xbdbf70e1	-0.09347702
147	0x3c58cede	0.013232915
148	0x3d79ae42	0.0609572
149	0x3d9892a9	0.07449848
150	0x3d378413	0.04480369
151	0x3dd4c260	0.103886366
152	0xbd9699d8	-0.07353562
153	0xbd85217b	-0.065005265
154	0x3e1cab0e	0.15299627
155	0xbd409416	-0.047016226
156	0x3dea4bf6	0.1144027
157	0x3c24bc9b	0.010054733
158	0xbd2b9521	-0.041890267
159	0x3df15574	0.11783877
160	0x3dcceb45	0.100058116
161	0x3d5c3e96	0.053770624
162	0xbda72864	-0.08162001
163	0x3c38c7c9	0.011278101
164	0xbdac4542	-0.084116474
165	0xbce8d46c	-0.028421603
166	0x3dccf852	0.10008301
167	0xbcf2c473	-0.02963469
168	0xbe12db6b	-0.14341514
169	0xbdc0d41f	-0.09415459
170	0x3dc23015	0.09481827
171	0x3b535d33	0.0032251596
172	0xbba46568	-0.0050169714
173	0xbd96e29f	-0.07367443
174	0xbc9d50e8	-0.019203618
175	0x3e0c9a4f	0.13730739
176	0x3d9d8d96	0.07693021
177	0x3b9e17d4	0.004824618
178	0x3dc45de5	0.095882215
179	0xbb67916c	-0.003533448
180	0xbde59c54	-0.11211458
181	0x3ca98b85	0.02069641
182	0xbd898225	-0.06714276
183	0xbd288898	-0.04114589
184	0x3debbc5a	0.115105346
185	0xbced1eb4	-0.028945304
186	0xbc845e49	-0.01615824
187	0xbdf538a0	-0.11973691
188	0x3ddc11c2	0.107455745
189	0xbd94aa26	-0.07259016
190	0xbd7b452c	-0.061345264
191	0x3d4b386f	0.049614366
192	0x3ddf3ca0	0.10900235
193	0xbd8a7087	-0.06759744
194	0x3c0c5930	0.008566186
195	0x3e0d3a97	0.13791882
196	0xbcd2b0d8	-0.025719091
197	0x3e0d3897	0.13791119
198	0x3d4e7987	0.050408866
199	0xbb202c1c	-0.0024440354
200	0x3d2715e6	0.04079237
201	0xbdf51d53	-0.11968484
202	0x3dd442df	0.10364317
203	0x3d9b8cb0	0.075951934
204	0x3c852bb9	0.0162562
205	0xbdb70fa3	-0.08938529
206	0xbd9f1ae5	-0.077688016
207	0xbdaa931d	-0.08328841
208	0x3a5d8e79	0.0008451711
209	0xbe0adab8	-0.13559997
210	0x3d3a5385	0.045489807
211	0xbcba56ce	-0.02274647
212	0xbdd1f8ce	-0.10252534
213	0xbd6a6e72	-0.057234235
214	0xbda372b9	-0.07980866
215	0xbdc06bde	-0.09395574
216	0x3dadcdda	0.08486529
217	0x3de22663	0.11042478
218	0x3cf52dc7	0.029929055
219	0xbd4c7970	-0.0499205
220	0xbd225913	-0.03963573
221	0x3dce5fd9	0.10076875
222	0xbd20b342	-0.039233454
223	0xbdabe719	-0.08393688
224	0x3d56e882	0.05246783
225	0x3c8aadba	0.016928542
226	0x3c9b1a4d	0.01893344
227	0xbc64bde6	-0.013961291
228	0xbde68be0	-0.11257148
229	0x3d1ef50c	0.038807914
230	0xbdbc1489	-0.09183604
231	0xbd5fc654	-0.0546325
232	0x3d085179	0.033280823
233	0x3d83ce1b	0.06435796
234	0x3dc0671c	0.093946666
235	0x3da560fc	0.08075139
236	0x3d399273	0.04530568
237	0xbd211357	-0.039325085
238	0x3b8f2024	0.004367845
239	0xbd45f790	-0.048331797
240	0x3e2b7901	0.16745378
241	0xbdd916b5	-0.10600034
242	0x3d86f9ca	0.06590612
243	0x3c01a08d	0.007911813
244	0x3dbf9f62	0.09356572
245	0x3dd360c5	0.10321192
246	0x3d1c1fea	0.038116373
247	0x3e08a837	0.13345419
248	0xbd03e53e	-0.032201044
249	0x3dfdf62e	0.12400471
250	0x3b3270ab	0.00272278
251	0xbd8a86f0	-0.067640185
252	0xbd9a5017	-0.07534807
253	0xbe090888	-0.1338216
254	0xbe4a865c	-0.19777817
255	0xbe2b45b8	-0.16725814

sa1.mlp_convs.2.bias f4 [128]
0	0xbcea62ae	-0.028611507
1	0x3c9c96cd	0.019114876
2	0xbda12f51	-0.07870353
3	0x3cca7f6f	0.024718968
4	0x3ca3bb07	0.019986643
5	0x3d56af70	0.052413404
6	0x3d8881b3	0.06665363
7	0x3ce240fb	0.027618876
8	0x3a95bb55	0.0011423627
9	0xbd2b6957	-0.041848507
10	0xbc93bda9	-0.018034773
11	0xbdd7e00e	-0.10540782
12	0x3de6b717	0.1126539
13	0x3ddff9ea	0.10936339
14	0x3cc8a1e1	0.024491252
15	0x3c2ca0bf	0.010536372
16	0xbdef9e7b	-0.117001496
17	0x3d202161	0.039094333
18	0x3d9c214c	0.076235384
19	0x3dff7e4d	0.12475262
20	0x3d2649fa	0.040597893
21	0x3de4372c	0.11143336
22	0xbde62fd8	-0.11239594
23	0x3e03d25f	0.12873219
24	0xbc48655c	-0.012231197
25	0x3e139a37	0.14414297
26	0x3d08dd6f	0.0334143
27	0xbd59e5b8	-0.053197592
28	0x3db6a58a	0.08918293
29	0x3d01426b	0.03155748
30	0xbb5a2125	-0.0033283916
31	0xbdb84842	-0.08998157
32	0x3df04910	0.117326856
33	0xbd9b0b09	-0.07570464
34	0xbdd3ab61	-0.10335422
35	0x3dbc3c20	0.091911554
36	0xbd54d12e	-0.0519573
37	0xbdd9dd90	-0.10637963
38	0xbdcac1f9	-0.099002786
39	0xbd71fe79	-0.059080575
40	0xbd858311	-0.065191396
41	0x3dc01bce	0.09380303
42	0xbc912309	-0.017716901
43	0xbdc1bf12	-0.09460272
44	0xbda4a900	-0.08040047
45	0xbd4e5da5	-0.050382275
46	0x3b937531	0.0045000543
47	0xbdd3ed7d	-0.10348032
48	0x3e03063d	0.12795348
49	0xbc9fe912	-0.019520316
50	0xbdbdf0c8	-0.09274441
51	0x3cca515f	0.024697004
52	0xbd9a460f	-0.07532894
53	0x3dbf4816	0.09339921
54	0x3dca7886	0.09886269
55	0x3d121beb	0.035671156
56	0x3d5ab17a	0.05339191
57	0x3d0e5ab9	0.03475449
58	0xbd27ff58	-0.041015
59	0xbd4be1b0	-0.04977578
60	0xbd9582c0	-0.07300329
61	0x3d8d3811	0.068954594
62	0x3d6dfdb0	0.058103263
63	0xbc98b21e	-0.01863962
64	0x3d7109e1	0.058847312
65	0xbd2c9990	-0.042138636
66	0xbde1a543	-0.11017849
67	0x3dd64bbb	0.10463663
68	0x3d6ee506	0.058323883
69	0xbc261f38	-0.010139279
70	0x3ca22915	0.01979498
71	0xbdd0b7d5	-0.10191313
72	0x3de43074	0.11142054
73	0x3d3af7c3	0.04564644
74	0x3daf97dd	0.085738875
75	0x3d5b2dcf	0.053510483
76	0x3dfd5008	0.123687804
77	0x3da23498	0.07920188
78	0xbd775c32	-0.06039066
79	0x3d7baca8	0.061443955
80	0x3daa81c2	0.083255306
81	0xbd5d41d0	-0.05401784
82	0x3d9fbf8b	0.07800206
83	0x3d83a45f	0.06427836
84	0xbd9d379e	-0.07676624
85	0xbd82121a	-0.06351109
86	0x3d4284cf	0.047489937
87	0xbd15f597	-0.036611166
88	0xbda8b901	-0.08238412
89	0xbd228fbd	-0.03968786
90	0xbd33359e	-0.043752305
91	0x3dc8c04c	0.09802303
92	0x3db2aae2	0.087239996
93	0x3db86655	0.09003893
94	0x3cc55132	0.024086569
95	0xbcbb3ac0	-0.022855163
96	0x3cbdffe5	0.02319331
97	0x3cdde4f6	0.027086716
98	0x3c93120d	0.017952943
99	0xbd2437d7	-0.040092316
100	0x3dc3f111	0.09567464
101	0x3ddf952f	0.109171264
102	0x3d6fc8ad	0.05854099
103	0xbe06798a	-0.13132301
104	0x3e09223a	0.13391963
105	0xbe08b98d	-0.13352032
106	0xbd53b7a1	-0.051688794
107	0xbdf6ac4d	-0.120445825
108	0xbc81a27d	-0.01582455
109	0xbde06a58	-0.109577835
110	0x3dac8ebc	0.08425662
111	0xbd7ec4eb	-0.062199514
112	0x3dc651e5	0.09683589
113	0x3d91cde6	0.0711935
114	0x3df0b3a1	0.117530115
115	0xbe024630	-0.12722087
116	0x3d170bcf	0.036876496
117	0xbdeeca92	-0.11659731
118	0x3da51eae	0.08062492
119	0x3c24ebc9	0.010065981
120	0xbc010436	-0.007874539
121	0x3d049ce9	0.032376204
122	0x3c30fe13	0.0108027635
123	0xbdc83f2b	-0.09777673
124	0xbdd02795	-0.101638
125	0xbc862628	-0.016375616
126	0xbb7ecb54	-0.0038878517
127	0x3d7de876	0.06198927

sa1.mlp_bns.0.weight f4 [64]
0	0x3f88138a	1.0630963
1	0x3f7ae467	0.98004764
2	0x3f7d1d2a	0.98872626
3	0x3f79d309	0.9758764
4	0x3f83aa80	1.0286407
5	0x3f82457c	1.0177455
6	0x3f7d9fa6	0.9907173
7	0x3f7a3aa2	0.97745717
8	0x3f826eb8	1.0190039
9	0x3f7cea08	0.98794603
10	0x3f7a9e91	0.97898203
11	0x3f8095f5	1.0045763
12	0x3f82cdc2	1.0219042
13	0x3f7fc025	0.99902564
14	0x3f8081f4	1.0039659
15	0x3f7cd45b	0.9876153
16	0x3f7bf0ad	0.9841412
17	0x3f807c7a	1.0037987
18	0x3f81bc70	1.0135632
19	0x3f7cd9fa	0.98770106
20	0x3f746f63	0.9548246
21	0x3f7cd9d7	0.987699
22	0x3f803d68	1.001874
23	0x3f833210	1.0249653
24	0x3f7c3977	0.98525184
25	0x3f83bed6	1.0292614
26	0x3f83b062	1.0288203
27	0x3f800cfe	1.0003965
28	0x3f7b755a	0.9822594
29	0x3f7cf532	0.9881164
30	0x3f7ac7a3	0.9796087
31	0x3f74e2e1	0.9565869
32	0x3f7c7cf7	0.9862818
33	0x3f81d4c6	1.0143058
34	0x3f7ac2d8	0.9795356
35	0x3f74bbfa	0.9559933
36	0x3f8a32fa	1.0796807
37	0x3f80c92f	1.0061396
38	0x3f794612	0.97372544
39	0x3f72f114	0.94899106
40	0x3f81bfe4	1.0136685
41	0x3f830363	1.0235409
42	0x3f806373	1.003035
43	0x3f799164	0.97487473
44	0x3f76ca44	0.9640238
45	0x3f72ff40	0.9492073
46	0x3f8997d1	1.0749456
47	0x3f824261	1.0176507
48	0x3f811135	1.0083376
49	0x3f7e124f	0.99246687
50	0x3f7a20a3	0.9770605
51	0x3f809db6	1.004813
52	0x3f8ac4a3	1.0841259
53	0x3f7a1d6e	0.97701156
54	0x3f84c503	1.0372623
55	0x3f7cc5fe	0.9873961
56	0x3f7bd2f1	0.98368746
57	0x3f7ae24c	0.9800155
58	0x3f81998c	1.0124984
59	0x3f8b83dd	1.0899616
60	0x3f786276	0.9702524
61	0x3f8195ce	1.0123842
62	0x3f8205b5	1.0157992
63	0x3f7f4852	0.9971973

sa1.mlp_bns.0.bias f4 [64]
0	0x3c856b2a	0.016286451
1	0xbc523b60	-0.012831539
2	0xbb791e80	-0.0038012564
3	0xbc874699	-0.016513156
4	0x3c25b9bf	0.010115086
5	0xbce9cdd5	-0.028540531
6	0x3d56370e	0.052298598
7	0xbaf991a2	-0.0019040594
8	0x3d4ccb46	0.049998544
9	0xbbe99f98	-0.0071296208
10	0xbd5623a2	-0.052280076
11	0xbcdefa69	-0.027219014
12	0x3d4c03eb	0.049808424
13	0xbcd6f34f	-0.026239065
14	0xbcc40d33	-0.023932075
15	0xbbacea82	-0.005276979
16	0xbd3b1776	-0.04567667
17	0x3cbb08e6	0.022831392
18	0x3c1a2e82	0.009410502
19	0xbd5e7215	-0.054308016
20	0xbcfcee8b	-0.030875465
21	0xbc5d5ee3	-0.013511392
22	0x3ce3cf38	0.02780877
23	0xbd0e58c7	-0.034752633
24	0xbc68a528	-0.014199533
25	0x3c07f861	0.008298964
26	0x3d8e336a	0.069434
27	0x3cbcc30a	0.02304222
28	0xbd346865	-0.04404487
29	0xbba7bb74	-0.0051187817
30	0xbc630692	-0.013856547
31	0xbcf40cef	-0.029791323
32	0xbd1172a3	-0.035509717
33	0x3d323c1f	0.043514367
34	0xbd9282ad	-0.07153831
35	0xbd2b9bd7	-0.041896667
36	0xbc467d75	-0.012114872
37	0x3c8fcb1d	0.017552907
38	0x3b6d2bee	0.0036189514
39	0x3cc1564c	0.02360072
40	0x3d0bbd7a	0.034116246
41	0x3c2b546b	0.0104571385
42	0x3c073e22	0.00825456
43	0xbc51d780	-0.012807727
44	0x3cc1b656	0.023646515
45	0xbcb5c977	-0.022190792
46	0xbc7e492f	-0.015520378
47	0x3ce1e682	0.027575735
48	0x3c988270	0.018616885
49	0xbc642653	-0.013925153
50	0xbd0c2774	-0.034217313
51	0xbd39bdc8	-0.045347005
52	0xbd61b5e0	-0.05510509
53	0xbc1d665e	-0.009606926
54	0xbc7bfd91	-0.015380279
55	0xbcf80ec9	-0.030280488
56	0xbcc41677	-0.023936493
57	0xbbb6cf85	-0.0055789375
58	0x3bd6f1e7	0.0065595987
59	0x3da4c951	0.080462106
60	0xbd8c0c0c	-0.06838235
61	0x3d742a10	0.059610426
62	0xbca722d5	-0.020402351
63	0xbd781fae	-0.060577087

sa1.mlp_bns.0.running_mean f4 [64]
0	0x3d2ecc5c	0.04267536
1	0x3e3388e1	0.17532684
2	0x3ee27c1f	0.44235322
3	0xbe73614a	-0.23767582
4	0x3ed788a6	0.42096442
5	0xbe380851	-0.17971922
6	0x3ebeca0d	0.37263528
7	0x3ec52e08	0.38511682
8	0xbed813a0	-0.42202473
9	0xbeecc678	-0.4624517
10	0xbec4c9c7	-0.38435194
11	0xbe06a17c	-0.13147539
12	0xbeedaed9	-0.4642246
13	0xbe018e4f	-0.12651943
14	0x3ea8c405	0.3296205
15	0x3ef608ab	0.48053488
16	0xbd72a19d	-0.059236158
17	0xbe9c897e	-0.30573648
18	0x3e834171	0.25635865
19	0xbe5f86a2	-0.21828702
20	0xbd5bf8d4	-0.053704098
21	0x3dd1ce0a	0.10244377
22	0xbd510a3b	-0.051035147
23	0x3ef24b85	0.47323242
24	0x3ecda683	0.401661
25	0xbeac79db	-0.33686718
26	0x3edf2374	0.43581736
27	0xbf0b26cb	-0.5435607
28	0x3ec040ba	0.37549382
29	0xbeb45441	-0.3522053
30	0x3cf80d79	0.030279862
31	0x3e7ad14e	0.24493906
32	0xbecec910	-0.40387774
33	0x3e8a13b2	0.2696815
34	0xbdd1600e	-0.10223399
35	0x3f0df4b0	0.5545149
36	0xbeca60b9	-0.3952692
37	0xbe16cdd5	-0.14726956
38	0xbd8e149b	-0.06937524
39	0xbe80cc50	-0.25155878
40	0x3e32eac5	0.1747237
41	0xbea48869	-0.32135323
42	0x3eabbc7d	0.33542243
43	0x3f0e1431	0.5549956
44	0x3ed2cd80	0.4117241
45	0x3e584546	0.21120176
46	0xbd72f144	-0.05931212
47	0xbe7cb7fe	-0.24679562
48	0xbeb8ffc0	-0.36132622
49	0xbf0dcdae	-0.5539197
50	0x3d46f063	0.048569094
51	0xbeb1f060	-0.34753704
52	0x3cc55439	0.024088012
53	0x3e7886ca	0.24270168
54	0x3ed63e71	0.41844514
55	0xbe341548	-0.17586243
56	0x3f160355	0.58598834
57	0xbedf882b	-0.43658575
58	0xbeed9cac	-0.46408594
59	0x3e6d4dce	0.23174211
60	0x3eb7e50d	0.3591694
61	0xbe685c36	-0.22691426
62	0xbea9df9c	-0.33178413
63	0xbe90743c	-0.2821368

sa1.mlp_bns.0.running_var f4 [64]
0	0x3b560d93	0.00326619
1	0x3d0b10af	0.033951458
2	0x3c287320	0.010281354
3	0x3c8d1d36	0.017225843
4	0x3c22c51d	0.009934691
5	0x3b41bb42	0.0029561077
6	0x3c7f6205	0.0155873345
7	0x3d3b7a9d	0.04577123
8	0x3a92deb1	0.0011205283
9	0x3be993b8	0.007128205
10	0x3ca2e08d	0.019882465
11	0x3bd2642a	0.006420632
12	0x3c1ac545	0.009446447
13	0x3c008083	0.00784314
14	0x3adaecc6	0.0016702644
15	0x3c1fc79f	0.009752183
16	0x3c8a9384	0.016916044
17	0x3c5fc0a4	0.013656769
18	0x3ba8e343	0.005154045
19	0x3c8239f1	0.01589677
20	0x3cd9cea8	0.0265878
21	0x3c249368	0.01004491
22	0x3c6630be	0.014049707
23	0x3bcec58a	0.0063101696
24	0x3ad689bf	0.0016367956
25	0x3d073713	0.033011507
26	0x3a776578	0.0009437422
27	0x3ceb9cc2	0.028761271
28	0x3c8bbc0c	0.017057441
29	0x3acc282b	0.0015575936
30	0x3ce2d940	0.027691483
31	0x3cd0f93c	0.02550947
32	0x3acc52a1	0.001558859
33	0x3b8a96fb	0.004229424
34	0x3b3c425a	0.0028726072
35	0x3c0107bc	0.007875379
36	0x3c85f70e	0.016353156
37	0x3b941f85	0.004520359
38	0x3cfdc1c0	0.030976176
39	0x3cd8fccf	0.026487736
40	0x3d01da18	0.03170213
41	0x3b928ad6	0.004472117
42	0x3a798389	0.00095181965
43	0x3befc683	0.0073173656
44	0x3cb468be	0.022022601
45	0x3a774f00	0.0009434074
46	0x3ae20b57	0.0017245811
47	0x3c7bb610	0.015363231
48	0x3b9db024	0.0048122574
49	0x3c5d849f	0.013520389
50	0x3c3c23e3	0.011483165
51	0x3b99dbd6	0.004695396
52	0x3bc56a3d	0.0060246275
53	0x3cc6ce81	0.02426839
54	0x3b9789f6	0.0046246005
55	0x3a968538	0.0011483794
56	0x3cc03456	0.023462456
57	0x3bebb918	0.0071936958
58	0x3c43ce5a	0.0119510535
59	0x3bc07766	0.0058736084
60	0x3bb67127	0.005567688
61	0x3c875003	0.016517645
62	0x3bb89cd2	0.005633929
63	0x3b78174c	0.0037855683

sa1.mlp_bns.1.weight f4 [64]
0	0x3f8070e8	1.0034456
1	0x3f7e8c07	0.99432415
2	0x3f7a356d	0.9773777
3	0x3f812820	1.009037
4	0x3f80cba1	1.0062143
5	0x3f7f0fc9	0.9963346
6	0x3f78bace	0.9716004
7	0x3f8147c8	1.0100031
8	0x3f7c01c0	0.9844017
9	0x3f81088d	1.0080734
10	0x3f841b59	1.0320846
11	0x3f83ae6d	1.0287606
12	0x3f714056	0.94238794
13	0x3f7ce667	0.98789066
14	0x3f83c2b0	1.0293789
15	0x3f7ce2fc	0.9878385
16	0x3f831abe	1.0242536
17	0x3f7cb3fb	0.9871213
18	0x3f79bca3	0.9755346
19	0x3f7cd98d	0.98769456
20	0x3f7fa645	0.9986308
21	0x3f80abd9	1.0052444
22	0x3f746b67	0.9547638
23	0x3f7aaf03	0.97923297
24	0x3f7bfe64	0.98435044
25	0x3f81bbc2	1.0135424
26	0x3f88b335	1.067969
27	0x3f80983f	1.0046462
28	0x3f846862	1.0344355
29	0x3f7c4001	0.9853516
30	0x3f7c948a	0.9866415
31	0x3f7a6722	0.9781362
32	0x3f7e3e46	0.9931377
33	0x3f842efd	1.032684
34	0x3f799540	0.9749336
35	0x3f7837f2	0.96960366
36	0x3f8026d9	1.0011855
37	0x3f816c53	1.0111183
38	0x3f80d823	1.006596
39	0x3f88f79e	1.0700567
40	0x3f83f75a	1.0309861
41	0x3f838f19	1.0278045
42	0x3f802102	1.0010073
43	0x3f7b9e88	0.98288774
44	0x3f7a205d	0.9770563
45	0x3f799766	0.9749664
46	0x3f80d0e2	1.0063746
47	0x3f836c3a	1.0267403
48	0x3f84ecee	1.0384805
49	0x3f8038ed	1.0017372
50	0x3f812439	1.0089179
51	0x3f72f0b6	0.94898546
52	0x3f80855b	1.0040697
53	0x3f7cb386	0.9871143
54	0x3f841e5a	1.0321763
55	0x3f736173	0.9507057
56	0x3f8118f4	1.008574
57	0x3f86ad4d	1.0521637
58	0x3f76f6a6	0.96470106
59	0x3f82fb80	1.0233002
60	0x3f833d1f	1.0253028
61	0x3f7f7fd4	0.99804425
62	0x3f855c53	1.04188
63	0x3f81b27c	1.0132594

sa1.mlp_bns.1.bias f4 [64]
0	0x3d25ebc3	0.040508043
1	0xbc2f7a6d	-0.010710341
2	0xbcc0b3c3	-0.023523217
3	0xbbb78c2a	-0.0056014257
4	0xbbaf1ea3	-0.0053442284
5	0x3c9071ce	0.017632391
6	0x3d28f2e2	0.041247256
7	0x3b12c588	0.002239557
8	0x3b67cd89	0.0035370311
9	0x3c10bc8a	0.008834014
10	0x3ce112fd	0.027474875
11	0xbbeb8829	-0.0071878624
12	0xbd9a0a00	-0.075214386
13	0xba74bc10	-0.0009335885
14	0x3d726bb9	0.059184764
15	0x3d3ad8b3	0.045616817
16	0x3d8a4b40	0.06752634
17	0xbcb86490	-0.02250889
18	0xbd14a6c3	-0.03629185
19	0xbd06bc2a	-0.03289429
20	0xbc83ef9c	-0.016105466
21	0xbc2af13c	-0.010433491
22	0x3d158a73	0.03650899
23	0x3c11b19c	0.008892443
24	0xbd0aa65c	-0.03385006
25	0x3c0ace0d	0.008471978
26	0x3d172f1a	0.036910154
27	0x3d19c599	0.03754196
28	0x3b17be71	0.0023154283
29	0x3c553e69	0.013015368
30	0xbc90ad37	-0.01766072
31	0xbcd07688	-0.025447145
32	0x3d839252	0.06424393
33	0x3d6ea87c	0.058266148
34	0x3d812e5d	0.06307671
35	0xbbb491dd	-0.0055105523
36	0x3c078019	0.008270287
37	0x3d730f48	0.059340745
38	0x3cbc3dce	0.02297869
39	0x3cc578f7	0.024105532
40	0x3db08907	0.08619886
41	0x3cd22136	0.025650602
42	0x3c9afafb	0.018918505
43	0xbd03b097	-0.03215083
44	0xbc8400c0	-0.016113639
45	0x3d14cdb2	0.03632898
46	0x3c413d8c	0.011794459
47	0x3d7a04f6	0.061039887
48	0x3cb8cc91	0.022558482
49	0x3c8448f5	0.01614807
50	0x3d513735	0.05107804
51	0xbc0e3493	-0.008679527
52	0x3d8b4baa	0.06801541
53	0x3d554f7a	0.052077748
54	0xbc8a4195	-0.016876975
55	0xba7bc403	-0.0009604098
56	0x3ce390f9	0.02777909
57	0xbcf29c6b	-0.029615602
58	0xbd49f1b7	-0.049302783
59	0xbcd06f85	-0.025443802
60	0xbbaeafeb	-0.0053310296
61	0xbca9b6f1	-0.020717116
62	0x3d507bda	0.050899364
63	0x3d8a8d6f	0.067652576

sa1.mlp_bns.1.running_mean f4 [64]
0	0xbec69352	-0.3878427
1	0x3edb26e7	0.42803118
2	0x3d488b6a	0.04896108
3	0xbe23c70a	-0.15993896
4	0xbe27e400	-0.16395569
5	0xbe6a8b65	-0.22904737
6	0xbf220699	-0.6329132
7	0xbe92981c	-0.28631675
8	0xbe85eeb7	-0.26158687
9	0xbe9eff9f	-0.31054398
10	0xbee0b9d2	-0.4389177
11	0xbe2240b7	-0.15844999
12	0xbeb51744	-0.35369313
13	0x3e4d2f49	0.20037569
14	0xbf2fc6cf	-0.6866273
15	0xbedeb371	-0.43496278
16	0xbe9ba4a9	-0.30399063
17	0xbf0d0564	-0.5508635
18	0x3e8ca6cf	0.27471015
19	0xbecaa0d5	-0.3957583
20	0xbe212ad1	-0.1573899
21	0x3ed78d3b	0.42099938
22	0x3f002b41	0.50066
23	0xbf5c6944	-0.8609812
24	0xbedfd3e1	-0.43716338
25	0x3ea15a27	0.31514093
26	0xbebec0bd	-0.37256423
27	0x3eeaddf6	0.45872468
28	0xbef433cb	-0.47695765
29	0xbedea6cb	-0.43486628
30	0x3db6ed0b	0.08931931
31	0xbe39aa79	-0.18131436
32	0xbe26b835	-0.16281207
33	0xbf507679	-0.81430775
34	0x3ea3840e	0.31936687
35	0x3dbae113	0.09124961
36	0x3ddb68ee	0.10713373
37	0xbed88218	-0.42286754
38	0x3f473d1d	0.77827626
39	0xbe664408	-0.2248689
40	0xbebba218	-0.36647105
41	0x3d52d3b7	0.05147144
42	0xbda7abae	-0.08187042
43	0x3e1c8b23	0.15287451
44	0x3cb45c81	0.022016766
45	0xbd926940	-0.07148981
46	0xbe937555	-0.28800455
47	0xbf064b87	-0.52458996
48	0xbead6c9c	-0.33871925
49	0xbe907790	-0.2821622
50	0xbc9cb1b7	-0.01912771
51	0xbe94681a	-0.28985673
52	0x3dd7bcfa	0.10534091
53	0x3ef3ea79	0.47639826
54	0xbe286cf7	-0.16447817
55	0xbeceb962	-0.4037581
56	0xbf10ee9c	-0.5661409
57	0xbda51763	-0.08061101
58	0x3e897c2c	0.26852548
59	0x3d9cc955	0.076555885
60	0x3ea0c0e2	0.31397158
61	0x3f292bce	0.66082466
62	0xbf10c3cf	-0.5654878
63	0xbead5da8	-0.33860517

sa1.mlp_bns.1.running_var f4 [64]
0	0x3ec126e0	0.37724972
1	0x3e5ac750	0.21365094
2	0x3e253991	0.16135241
3	0x3ddd9d1b	0.10820981
4	0x3e070c0e	0.13188192
5	0x3f0c51b3	0.54812163
6	0x3f174d96	0.5910276
7	0x3e32947b	0.17439453
8	0x3db9978e	0.0906211
9	0x3e11c4b0	0.14235187
10	0x3f6377c0	0.888546
11	0x3e9eae64	0.30992424
12	0x3e8b5c40	0.2721882
13	0x3dc2947a	0.09500976
14	0x3e4a86aa	0.19777933
15	0x3de83c50	0.11339629
16	0x3e60b9b6	0.21945843
17	0x3dfcb13c	0.12338492
18	0x3eb1fb43	0.3476201
19	0x3de4186b	0.1113747
20	0x3ddc8ebc	0.10769412
21	0x3da57d8c	0.08080587
22	0x3ded6c6a	0.11592944
23	0x3e913f8f	0.28368804
24	0x3e2a17e3	0.16610675
25	0x3e22e831	0.15908886
26	0x3da93cca	0.08263548
27	0x3e163d53	0.14671831
28	0x3e24b559	0.16084804
29	0x3e9ad802	0.30242926
30	0x3e13ddaf	0.14440034
31	0x3f18bf14	0.5966656
32	0x3e3b004d	0.18261833
33	0x3e8d68ad	0.27618924
34	0x3e2c2e8a	0.16814628
35	0x3ece8ab6	0.40340203
36	0x3e5e4e03	0.21709447
37	0x3f1ca396	0.6118711
38	0x3e1aee15	0.15129884
39	0x3dad2b3a	0.084555104
40	0x3e25ff64	0.16210705
41	0x3de87481	0.11350346
42	0x3e1c8d2d	0.1528823
43	0x3ed71df6	0.42015046
44	0x3e1a7600	0.15084076
45	0x3e869c6e	0.2629122
46	0x3eebb39a	0.46035463
47	0x3e239cea	0.15977827
48	0x3e7e430c	0.24830264
49	0x3e5cc3cd	0.21559067
50	0x3e679c4d	0.22618218
51	0x3e54f7e8	0.20797694
52	0x3e5bc16c	0.21460503
53	0x3dd44c28	0.10366088
54	0x3e29cb72	0.16581514
55	0x3ed3ffad	0.41406003
56	0x3e429993	0.19003896
57	0x3e080877	0.13284479
58	0x3e15f88a	0.14645591
59	0x3e14398e	0.1447508
60	0x3ebd6663	0.36992177
61	0x3eecba02	0.46235663
62	0x3e4a24c0	0.19740582
63	0x3e59c55c	0.21266693

sa1.mlp_bns.2.weight f4 [128]
0	0x3f85a516	1.0441005
1	0x3f7b977f	0.9827804
2	0x3f804697	1.0021542
3	0x3f872175	1.0557085
4	0x3f87ef80	1.0619965
5	0x3f7df111	0.99195963
6	0x3f867e16	1.0507228
7	0x3f85fc6c	1.0467658
8	0x3f848deb	1.035581
9	0x3f8aa18f	1.0830554
10	0x3f7ea484	0.9946978
11	0x3f7a9f85	0.9789966
12	0x3f735a0a	0.95059264
13	0x3f7e7fd2	0.9941379
14	0x3f811c1e	1.0086706
15	0x3f7756d6	0.96616876
16	0x3f823e30	1.0175228
17	0x3f808193	1.0039543
18	0x3f8767f1	1.0578595
19	0x3f7642bb	0.9619557
20	0x3f807e77	1.0038594
21	0x3f7fd4df	0.9993419
22	0x3f7ab17a	0.9792706
23	0x3f79b518	0.9754195
24	0x3f7e1dc9	0.992642
25	0x3f880ead	1.0629479
26	0x3f7ba8d5	0.9830449
27	0x3f7ef8a7	0.99598163
28	0x3f841154	1.0317788
29	0x3f7870cc	0.97047114
30	0x3f7a93c4	0.9788172
31	0x3f80504c	1.0024505
32	0x3f74f947	0.9569287
33	0x3f7a707d	0.97827893
34	0x3f809137	1.0044316
35	0x3f82f8c9	1.0232173
36	0x3f741ad5	0.9535344
37	0x3f761f4b	0.961415
38	0x3f796be1	0.97430235
39	0x3f7d6e93	0.9899685
40	0x3f803bfb	1.0018305
41	0x3f7a0737	0.9766726
42	0x3f7dd265	0.9914916
43	0x3f76fd85	0.9648059
44	0x3f80beb3	1.0058197
45	0x3f7ba75c	0.98302245
46	0x3f726c26	0.9469627
47	0x3f7c93db	0.9866311
48	0x3f7ccf6c	0.98754
49	0x3f80c2a8	1.0059404
50	0x3f785ca6	0.9701637
51	0x3f825c65	1.0184447
52	0x3f8086dd	1.0041157
53	0x3f74fb2a	0.95695746
54	0x3f84a4fb	1.0362848
55	0x3f7e07ef	0.99230856
56	0x3f847108	1.0346994
57	0x3f7f9c59	0.9984794
58	0x3f7e7376	0.9939493
59	0x3f7a0e93	0.9767849
60	0x3f6fca2d	0.9366787
61	0x3f8086e0	1.004116
62	0x3f7e0144	0.9922068
63	0x3f811da0	1.0087166
64	0x3f827f76	1.0195148
65	0x3f80b993	1.0056633
66	0x3f895ccd	1.0731446
67	0x3f889dcb	1.0673155
68	0x3f797648	0.9744611
69	0x3f7c3956	0.9852499
70	0x3f85873a	1.0431893
71	0x3f7906fe	0.97276294
72	0x3f7ad1ea	0.97976553
73	0x3f83ae03	1.0287479
74	0x3f84a3d2	1.0362494
75	0x3f74e0d3	0.95655555
76	0x3f83736b	1.0269598
77	0x3f91a7e1	1.1379358
78	0x3f794c9b	0.97382516
79	0x3f76ae37	0.9635958
80	0x3f767c54	0.9628346
81	0x3f7cf908	0.9881749
82	0x3f81169f	1.0085028
83	0x3f76a8d4	0.9635136
84	0x3f8346e8	1.0256014
85	0x3f7d1503	0.98860186
86	0x3f8142b7	1.0098485
87	0x3f85a246	1.0440147
88	0x3f7e6cc3	0.9938471
89	0x3f8b2c1a	1.0872834
90	0x3f7f2ab6	0.99674547
91	0x3f7a3c07	0.97747844
92	0x3f7bf364	0.9841826
93	0x3f7c8016	0.98632944
94	0x3f817bca	1.0115902
95	0x3f7aafa1	0.9792424
96	0x3f87c798	1.0607786
97	0x3f7ee6c5	0.99570876
98	0x3f84516f	1.0337352
99	0x3f826f97	1.0190305
100	0x3f7acbed	0.97967416
101	0x3f821f31	1.0165769
102	0x3f810e0c	1.0082412
103	0x3f70ff83	0.9413988
104	0x3f804767	1.002179
105	0x3f880147	1.062539
106	0x3f828c35	1.0199038
107	0x3f7a551b	0.9778611
108	0x3f747ab0	0.95499706
109	0x3f7da9f8	0.99087477
110	0x3f81926a	1.0122807
111	0x3f77abf9	0.96746784
112	0x3f8202d4	1.0157113
113	0x3f788eb2	0.97092736
114	0x3f848acd	1.0354859
115	0x3f7a5dc7	0.9779934
116	0x3f819870	1.0124645
117	0x3f9352c9	1.1509639
118	0x3f6e8095	0.9316495
119	0x3f7baed6	0.98313653
120	0x3f7a0577	0.9766459
121	0x3f74848f	0.9551477
122	0x3f75590f	0.9583902
123	0x3f849c3f	1.0360183
124	0x3f794f2a	0.9738642
125	0x3f7ec3c7	0.9951748
126	0x3f789c6e	0.9711369
127	0x3f7fae6a	0.9987551

sa1.mlp_bns.2.bias f4 [128]
0	0xbb46ef85	-0.0030355167
1	0xbc710083	-0.014709595
2	0xbd433bb8	-0.047664374
3	0xbd082fc2	-0.03324867
4	0x3c445f9a	0.011985684
5	0xbb2ca8a5	-0.0026345637
6	0xbcda050e	-0.026613738
7	0xbd406e4a	-0.04698018
8	0x3c5b2312	0.013375061
9	0xbcd38e2a	-0.025824625
10	0xbc0fb11c	-0.0087702535
11	0xbc98d2f9	-0.018655287
12	0x3c3047d1	0.01075931
13	0xba275df6	-0.00063845457
14	0x3d2ff3e7	0.042957213
15	0xbd52f34f	-0.05150157
16	0x3b798d38	0.0038078558
17	0xbd40e9ac	-0.047097847
18	0xbb710767	-0.0036778094
19	0xbcbde3a1	-0.023179831
20	0xbc7bd8f4	-0.01537155
21	0xbc359ddd	-0.011085001
22	0x3d1b0037	0.037842
23	0x3c8b9ba2	0.017041985
24	0x3b019b22	0.0019776304
25	0x3d545969	0.05184308
26	0x3a086633	0.0005203217
27	0x3d7902ff	0.060793873
28	0x3d3f75d8	0.046743244
29	0xbc42a9db	-0.011881317
30	0xbd131346	-0.035907052
31	0x3ce7c029	0.028289871
32	0x3cdc13b7	0.02686487
33	0xba105199	-0.0005505323
34	0x3d27dbea	0.04098121
35	0x3c993846	0.018703591
36	0xbb69edbb	-0.0035694677
37	0xbcd918ae	-0.026501026
38	0xbae35348	-0.0017343545
39	0x3cb5a2a5	0.022172282
40	0xbcc08679	-0.023501622
41	0xbbf2d08f	-0.007410116
42	0xbc1c18c8	-0.009527393
43	0x3d24cc35	0.04023381
44	0xbc92168e	-0.01783302
45	0x39167ba0	0.00014351169
46	0xbc1863b4	-0.009301115
47	0xbcc63b61	-0.024198236
48	0xbb71376a	-0.003680671
49	0x3bc81c65	0.0061069005
50	0x3ccad3ac	0.024759136
51	0xbce76e2d	-0.028250778
52	0xbc11ea1a	-0.008905912
53	0xbcf2e5d7	-0.029650612
54	0x3c7a3f02	0.015273811
55	0x3caac128	0.020844057
56	0x3cacdf27	0.021102501
57	0x3b42b991	0.0029712657
58	0x3c542fe0	0.012950867
59	0xbd61bbdc	-0.055110797
60	0xbd095abe	-0.033533804
61	0xbbf7ae8b	-0.007558649
62	0xbc93e570	-0.01805374
63	0xbc953184	-0.018212087
64	0xbcb6858f	-0.022280483
65	0xbaab09e8	-0.0013049217
66	0xbc4ac346	-0.012375658
67	0x3c2909a4	0.01031724
68	0xbadb3f73	-0.0016727283
69	0xbb985d6e	-0.0046498096
70	0x3d2a0ea5	0.041517872
71	0x3c13c658	0.009019457
72	0xbc8debbe	-0.017324325
73	0xbcc48673	-0.023989892
74	0x3d693144	0.05693175
75	0xbb968700	-0.00459373
76	0x3be8312b	0.0070859394
77	0xbc071f65	-0.008247231
78	0xbb8cb45f	-0.004293963
79	0xbcaab6a9	-0.020839052
80	0x3cf9fda1	0.030516447
81	0xbd41b385	-0.047290344
82	0x3cbfde8f	0.023421554
83	0xbd107c2f	-0.03527468
84	0xbcbba491	-0.02290562
85	0xbc22c7ed	-0.009935361
86	0xbbd3c052	-0.0064621354
87	0x3b909d73	0.0044133007
88	0xbc9090f6	-0.017647248
89	0x3917e313	0.00014485074
90	0x3c793ca7	0.015212215
91	0xbc8f5713	-0.017497575
92	0xb9df378c	-0.0004257526
93	0xbc25cd19	-0.0101197
94	0xbc852080	-0.016250849
95	0xbd359215	-0.044328768
96	0xbc4ec0da	-0.012619222
97	0xbd248742	-0.040168054
98	0xbc2b34d5	-0.010449608
99	0x39b804a0	0.0003509866
100	0x3930685d	0.00016823546
101	0x3c90a255	0.017655531
102	0xbc995ef0	-0.018722028
103	0x3bb69bcc	0.0055727717
104	0xbc87b6fb	-0.016566744
105	0x3bf42a6f	0.0074513475
106	0x3c2e6aea	0.0106456075
107	0x3c6835ee	0.014173014
108	0xbc463363	-0.0120972125
109	0x3c7c3779	0.015394085
110	0x3d04c4fa	0.032414414
111	0x3c574813	0.013139742
112	0x3d05f3a2	0.03270305
113	0x3abc49b2	0.0014365225
114	0x3c9ea201	0.019364359
115	0xbd13e771	-0.03610939
116	0x3cbdeea8	0.02318509
117	0x3d00e46e	0.031467848
118	0x3c4a6b73	0.012354719
119	0xbc623882	-0.013807418
120	0xbd28767a	-0.041128613
121	0xbc1f5035	-0.009723713
122	0xbc9b1bfb	-0.01893424
123	0x3b9a69ed	0.0047123344
124	0xbd1037d4	-0.03520949
125	0xba45f726	-0.00075517816
126	0x3bf33eb3	0.007423246
127	0x3c9b4b1b	0.018956712

sa1.mlp_bns.2.running_mean f4 [128]
0	0x3e1177f5	0.14205916
1	0x3d5f2e45	0.054487485
2	0x3dc5a49a	0.09650536
3	0x3c2a755b	0.010403956
4	0x3e8ab80a	0.27093536
5	0xbf28f8aa	-0.6600443
6	0xbe6e2916	-0.2325786
7	0xbe941372	-0.28921086
8	0xbd8357eb	-0.064132534
9	0xbeedd940	-0.4645481
10	0x3e7b5790	0.24545121
11	0x3eb36553	0.35038242
12	0xbefe39a7	-0.4965336
13	0xbde26066	-0.11053543
14	0xba888e70	-0.0010418426
15	0xbcdcd02d	-0.026954735
16	0xbe92cd69	-0.2867234
17	0x3efa3e54	0.48875678
18	0xbe8e4b26	-0.2779171
19	0x3d9d6dd0	0.07686961
20	0x3e7a8c5a	0.24467602
21	0x3eb7beb9	0.35887697
22	0xbf02bf76	-0.51073396
23	0xbed1174a	-0.4083808
24	0xbe39efef	-0.18157934
25	0x3d386fc6	0.04502847
26	0xbf242f15	-0.6413434
27	0xbf086353	-0.53276557
28	0xbdf8bde9	-0.121455975
29	0xbef9f473	-0.48819312
30	0xbd86eb68	-0.06587869
31	0xbefadd0b	-0.48996767
32	0xbec002ec	-0.3750223
33	0xbef9a3ff	-0.48757932
34	0xbefae0ff	-0.48999783
35	0x3d0ec603	0.034856807
36	0xbdb03702	-0.08604242
37	0xbe4f16b4	-0.20223504
38	0x3e8d5592	0.27604347
39	0xbf316542	-0.6929513
40	0xbe05a7a5	-0.13052233
41	0xbe362a42	-0.17789558
42	0xbe259861	-0.16171409
43	0xbe69502f	-0.22784494
44	0xbe3df2d2	-0.1854966
45	0xbf06afe2	-0.52612126
46	0xbe3605e5	-0.17775686
47	0x3f048736	0.51768816
48	0x3f25279b	0.6451356
49	0x3ee3bbe9	0.44479302
50	0xbeabccb5	-0.33554617
51	0xbc8d265f	-0.01723021
52	0xbeb40df2	-0.3516689
53	0xbe84069e	-0.257863
54	0xbee7771e	-0.45208067
55	0x3d16db4a	0.036830224
56	0xbd296dce	-0.041364484
57	0xbca4e380	-0.020128012
58	0xbc84a9c0	-0.016194224
59	0x3e542e4c	0.20720786
60	0x3d703de0	0.05865276
61	0xbde7033d	-0.112799145
62	0x3eac0ddb	0.3360432
63	0xbf47a653	-0.77988166
64	0xbe1f1ccf	-0.15538333
65	0xb8c1bdc9	-9.2383074e-05
66	0xbe4a4302	-0.19752124
67	0xbedf03a5	-0.43557468
68	0x3eac12de	0.33608145
69	0x3ec319ad	0.38105527
70	0xbf3c591c	-0.7357347
71	0xbe0af9aa	-0.13571802
72	0xbe9a8f25	-0.30187336
73	0x3df5547c	0.11979005
74	0xbf14cdab	-0.58126324
75	0xbf00ad3f	-0.5026435
76	0x3b19b490	0.002345357
77	0xbda55eee	-0.08074747
78	0xbea4d5a5	-0.32194248
79	0xbd211d8b	-0.039334815
80	0x3eb0dc3c	0.34543025
81	0xbe9785a9	-0.29594162
82	0xbcc7b820	-0.02437979
83	0xbecfc9a3	-0.40583524
84	0x3f0ea8c0	0.5572624
85	0xbe6bc2a8	-0.23023474
86	0x3e72346e	0.23652813
87	0xbeb1fe85	-0.34764495
88	0xbe9bde9b	-0.30443272
89	0xbf1529d1	-0.5826693
90	0x3e226ca2	0.15861753
91	0x3e85db99	0.26144102
92	0xbee06c6c	-0.4383272
93	0x3f22cfd3	0.63598365
94	0xbeba580a	-0.36395293
95	0xbd983ed3	-0.07433858
96	0x3e82fcb7	0.2558343
97	0xbe7963f0	-0.2435453
98	0xbf0278de	-0.5096568
99	0x3f02b443	0.5105631
100	0xbd98e136	-0.074648306
101	0x3ee86340	0.45388222
102	0xbdde51cd	-0.10855446
103	0xbed841db	-0.42237744
104	0x3cf53c0f	0.029935865
105	0x3e16ac54	0.14714175
106	0xbf074837	-0.52844566
107	0xbd487d7b	-0.048947793
108	0x3e2beb0a	0.16788879
109	0x3e808bf5	0.2510678
110	0xbdafb4c6	-0.08579402
111	0xbdb24806	-0.08705144
112	0x3e88010e	0.26563305
113	0xbd3a4df1	-0.045484487
114	0x38c4d045	9.3848015e-05
115	0x3e58e4ca	0.21181026
116	0xbd702e72	-0.058638044
117	0x3e315a45	0.17319591
118	0x3b924645	0.004463943
119	0x3eae608d	0.34058037
120	0x3ed4720e	0.41493267
121	0xbe005a03	-0.12534337
122	0xbdd30620	-0.103039026
123	0xbf18534e	-0.5950211
124	0xbd22b48e	-0.03972297
125	0x3e9fe3cf	0.31228492
126	0x3e95e9be	0.29279894
127	0x3f030ae6	0.51188505
