pointnet_table_classifier.pth (torch, 479771 bytes, 44 tensors)

sa1.mlp_convs.0.weight f4 [64, 3, 1, 1]
0.23844028 -0.011287841 0.10002259 -0.06641043 -0.42614356 -0.35539994 0.111087 -0.18730426
0.014697911 0.37549508 -0.44459862 -0.31792668 0.3845755 0.28487107 0.4549204 -0.36247024
0.5511346 -0.4816191 -0.17358838 0.26466823 0.28630725 -0.0028999082 -0.20659108 0.39052978
-0.16840662 -0.378021 0.10704637 0.37013003 0.55375797 -0.067296535 -0.108298324 0.11822662
-0.38207564 -0.33036667 0.39628193 -0.53168565 0.21746142 -0.36405972 -0.06674775 0.1835908
-0.5318596 0.3463967 0.37303048 0.14514767 0.06406861 -0.20821764 -0.56149507 -0.34393346
-0.14658532 -0.28241503 0.0141952 -0.4760623 0.2656265 -0.25953498 -0.234783 0.43352348
-0.5095988 -0.28111938 -0.49314412 0.21499237 0.18521802 -0.5496423 0.2903874 0.47490603
-0.46923497 -0.018220024 -0.405717 0.17701212 -0.5485785 -0.0022315988 0.12553486 0.17233497
0.041460324 0.01757433 0.1783344 -0.52528214 -0.3065355 0.10812786 0.36360985 -0.5143112
-0.09885379 0.39448902 0.5124966 -0.10660292 0.13034225 0.051652238 0.11749259 0.06492093
0.46649212 0.1801193 -0.253822 0.4387446 -0.42967594 -0.013423478 -0.485076 -0.4341042
0.17983946 0.41706827 -0.007530383 0.49801332 -0.55241394 -0.10236375 0.38681698 -0.081027955
-0.074801 0.21044058 -0.39527246 -0.07556408 -0.30721775 0.51076055 -0.13154158 0.11752718
-0.062946245 0.23394464 0.28648347 -0.41933605 0.25776517 -0.48702973 0.5058774 -0.17591873
0.069865085 0.56320703 0.17952158 0.33174405 -0.2807978 0.031874295 0.40301168 0.50063485
-0.5488587 -0.24409239 -0.2399409 0.10113769 0.045529656 -0.35159624 0.38605714 0.39776653
0.3529541 -0.21315455 -0.3235957 0.32003614 -0.17490585 -0.37460428 -0.06902411 0.1555651
0.16716097 0.25561175 0.05456235 -0.34553736 0.2566348 0.3417346 0.27274692 0.2547157
0.35561275 -0.16836637 0.19433683 -0.114143334 0.2079678 -0.2745429 0.19019698 0.43471953
-0.26675004 -0.43839625 0.15156937 -0.08992184 -0.03145148 0.02860736 -0.010523673 0.05670378
0.5156771 0.015265025 -0.15289 -0.3036769 -0.37927902 0.2004845 -0.07680014 -0.011567259
-0.18556555 -0.23542188 0.41176093 0.3126358 0.2960728 0.32393333 0.43557125 0.056177318
0.20356496 0.09154922 0.1441665 0.36551118 -0.17467825 -0.17173699 -0.37282023 -0.020518733
00000000: b029 743e a3f0 38bc a5d8 cc3d 3102 88bd
00000010: 7d2f dabe fbf6 b5be 9581 e33d b0cc 3fbe
00000020: 82cf 703c e440 c03e 6ea2 e3be 49c7 a2be
00000030: 14e7 c43e 9fda 913e 54eb e83e b395 b9be
00000040: 2817 0d3f c796 f6be 27c1 31be 9882 873e
00000050: dd96 923e 630c 3ebb 9d8c 53be 85f3 c73e
00000060: c972 2cbe f88b c1be 213b db3d af81 bd3e
00000070: 15c3 0d3f c4d2 89bd 83cb ddbd cc20 f23d
00000080: 6b9f c3be d225 a9be 77e5 ca3e 8d1c 08bf
00000090: 35ae 5e3e 0966 babe 0bb3 88bd 3aff 3b3e
000000a0: f327 08bf e95a b13e dafd be3e 97a1 143e
000000b0: 6736 833d 0137 55be 24be 0fbf 0c18 b0be
000000c0: 761a 16be b498 90be fc92 683c 70be f3be
000000d0: 3200 883e c5e1 84be f46a 70be caf6 dd3e
000000e0: 1175 02bf e1ee 8fbe 637d fcbe f626 5c3e
000000f0: cba9 3d3e 5cb5 0cbf a8ad 943e e226 f33e
00000100: 913f f0be 2942 95bc 23ba cfbe aa42 353e
00000110: a46f 0cbf 0440 12bb 368c 003e 9478 303e
00000120: 4dd2 293d 0bf8 8f3c 4b9d 363e e478 06bf
00000130: 39f2 9cbe 2472 dd3d 122b ba3e e6a9 03bf
00000140: db73 cabd 77fa c93e fa32 033f a252 dabd
00000150: 7078 053e 4c91 533d f49f f03d 44f5 843d
00000160: 0ed8 ee3e 3271 383e f5f4 81be 22a3 e03e
00000170: 7cfe dbbe 26ee 5bbc e25b f8be e842 debe
00000180: d627 383e f989 d53e 6ec1 f6bb 9afb fe3e
00000190: 006b 0dbf 16a4 d1bd e00c c63e fcf1 a5bd
000001a0: 4431 99bd bc7d 573e 2761 cabe 57c1 9abd
000001b0: a54b 9dbe 34c1 023f d6b2 06be 17b2 f03d
000001c0: f6e9 80bd 2f8f 6f3e f6ad 923e 37b3 d6be
000001d0: ccf9 833e f65b f9be 2e81 013f 0a24 34be
000001e0: 6d15 8f3d 562e 103f 81d4 373e 5bda a93e
000001f0: bbc4 8fbe 9f8e 023d 8c57 ce3e 9b29 003f
00000200: 0182 0cbf 5bf3 79be 11b3 75be 4721 cf3d
00000210: 4e7d 3a3d 6c04 b4be 48a9 c53e 0ea8 cb3e
00000220: 66b6 b43e 3045 5abe 56ae a5be c7db a33e
00000230: 851a 33be 22cc bfbe 835c 8dbd 754c 1f3e
00000240: 3f2c 2b3e 8bdf 823e c57c 5f3d 46ea b0be
00000250: a365 833e d6f7 ae3e 7ca5 8b3e 196a 823e
00000260: e012 b63e 3c68 2cbe 3c00 473e fbc3 e9bd
00000270: 83f5 543e e390 8cbe ffc2 423e 8f93 de3e
00000280: 7693 88be 7975 e0be 0035 1b3e f128 b8bd
00000290: 44d3 00bd fb59 ea3c 7c6b 2cbc 3942 683d
000002a0: 6a03 043f 281a 7a3c 328f 1cbe 8a7b 9bbe
000002b0: dc30 c2be cf4b 4d3e 6449 9dbd 9a84 3dbc
000002c0: e504 3ebe 6f12 71be 54d2 d23e cd11 a03e
000002d0: db96 973e 97da a53e 3203 df3e 301a 663d
000002e0: 5573 503e 287e bb3d 62a0 133e 4824 bb3e
000002f0: dbde 32be d2db 2fbe 4be2 bebe e716 a8bc

sa1.mlp_convs.0.bias f4 [64]
0.016207244 0.37723824 -0.21120447 -0.37310997 -0.5175758 0.26767936 0.42088386 0.44189852
-0.54764557 -0.5465142 -0.3266134 0.028085258 0.10443188 -0.4373661 -0.08508061 0.45617253
0.035848454 0.4599799 -0.13384348 0.57270205 0.4448208 0.458496 0.10612194 -0.2385317
0.09002503 0.509425 0.42526188 -0.36881652 0.45257893 -0.16133827 -0.058790293 0.21131241
-0.2912335 -0.24411778 -0.4095216 0.4948804 -0.17724985 -0.46994492 0.15023169 0.027436087
0.4006677 0.4036344 -0.29892766 0.4210196 0.5326039 0.54517365 0.014059084 -0.3520765
-0.21303582 -0.47790235 -0.19434065 0.2710115 -0.32968277 -0.34361747 -0.12033212 -0.3788959
0.13886704 0.41068992 -0.35689783 -0.016023202 0.0030469205 -0.04192005 -0.09217177 -0.004928043
00000000: 0ec5 843c 5f25 c13e fc45 58be 4508 bfbe
00000010: d97f 04bf 450d 893e 177e d73e 8640 e23e
00000020: 8032 0cbf 5be8 0bbf df39 a7be 0e13 e63c
00000030: 62e0 d53d 73ee dfbe be3e aebd 728f e93e
00000040: d4d5 123d 7c82 eb3e 440e 09be 9a9c 123f
00000050: 8dbf e33e fdbf ea3e 7656 d93d a741 74be
00000060: 0b5f b83d ad69 023f edbb d93e 85d5 bcbe
00000070: 6db8 e73e dc35 25be 17ce 70bd 4862 583e
00000080: 8f1c 95be 03fa 79be d1ac d1be f760 fd3e
00000090: fc80 35be 9f9c f0be 56d6 193e a5c1 e03c
000000a0: 5124 cd3e 2ba9 ce3e 0c0d 99be e28f d73e
000000b0: bb58 083f 8090 0b3f 1258 663c 5f43 b4be
000000c0: 1026 5abe 9eaf f4be 3c01 47be 05c2 8a3e
000000d0: 2ecc a8be a1ee afbe b070 f6bd a5fe c1be
000000e0: 2933 0e3e f345 d23e 50bb b6be 1743 83bc
000000f0: d8ae 473b 5cb4 2bbd 8ec4 bcbd 6c7b a1bb

sa1.mlp_convs.1.weight f4 [64, 64, 1, 1]
-0.023568915 -0.034267697 -0.1222828 -0.058742635 -0.105932556 0.12202702 -0.022846209 -0.020740148
0.083399884 -0.07902541 0.08428695 -0.060427014 -0.11627935 -0.03441795 0.06629883 -0.04682235
0.029484564 0.11718716 -0.0396574 -0.048623767 -0.10751613 -0.0014411116 0.09552068 -0.08313218
-0.07666943 0.08561976 0.10826334 -0.04121308 -0.096859634 0.048204113 -0.033104558 -0.07440341
-0.08576081 -0.007238244 0.004481365 -0.08233019 -0.08572682 -0.07852736 -0.065108076 -0.094007134
-0.021447575 -0.12388247 -0.11335742 0.04195963 -0.063460365 -0.07233214 0.049049973 0.08130132
0.016576013 0.052760337 0.0017060172 0.06082358 0.033509724 0.016455155 -0.026282093 -0.012489884
-0.028976994 -0.06406951 -0.0064048795 0.04503181 -0.020308744 -0.13510582 -0.11390095 0.078257956
0.009182013 -0.077139646 0.039067693 -0.12629715 0.10952406 0.050158173 -0.034747228 0.0021845456
-0.007984474 -0.00730397 -0.022788517 -0.06687438 0.09469356 -0.11712464 -0.0378052 -0.11418368
0.047085818 0.11296321 0.100021064 0.10357698 -0.06035988 0.12181936 0.023364909 0.06305358
0.10476117 -0.035468735 0.12069957 0.12719236 -0.006589437 0.12101541 0.007426304 -0.04420948
0.106017426 0.08365297 0.0042807665 0.018035386 0.104961716 -0.08657253 0.030577838 -0.12479692
-0.07388114 -0.0930967 -0.09907316 -0.04082303 -0.06493438 0.1230679 -0.04766923 0.01943662
-0.0501926 -0.08272833 0.0011647987 -0.09269057 -0.10145323 0.114355855 0.12069628 0.09478138
-0.010402597 0.08367926 0.092351586 0.11794191 0.015559112 -0.06570525 0.017621335 0.11804064
-0.0788193 -0.0022684706 -0.020369673 0.02723542 -0.05866437 -0.04174655 -0.11015619 -0.090811715
0.004551842 -0.06985911 -0.08072996 -0.12581754 0.036941357 -0.09840862 -0.10760542 -0.087531194
-0.0351157 0.09407636 0.07516377 -0.017634973 -0.06698668 0.015447343 0.080852464 -0.13632597
0.067435205 0.08785904 0.11321484 -0.078693286 0.022664161 -0.018653959 0.03017351 0.0855391
0.018456273 0.010749459 -0.1026114 -0.11615888 -0.027096042 -0.12623073 -0.005974144 0.114699624
0.05453669 0.0822066 -0.05207971 -0.08218225 -0.10375137 -0.01293054 0.04421251 -0.10185242
0.034922257 0.10311272 0.06368961 -0.0037232973 0.053023312 -0.059184227 -0.10936288 0.029204967
0.06252059 0.06880555 -0.08222341 0.06811088 -0.034851234 0.026252717 -0.04654312 0.0986953
-0.08607613 0.06803649 -0.014775507 0.07807698 -0.0010051917 0.092885 0.0957516 -0.09294945
0.057338715 -0.07310219 -0.06425038 0.12149524 -0.09728794 0.043760184 -0.087482125 0.008306026
-0.010317068 -0.07210225 -0.018964741 -0.08951917 0.011378171 -0.03625629 0.032774635 0.08702632
-0.09812563 0.008290245 -0.0684656 -0.09583288 0.050423894 0.07183946 -0.054372985 -0.1072132
-0.10934221 -0.1372532 -0.029506736 -0.13835166 0.018592719 0.09921881 0.085244015 -0.018577812
0.07797438 0.0629427 0.10474333 0.005781789 0.042614046 0.031279076 0.08829043 -0.09109151
-0.06594721 0.087160766 0.10603644 -0.053051345 0.013462942 -0.02699039 -0.083861984 0.08516249
0.07154412 0.052024618 -0.094853014 0.014118243 0.055422094 -0.025728056 0.10490158 0.017070688
00000000: 9913 c1bc 495c 0cbd 686f fabd 1e9c 70bd
00000010: 2bf3 d8bd 4de9 f93d f927 bbbc 3ee7 a9bc
00000020: 8fcd aa3d 13d8 a1bd a39e ac3d 5182 77bd
00000030: de23 eebd d6f9 0cbd aec7 873d cbc8 3fbd
00000040: 9d89 f13c d2ff ef3d cc6f 22bd b729 47bd
00000050: 6b31 dcbd aee3 bcba 59a0 c33d 3441 aabd
00000060: dd04 9dbd 6a59 af3d 2cb9 dd3d 0ccf 28bd
00000070: 585e c6bd ad71 453d a598 07bd d160 98bd
00000080: 5da3 afbd cb2e edbb 6ad8 923b bb9c a8bd
00000090: 8b91 afbd f4d2 a0bd 6257 85bd d086 c0bd
000000a0: d3b2 afbc 18b6 fdbd ef27 e8bd dcdd 2b3d
000000b0: 82f7 81bd df22 94bd a0e8 483d 4e81 a63d
000000c0: 6bca 873c 391b 583d 709c df3a 2522 793d
000000d0: 7e41 093d f6cc 863c 8b4d d7bc 5fa2 4cbc
000000e0: 2961 edbc e036 83bd 06e0 d1bb 4673 383d
000000f0: 865e a6bc 2e59 0abe e744 e9bd b545 a03d
00000100: 2770 163c 64fb 9dbd 7205 203d 0a54 01be
00000110: 264e e03d a872 4d3d 1c53 0ebd 982a 0f3b
00000120: 50d1 02bc 2456 efbb fcae babc 6ff5 88bd
00000130: b2ee c13d 0bdf efbd a0d9 1abd 22d9 e9bd
00000140: 0fdd 403d 4159 e73d d8d7 cc3d 2b20 d43d
00000150: ec3b 77bd 6e7c f93d c467 bf3c 3c22 813d
00000160: 068d d63d aa47 11bd 5631 f73d b73e 023e
00000170: 34ec d7bb edd6 f73d 5a58 f33b 0015 35bd
00000180: aa1f d93d 4052 ab3d ac45 8c3b f2be 933c
00000190: 2bf6 d63d f04c b1bd 607e fa3c 8795 ffbd
000001a0: ff4e 97bd 7ca9 bebd dee6 cabd 0d36 27bd
000001b0: 51fc 84bd 060b fc3d cf40 43bd 8c39 9f3c
000001c0: c196 4dbd 786d a9bd 29ac 983a 8ed4 bdbd
000001d0: b6c6 cfbd 6733 ea3d 9c2f f73d bd1c c23d
000001e0: a76f 2abc 0860 ab3d d422 bd3d 878b f13d
000001f0: a5eb 7e3c 7990 86bd 9e5a 903c 4bbf f13d
00000200: 036c a1bd 9faa 14bb 4dde a6bc d11c df3c
00000210: 0d4a 70bd 6efe 2abd 9299 e1bd 7efb b9bd
00000220: 9e27 953b 4b12 8fbd c055 a5bd 50d6 00be
00000230: d24f 173d 758a c9bd 3b60 dcbd 8e43 b3bd
00000240: 7bd5 0fbd 1bab c03d 76ef 993d 3877 90bc
00000250: 5030 89bd da16 7d3c fa95 a53d 0999 0bbe
00000260: 781b 8a3d 71ef b33d 2fdd e73d f229 a1bd
00000270: 31aa b93c 30d0 98bc 702e f73c 202f af3d
00000280: 9c31 973c 801e 303c ed25 d2bd b5e4 edbd
00000290: 85f8 ddbc a142 01be c1c2 c3bb a3e7 ea3d
000002a0: dd61 5f3d ef5b a83d 8951 55bd 2b4f a8bd
000002b0: 997b d4bd 9eda 53bc 2d18 353d 0098 d0bd
000002c0: a40a 0f3d c32c d33d b36f 823d 9002 74bb
000002d0: f92e 593d 296b 72bd a5f9 dfbd 413f ef3c
000002e0: cc0a 803d ede9 8c3d bf64 a8bd b87d 8b3d
000002f0: 2bc0 0ebd f00f d73c 00a4 3ebd c320 ca3d
00000300: af48 b0bd b756 8b3d f814 72bc d3e6 9f3d
00000310: a3c0 83ba 7e3a be3d 6a19 c43d 485c bebd
00000320: 00dc 6a3d 9ab6 95bd b495 83bd 7fd2 f83d
00000330: e63e c7bd e13d 333d d429 b3bd 0016 083c
00000340: eb08 29bc 58aa 93bd f25b 9bbc d455 b7bd
00000350: 826b 3a3c 7a81 14bd b23e 063d db3a b23d
00000360: 17f6 c8bd cfd3 073c b137 8cbd 0744 c4bd
00000370: 4989 4e3d 9120 933d 35b6 5ebd 9892 dbbd
00000380: cfee dfbd 1a8c 0cbe 1cb8 f1bc 0fac 0dbe
00000390: c24f 983c 3b33 cb3d 6a94 ae3d 7f30 98bc
000003a0: 08b1 9f3d 1ae8 803d ac83 d63d 2975 bd3b
000003b0: 118c 2e3d 7d1e 003d 9dd1 b43d 308e babd
000003c0: 550f 87bd 5881 b23d a229 d93d 5e4c 59bd
000003d0: ac93 5c3c f31a ddbc d5bf abbd ac69 ae3d
000003e0: b985 923d c417 553d 4c42 c2bd 3450 673c
000003f0: 4702 633d a5c3 d2bc a4d6 d63d d4d7 8b3c

sa1.mlp_convs.1.bias f4 [64]
0.04594408 0.044282056 0.07607671 0.06718978 0.05869363 0.108194366 -0.12916292 0.09587603
-0.024153678 -0.094710775 0.059183527 -0.04005294 -0.028523274 0.07778445 -0.06645133 -0.10483005
-0.046221763 0.060735323 -0.12006032 0.0069576288 0.09310776 -0.10753806 -0.016087104 0.021937985
0.0979079 -0.035326634 0.01566782 -0.077685736 0.038032822 -0.023165902 0.035280906 -0.07985796
0.10153038 -0.020376174 -0.11295714 0.026866928 -0.060765166 -0.12721819 0.042566255 -0.014596199
-0.023975497 0.04836766 0.021892611 -0.011228605 -0.06982722 -0.0039618122 -0.12882376 0.05341125
-0.048227064 0.08829935 0.1065906 0.104859844 0.065157205 0.03196646 -0.04105186 0.11249446
-0.0836938 -0.08716008 0.0636235 -0.09191217 -0.091627546 -0.05966195 -0.055149477 -0.081332356
00000000: dc2f 3c3d 1a61 353d 1bce 9b3d cc9a 893d
00000010: bb68 703d 0295 dd3d 4943 04be a75a c43d
00000020: efdd c5bc b9f7 c1bd 6d6a 723d 8d0e 24bd
00000030: a4a9 e9bc 744d 9f3d a317 88bd 23b1 d6bd
00000040: 0853 3dbd 9ac5 783d 2fe2 f5bd d2fc e33b
00000050: 48af be3d ea3c dcbd 1ac9 83bc 4ab7 b33c
00000060: f083 c83d a9b2 10bd cd59 803c b319 9fbd
00000070: 4ec8 1b3d 6bc6 bdbc b682 103d 928c a3bd
00000080: 29ef cf3d efeb a6bc 1356 e7bd 0818 dc3c
00000090: e5e4 78bd 7c45 02be f459 2e3d e524 6fbc
000000a0: 4368 c4bc 2b1d 463d 2258 b33c 2ff8 37bc
000000b0: 9301 8fbd 17d2 81bb 60ea 03be c1c5 5a3d
000000c0: be89 45bd 4ad6 b43d 2c4c da3d c2c0 d63d
000000d0: 2471 853d 43ef 023d ff25 28bd 7f63 e63d
000000e0: a867 abbd fc80 b2bd 0a4d 823d 733c bcbd
000000f0: 39a7 bbbd 1760 74bd 6be4 61bd 9491 a6bd

sa1.mlp_convs.2.weight f4 [128, 64, 1, 1]
-0.009052848 -0.027367007 0.04196004 -0.029821152 -0.018549448 -0.01088838 -0.09079907 0.006155418
0.08133413 0.0905516 -0.065277904 0.09333597 -0.1310419 -0.00066255213 -0.033485316 -0.040560674
-0.08893222 -0.028492685 0.07737635 -0.0983602 0.0731678 0.06645598 -0.0061797574 0.044997513
0.13263375 0.10129546 -0.12918614 -0.09817535 -0.0941436 0.11351394 0.04183207 0.0138222715
0.099773884 -0.114526816 0.033915862 0.030062515 0.09187824 -0.08565997 -0.0487158 -0.010028171
-0.056900103 -0.03686412 0.06846585 0.0077385777 -0.13639992 -0.06483921 -0.009918173 0.029012177
0.009097428 -0.043556243 0.09690499 -0.03318238 0.06797098 -0.08851991 -0.117028594 -0.10941235
0.036143098 -0.08259131 -0.08511551 0.07205363 -0.10846081 -0.011289489 0.12744935 0.050341077
0.0100981565 0.06437444 0.051512696 -0.03628879 0.038024336 0.031798676 0.029554496 -0.06923534
0.07879376 0.08112492 0.036399778 -0.062558115 0.066356115 0.08407311 0.08291615 -0.055417273
-0.080264345 -0.09933219 0.0733209 -0.124326766 -0.11972825 0.106545016 0.13568987 0.0831909
-0.045652483 0.044700857 -0.04953806 -0.078315124 -0.069901764 -0.10393315 -0.024164293 -0.0451487
0.007869714 0.047748696 -0.009432162 -0.008847609 0.10076157 -0.080977604 0.13625829 -0.00046238204
0.06562958 -0.013070704 -0.11447576 0.0002723503 0.11842181 -0.12022499 0.06500294 -0.08675411
0.027759822 0.06710517 0.017727606 0.041712992 0.019716814 -0.099942386 -0.0018535954 0.054315347
-0.06345124 -0.010823082 -0.09274111 -0.09251599 0.040995207 0.06034819 0.0059955237 -0.05219177
0.116362 -0.06785128 0.033984337 -0.0018097344 0.08417837 -0.012176757 0.09911786 -0.013177498
0.002416674 0.0054205745 0.108826585 0.018647024 0.0823137 0.09072481 0.09009895 -0.06325669
-0.07808007 -0.07341215 0.040740367 0.013180065 -0.0014620452 -0.08915428 -0.021763489 -0.010396407
0.03276899 0.113166496 -0.0026601772 0.09941234 -0.04989132 -0.044292968 0.07363048 0.01016089
-0.08726039 -0.012326324 0.019331452 -0.02944583 0.07472275 0.09900381 0.025081707 -0.07233791
0.09792798 0.10711064 -0.033388097 0.055118848 0.11548011 0.08978744 0.036158282 0.05602077
0.13038406 -0.075982004 0.09188943 0.118805006 0.057058465 -0.08825918 0.10941166 -0.12246126
-0.043803297 -0.0791822 0.12071817 -0.0102318 0.038236033 0.06123281 -0.07432867 0.06278028
-0.083101735 -0.05407217 0.03976067 -0.027116532 -0.12224212 -0.089994304 -0.05372912 -0.11844717
0.018038014 -0.12750292 0.07260021 0.03838383 0.086624905 -0.041492775 0.01741273 0.053355172
-0.13911746 -0.064684525 -0.09887209 -0.025704285 0.10203239 -0.008145459 -0.01718443 0.10826244
0.049057752 0.03429366 0.05510516 -0.067742966 -0.015560947 0.013434541 0.033679135 0.064739496
-0.020222872 0.062572084 0.10088303 -0.05928416 0.09902498 0.04839309 -0.110653915 -0.004145813
0.05165877 0.022644693 -0.03386693 -0.010025565 0.09743269 0.09487401 -0.09787824 0.041194275
0.02579691 -0.035583194 0.09368048 -0.005505776 0.14551324 -0.049393386 0.11426948 -0.06005163
0.07283623 -0.076426476 0.04358186 -0.05664609 -0.022270624 0.018440168 -0.03254928 0.0473503
00000000: 6652 14bc c630 e0bc 4ade 2b3d 7d4b f4bc
00000010: 03f5 97bc 2d65 32bc ddf4 b9bd 64b3 c93b
00000020: 8292 a63d 1e73 b93d 6cb0 85bd ee26 bf3d
00000030: d92f 06be 1faf 2dba e627 09bd f322 26bd
00000040: 1922 b6bd 7e69 e9bc 7e77 9e3d 1371 c9bd
00000050: 00d9 953d 131a 883d 907f cabb 504f 383d
00000060: 24d1 073e fe73 cf3d 5f49 04be 2810 c9bd
00000070: 5cce c0bd ff79 e83d 1b58 2b3d cf76 623c
00000080: 4056 cc3d 098d eabd 5ceb 0a3d aa45 f63c
00000090: a92a bc3d 7f6e afbd 388a 47bd 334d 24bc
000000a0: 1510 69bd d5fe 16bd d337 8c3d e593 fd3b
000000b0: 6cac 0bbe 6bca 84bd d57f 22bc f2aa ed3c
000000c0: 610d 153c 0868 32bd 2076 c63d 3fea 07bd
000000d0: 5f34 8b3d ed49 b5bd b0ac efbd 9513 e0bd
000000e0: c90a 143d a225 a9bd 0a51 aebd db90 933d
000000f0: b320 debd 8df7 38bc 1582 023e 7232 4e3d
00000100: bd72 253c bfd6 833d fafe 523d 8ea3 14bd
00000110: 68bf 1b3d 543f 023d 451c f23c 42cb 8dbd
00000120: 9f5e a13d d224 a63d ef17 153d 781e 80bd
00000130: b7e5 873d 862e ac3d f1cf a93d 39fd 62bd
00000140: a261 a4bd ad6e cbbd 4529 963d 089f febd
00000150: 1634 f5bd 4634 da3d 49f2 0a3e fe5f aa3d
00000160: 19fe 3abd 3f18 373d 6ce8 4abd ae63 a0bd
00000170: a828 8fbd e7da d4bd 32f4 c5bc d8ed 38bd
00000180: f9ef 003c 2394 433d 5b89 1abc 90f5 10bc
00000190: 155c ce3d 96d7 a5bd 4b87 0b3e de6b f2b9
000001a0: cd68 863d 8226 56bc 4472 eabd 3dca 8e39
000001b0: 2287 f23d 8538 f6bd 4320 853d 24ac b1bd
000001c0: 9168 e33c 6f6e 893d 7c39 913c 3edb 2a3d
000001d0: 2885 a13c 98ae ccbd 57f4 f2ba c579 5e3d
000001e0: b9f2 81bd 4c53 31bc 0def bdbd 0679 bdbd
000001f0: 97ea 273d aa2f 773d 1976 c43b 0ac7 55bd
00000200: 334f ee3d 9df5 8abd 2933 0b3d 9c34 edba
00000210: b665 ac3d 0581 47bc 4efe ca3d 6fe6 57bc
00000220: 1061 1e3b 139f b13b 79e0 de3d a5c1 983c
00000230: 1694 a83d eecd b93d cc85 b83d b98c 81bd
00000240: 72e8 9fbd 1c59 96bd 5fdf 263d 33f1 573c
00000250: 19a2 bfba 8596 b6bd 5849 b2bc b155 2abc
00000260: c738 063d d6c3 e73d 5e56 2ebb b298 cb3d
00000270: d75a 4cbd 8b6c 35bd 94cb 963d dd79 263c
00000280: 93b5 b2bd 5af4 49bc fe5c 9e3c 6238 f1bc
00000290: 3e08 993d 82c2 ca3d 2778 cd3c e625 94bd
000002a0: 778e c83d d35c db3d f5c1 08bd 4dc4 613d
000002b0: d680 ec3d 7ae2 b73d b51a 143d 0976 653d
000002c0: 6683 053e 749c 9bbd 8730 bc3d 0a50 f33d
000002d0: 23b6 693d 3bc1 b4bd 3813 e03d f8cc fabd
000002e0: 166b 33bd 472a a2bd 173b f73d 48a3 27bc
000002f0: 639d 1c3d 41cf 7a3d a139 98bd f392 803d
00000300: 3e31 aabd c87a 5dbd 16dc 223d 7d23 debc
00000310: 145a fabd ef4e b8bd 1113 5cbd 6e94 f2bd
00000320: 75c4 933c 2090 02be 6baf 943d 5d38 1d3d
00000330: 6668 b13d 54f4 29bd 24a5 8e3c f48a 5a3d
00000340: cf74 0ebe 5279 84bd 737d cabd cb91 d2bc
00000350: 5cf6 d03d 8874 05bc 5dc6 8cbc b3b8 dd3d
00000360: c8f0 483d 8277 0c3d f3b5 613d d3bc 8abd
00000370: 58f3 7ebc 8d1c 5c3c 22f3 093d 2496 843d
00000380: 70aa a5bc cb25 803d c39b ce3d f3d3 72bd
00000390: 9ccd ca3d d537 463d 859e e2bd 9ad9 87bb
000003a0: 2598 533d 5d81 b93c 0db8 0abd 4442 24bc
000003b0: ca8a c73d 4e4d c23d 6374 c8bd 54bb 283d
000003c0: 0b54 d33c afbf 11bd 8ddb bf3d cc69 b4bb
000003d0: 6c01 153e b850 4abd 1e06 ea3d b3f8 75bd
000003e0: 292b 953d 7c85 9cbd e482 323d bb05 68bd
000003f0: e270 b6bc d60f 973c 6552 05bd 63f2 413d

sa1.mlp_convs.2.bias f4 [128]
0.1020528 -0.059256244 0.05650755 -0.05559748 -0.0945089 -0.010304179 0.1253958 -0.050021
0.09237696 -0.012956026 0.017525166 -0.04013951 0.03225766 -0.05237798 0.03153056 0.087178536
0.076442845 -0.03748245 0.118697755 -0.094434746 -0.08372957 -0.065989554 0.10600911 0.03198721
-0.032559767 -0.10732809 -0.10434129 0.047186147 -0.09668319 -0.069240436 0.08721709 -0.008763599
0.113752194 0.1098562 -0.051636837 0.07640357 0.06490913 0.10084405 -0.059419967 -0.04976118
-0.01448555 -0.07921087 0.076479726 -0.0071962993 0.023697691 0.035032123 -0.08671501 0.054129522
-0.06816605 0.09898009 -0.058612775 -0.07989591 -0.029971013 0.034724258 0.088053524 -0.013453606
0.02764232 -0.11966359 0.091585785 -0.107985266 -0.036795147 0.1050301 0.054341666 0.1264037
0.02319225 0.07732335 -0.121396706 0.08572035 0.120610386 0.028716614 0.10568414 0.0697572
-0.11130944 0.06977006 -0.09112821 0.09779926 0.08991437 0.014605999 0.118470065 -0.07946067
0.0048745535 -0.09183013 0.11271742 -0.088662036 -0.072606154 -0.014986166 0.11038528 0.11380074
-0.034819312 0.08929596 -0.034936678 -0.047679525 -0.026459431 0.027079089 0.011482558 -0.075273626
-0.04436785 -0.0919115 -0.013093392 0.0631257 0.056472946 0.08479389 0.025571892 -0.06520802
0.041212197 0.004404069 -0.055533115 -0.020111123 0.07246052 -0.083918266 0.11320268 -0.09541555
-0.06432107 0.061045688 -0.0005338268 -0.030760977 -0.03750581 -0.036620438 0.0692273 -0.06263753
-0.012754858 -0.08082782 -0.12416251 -0.0042037326 -0.07727961 -0.068289876 0.115255475 -0.061777204
00000000: 0f01 d13d adb6 72bd 7674 673d 2fba 63bd
00000010: e28d c1bd dcd2 28bc c267 003e d2e2 4cbd
00000020: 2230 bd3d 8345 54bc f090 8f3c 5469 24bd
00000030: 9c20 043d 4b8a 56bd 3026 013d a98a b23d
00000040: 118e 9c3d 3387 19bd cf17 f33d 0167 c1bd
00000050: 697a abbd 8825 87bd 4e1b d93d 0505 033d
00000060: 645d 05bd d4ce dbbd e3b0 d5bd 4346 413d
00000070: d601 c6bd eecd 8dbd e09e b23d 3395 0fbc
00000080: e9f6 e83d 4afc e03d 2681 53bd 7a79 9c3d
00000090: 14ef 843d 5387 ce3d 5a62 73bd 61d2 4bbd
000000a0: cd54 6dbc 4f39 a2bd 67a1 9c3d efce ebbb
000000b0: a921 c23c d87d 0f3d a497 b1bd ebb6 5d3d
000000c0: a49a 8bbd 13b6 ca3d f313 70bd 78a0 a3bd
000000d0: c585 f5bc 063b 0e3d 6855 b43d 836c 5cbc
000000e0: 2672 e23c 2f12 f5bd 5491 bb3d 6127 ddbd
000000f0: 82b6 16bd 051a d73d 5e95 5e3d f96f 013e
00000100: acfd bd3c b45b 9e3d d69e f8bd 278e af3d
00000110: 9402 f73d 1b3f eb3c ed70 d83d dddc 8e3d
00000120: 34f6 e3bd 9be3 8e3d 6da1 babd fa4a c83d
00000130: 0625 b83d 004e 6f3c 6fa0 f23d 47bc a2bd
00000140: b8ba 9f3b 6f11 bcbd 64d8 e63d 7194 b5bd
00000150: 89b2 94bd 8988 75bc ad11 e23d 5d10 e93d
00000160: b29e 0ebd cde0 b63d c319 0fbd 9b4b 43bd
00000170: 73c1 d8bc f7d4 dd3c 5721 3c3c 0f29 9abd
00000180: 10bb 35bd 193c bcbd ab85 56bc 0c48 813d
00000190: 2d50 673d 6ba8 ad3d 257c d13c c88b 85bd
000001a0: 1fce 283d 0250 903b b176 63bd 15c0 a4bc
000001b0: 2e66 943d 57dd abbd cfd6 e73d 3a69 c3bd
000001c0: c4ba 83bd 0b0b 7a3d 83f0 0bba 72fe fbbc
000001d0: b19f 19bd 50ff 15bd 0bc7 8d3d 1b48 80bd
000001e0: c0f9 50bc 0e89 a5bd ea48 febd 77bf 89bb
000001f0: c644 9ebd 90db 8bbd 100b ec3d 180a 7dbd

sa1.mlp_bns.0.weight f4 [64]
1.0140275 1.0145872 0.9920001 0.9995005 1.0034152 0.98888904 1.0118886 0.9990139
1.0033497 0.99793404 1.0001217 1.00606 0.9988422 0.98905325 0.9947173 1.0058786
1.0070988 1.0023656 1.0052416 0.99150217 0.9844951 1.005999 0.999079 1.0112599
0.9958097 0.99791175 1.0008883 1.012165 0.9929635 1.0199835 0.9845609 0.99722546
0.99885064 0.9898507 1.0134175 1.0003892 0.9969606 0.98997337 0.99430525 0.9879209
1.0140703 1.0002772 0.9927683 1.0058018 0.999301 1.0000771 0.9933223 1.0009958
0.99250466 1.0021036 1.0031505 0.99540037 0.9935013 1.0263091 1.0115393 1.0007823
0.99517375 0.9948397 0.9939198 0.9998969 0.9934029 1.0008116 1.0093534 0.9894638
00000000: a7cb 813f fedd 813f b8f3 7d3f 44df 7f3f
00000010: e96f 803f d527 7d3f 9185 813f 60bf 7f3f
00000020: c36d 803f 9b78 7f3f fd03 803f 93c6 803f
00000030: 1fb4 7f3f 9832 7d3f cba5 7e3f a1c0 803f
00000040: 9de8 803f 844d 803f c2ab 803f 16d3 7d3f
00000050: df07 7c3f 93c4 803f a4c3 7f3f f770 813f
00000060: 62ed 7e3f 2577 7f3f 1c1d 803f 9f8e 813f
00000070: db32 7e3f d28e 823f 2f0c 7c3f 2b4a 7f3f
00000080: adb4 7f3f db66 7d3f aab7 813f c10c 803f
00000090: cf38 7f3f e56e 7d3f ca8a 7e3f 62e8 7c3f
000000a0: 0ecd 813f 1509 803f 1026 7e3f 1dbe 803f
000000b0: 31d2 7f3f 8702 803f 5f4a 7e3f a120 803f
000000c0: c914 7e3f ee44 803f 3c67 803f 8fd2 7e3f
000000d0: 1a56 7e3f 195e 833f 1f7a 813f a219 803f
000000e0: b5c3 7e3f d1ad 7e3f 8771 7e3f 3ef9 7f3f
000000f0: a74f 7e3f 981a 803f 7e32 813f 804d 7d3f

sa1.mlp_bns.0.bias f4 [64]
0.01631407 0.018887399 0.010291248 1.0943655e-05 0.010229869 0.014199633 0.019593459 -0.0022830449
0.002464033 -0.0053146756 -0.012993532 -0.0026030783 -0.0021018214 -0.0032716114 -0.017503053 0.008768387
-0.005340631 0.00580554 0.017504768 -0.004449978 -0.011041814 -0.0029258402 0.002511982 0.034475
0.015238508 -0.011333609 0.004007474 0.0004770662 -0.015052683 0.0066017206 -0.004436678 0.011292036
-0.0012742213 -0.0029796755 -0.007916216 0.017974272 0.0033063462 -0.0039203805 -0.0011851017 -0.015946662
-0.009721721 0.007504768 0.018438004 0.0016274186 -0.0106945075 0.012522802 -0.00056148466 -0.0039060921
0.003894953 -0.010437156 0.019515267 -0.008613053 0.018380648 0.026323998 0.03436393 -0.0049093715
-0.027612446 0.0028281806 -0.009931526 -0.010523476 -0.008900847 0.014212954 0.0029500707 0.0054160724
00000000: 16a5 853c bfb9 9a3c 9f9c 283c a49a 3737
00000010: 2e9b 273c 94a5 683c 7682 a03c 239f 15bb
00000020: 9d7b 213b bb26 aebb d3e2 54bc 6898 2abb
00000030: b6be 09bb 8868 56bb 9062 8fbc 48a9 0f3c
00000040: 7600 afbb 663c be3b 2966 8f3c 1fd1 91bb
00000050: bae8 34bc 74bf 3fbb 11a0 243b a835 0d3d
00000060: efaa 793c 9ab0 39bc 2151 833b be1e fa39
00000070: 879f 76bc 3f53 d83b 8d61 91bb 3b02 393c
00000080: c603 a7ba a946 43bb 04b3 01bc c83e 933c
00000090: 49af 583b 8976 80bb 6a55 9bba 93a2 82bc
000000a0: da47 1fbc 8fea f53b 4c0b 973c 1b4f d53a
000000b0: 0438 2fbc 702c 4d3c 9930 13ba 5afd 7fbb
000000c0: 7842 7f3b 9b00 2bbc 7bde 9f3c c31d 0dbc
000000d0: 0393 963c 6da5 d73c 31c1 0c3d cbde a0bb
000000e0: 7f33 e2bc ff58 393b d7b7 22bc a86a 2cbc
000000f0: dcd4 11bc 73dd 683c f955 413b 4f79 b13b

sa1.mlp_bns.0.running_mean f4 [64]
0.016960014 0.38044414 -0.20928013 -0.37432697 -0.51885647 0.2694984 0.42130646 0.44141114
-0.5457649 -0.5453018 -0.32873857 0.029310253 0.10326812 -0.43773875 -0.086090006 0.45652986
0.037175477 0.46137452 -0.13311787 0.57265997 0.44494268 0.45936847 0.10745091 -0.23933744
0.08962529 0.5091477 0.42282015 -0.36896715 0.45477197 -0.16092154 -0.056906883 0.21178356
-0.29012135 -0.2454835 -0.409811 0.49648625 -0.17523804 -0.47033438 0.14876871 0.02755005
0.40156448 0.4031457 -0.29828882 0.4231324 0.530162 0.5442546 0.018798828 -0.35179898
-0.21390611 -0.47755715 -0.19680916 0.27096024 -0.32966825 -0.34006774 -0.12083896 -0.3804042
0.13826923 0.4119017 -0.3584205 -0.016457522 0.000287799 -0.041216485 -0.08942675 -0.004375833
00000000: baef 8a3c 93c9 c23e 884d 56be c9a7 bfbe
00000010: c7d3 04bf b2fb 893e 7bb5 d73e a400 e23e
00000020: 40b7 0bbf e698 0bbf 6c50 a8be 0e1c f03c
00000030: 3c7e d33d 4b1f e0be f54f b0bd 48be e93e
00000040: 5045 183d 4839 ec3e 0d50 08be d899 123f
00000050: 87cf e33e 5832 eb3e 390f dc3d e014 75be
00000060: 778d b73d 8157 023f e27b d83e 43e9 bcbe
00000070: dfd7 e83e 9ec8 24be 3117 69bd cadd 583e
00000080: c98a 94be 0760 7bbe bfd2 d1be 7233 fe3e
00000090: 9a71 33be abcf f0be d356 183e a4b0 e13c
000000a0: dc99 cd3e 1d69 ce3e 50b9 98be cfa4 d83e
000000b0: b2b8 073f 4554 0b3f 0000 9a3c ff1e b4be
000000c0: 340a 5bbe 5f82 f4be 5788 49be 4dbb 8a3e
000000d0: 47ca a8be 5c1d aebe 6b7a f7bd 57c4 c2be
000000e0: 7396 0d3e c8e4 d23e e482 b7be edd1 86bc
000000f0: bae3 9639 9ed2 28bd 5f25 b7bd 2663 8fbb

sa1.mlp_bns.0.running_var f4 [64]
0.026380965 0.06469928 0.014299569 0.13912311 0.14405578 0.4430084 0.07022888 0.20229387
0.1026615 0.20784882 0.15627392 0.40886992 0.042296972 0.28836572 0.06179875 0.078964934
0.040663652 0.16788982 0.40227377 0.2505356 0.2501969 0.13343261 0.33153656 0.017311253
0.024466202 0.21697438 0.0992608 0.22553106 0.011987812 0.038218677 0.32279325 0.098557174
0.074657984 0.153253 0.074547805 0.045220397 0.14264007 0.055870086 0.17719607 0.20504595
0.05612764 0.06283355 0.6909989 0.08222839 0.24996783 0.23983252 0.10765308 0.11384016
0.026484989 0.14886218 0.08188694 0.03882482 0.08573918 0.25086787 0.011203779 0.0030329735
0.16687493 0.20118079 0.027275734 0.09049474 0.11609677 0.0080870995 0.13063523 0.053891353
00000000: e51c d83c 0e81 843d bd48 6a3c 4a76 0e3e
00000010: 5c83 133e ffd1 e23e 29d4 8f3d 2026 4f3e
00000020: 3140 d23d 52d6 543e 4506 203e 6657 d13e
00000030: 973f 2d3d aca4 933e b020 7d3d 5eb8 a13d
00000040: ee8e 263d 4feb 2b3e d4f6 cd3e 3446 803e
00000050: cf19 803e 8fa2 083e 29bf a93e 54d0 8d3c
00000060: 586d c83c 882e 5e3e 3f49 cb3d 9df1 663e
00000070: 8768 443c 308b 1c3d 2845 a53e 58d8 c93d
00000080: 49e6 983d 5bee 1c3e 85ac 983d 0639 393d
00000090: 3d10 123e 08d8 643d e372 353e 91f7 513e
000000a0: 19e6 653d e0ae 803d 4ee5 303f 5c67 a83d
000000b0: 91f7 7f3e a896 753e 3879 dc3d 0825 e93d
000000c0: 0cf7 d83c 546f 183e 57b4 a73d c606 1f3d
000000d0: 0698 af3d c171 803e 0e90 373c dac4 463b
000000e0: 43e1 2a3e 5602 4e3e 5c71 df3c 4e55 b93d
000000f0: 25c4 ed3d c17f 043c 3ec5 053e 2ebd 5c3d

sa1.mlp_bns.1.weight f4 [64]
0.9913933 0.9895703 0.99313813 0.99643916 0.99378955 0.9915738 0.99487644 1.0009133
1.0024 1.0000333 1.0085754 0.9811324 0.99415606 0.99626684 1.0089301 0.98747736
1.0101442 0.9964537 1.0038944 1.0055088 1.0023785 1.0157129 1.0191189 0.99472076
0.9979686 0.993963 1.0220777 0.9919915 1.0012724 0.9876695 0.9906597 0.9976298
1.0005246 1.0129546 1.0166659 0.99238026 0.99773526 0.99650717 1.0171837 0.98678416
0.992945 0.9926195 0.99568444 1.01617 0.99569744 1.0014611 1.0048577 0.9988658
0.99478424 1.0305305 1.0022783 1.0120025 1.01317 0.98553985 0.99485326 1.0054553
0.9937535 0.9996796 1.0042138 0.99425 1.0247582 0.99003315 0.99497014 1.0054499
00000000: f4cb 7d3f 7b54 7d3f 4d3e 7e3f a316 7f3f
00000010: fe68 7e3f c8d7 7d3f 39b0 7e3f ed1d 803f
00000020: a54e 803f 1701 803f 0019 813f 7e2b 7b3f
00000030: 0381 7e3f 580b 7f3f 9f24 813f 51cb 7c3f
00000040: 684c 813f 9717 7f3f 9d7f 803f 83b4 803f
00000050: f04d 803f e102 823f 7d72 823f 05a6 7e3f
00000060: df7a 7f3f 5c74 7e3f 71d3 823f 28f3 7d3f
00000070: b229 803f e9d7 7c3f e09b 7d3f ab64 7f3f
00000080: 3111 803f 7fa8 813f 1c22 823f a20c 7e3f
00000090: 946b 7f3f 181b 7f3f 1333 823f e39d 7c3f
000000a0: a531 7e3f 501c 7e3f 2de5 7e3f dc11 823f
000000b0: 07e6 7e3f e12f 803f 2d9f 803f abb5 7f3f
000000c0: 2eaa 7e3f 6ce8 833f a84a 803f 4c89 813f
000000d0: 8eaf 813f 574c 7c3f b4ae 7e3f c2b2 803f
000000e0: a166 7e3f 01eb 7f3f 148a 803f 2b87 7e3f
000000f0: 472b 833f d072 7d3f 5db6 7e3f 95b2 803f

sa1.mlp_bns.1.bias f4 [64]
-0.003952337 -0.004655175 0.0101872245 0.02283362 -0.017450038 -0.004444379 -0.009087017 -0.0034787513
-0.013694199 -0.0033680282 0.018787097 -0.011653726 0.006963185 0.007322778 0.014167614 -0.013548722
0.01807419 -0.01224936 0.022157615 0.007113047 0.027830824 -0.0016772022 -0.008144163 -0.0119447
-0.012722127 0.0010338385 0.0040170145 0.013732732 -0.010427133 -0.0060342397 -0.018875243 -0.010569808
0.011834474 -0.013558141 -0.014982443 -0.013464478 -0.018720329 0.0026938152 0.015541728 -0.01581368
-0.011930228 -0.0035708891 0.0055529033 0.015753029 0.009356485 -0.009420012 -0.003719525 -0.015518971
-0.032771707 0.022610132 0.015869057 0.010802337 -0.00055873784 0.0043808776 -0.028015783 -0.0027631482
-0.008784379 -0.0036528786 -0.011763196 -0.010337764 0.023850285 -0.020319741 0.017840553 -0.0005263189
00000000: 9b82 81bb 708a 98bb 51e8 263c 920d bb3c
00000010: 62f3 8ebc 27a2 91bb b6e1 14bc c3fb 63bb
00000020: a25d 60bc 23ba 5cbb 66e7 993c 45ef 3ebc
00000030: 6e2b e43b eaf3 ef3b 481f 683c 75fb 5dbc
00000040: 5310 943c 8ab1 48bc e383 b53c 9014 e93b
00000050: 78fd e33c 91d5 dbba 186f 05bc b4b3 43bc
00000060: 7870 50bc dd81 873a 29a1 833b 41ff 603c
00000070: 91d6 2abc dfba c5bb 41a0 9abc fd2c 2dbc
00000080: 62e5 413c f722 5ebc ec78 75bc 1d9a 5cbc
00000090: 605b 99bc b88a 303b bba2 7e3c b18b 81bc
000000a0: 0177 43bc 9405 6abb 21f5 b53b 7f0c 813c
000000b0: f14b 193c 6556 1abc 46c3 73bb 4843 7ebc
000000c0: a03b 06bd e238 b93c d3ff 813c 49fc 303c
000000d0: 4378 12ba 778d 8f3b 5b81 e5bc ef15 35bb
000000e0: 5bec 0fbc 2265 6fbb 6cba 40bc ba5f 29bc
000000f0: ac61 c33c 9675 a6bc 5a26 923c aaf8 09ba

sa1.mlp_bns.1.running_mean f4 [64]
-0.45300397 0.3843759 -0.20654707 0.059989568 0.36509955 0.24325165 -0.25120467 0.4974438
-0.18543409 -0.1674771 -0.05675681 -0.044543624 -0.33557728 0.31322345 -0.20859684 0.13227831
0.20897855 -0.30045876 0.029548068 -0.22156496 0.030207798 -0.4981985 -0.14206973 0.051087342
0.42051616 0.12883128 -0.20293953 0.076103166 0.01996481 -0.24408121 -0.3759974 -0.2573435
0.012783684 0.18096147 -0.16056533 0.28012994 0.29816782 -0.27132303 -0.038797017 0.09845292
-0.21459363 0.0072469697 -0.33071154 -0.46992496 -0.32341832 -0.13900012 0.267607 -0.14115664
0.27951396 0.14185062 -0.14308606 0.10909993 -0.2257873 0.35043558 -0.06236791 -0.083262816
0.15568858 -0.2567533 0.08211376 -0.3223196 -0.26071942 -0.30747604 -0.38620567 -0.7107857
00000000: 23f0 e7be ebcc c43e 1381 53be 9fb7 753d
00000010: 54ee ba3e f616 793e e69d 80be f4b0 fe3e
00000020: 6fe2 3dbe 1e7f 2bbe d479 68bd 6073 36bd
00000030: c9d0 abbe d35e a03e 699a 55be f773 073e
00000040: 79fe 553e bbd5 99be ca0e f23c ede1 62be
00000050: 5876 f73c e013 ffbe ba7a 11be f640 513d
00000060: e54d d73e 59ec 033e 61cf 4fbe fadb 9b3d
00000070: 3e8d a33c 6df0 79be bb82 c0be 87c2 83be
00000080: a872 513c f74d 393e 3d6b 24be 316d 8f3e
00000090: 74a9 983e daea 8abe 9fe9 1ebd afa1 c93d
000000a0: 6fbe 5bbe fd77 ed3b 0653 a9be 019a f0be
000000b0: 1697 a5be 0c56 0ebe c903 893e 5e8b 10be
000000c0: 741c 8f3e 4a41 113e 2785 12be c96f df3d
000000d0: c934 67be 4b6c b33e 7e75 7fbd b285 aabd
000000e0: d46c 1f3e 2b75 83be 422b a83d 1307 a5be
000000f0: 047d 85be 806d 9dbe c0bc c5be 0df6 35bf

sa1.mlp_bns.1.running_var f4 [64]
0.35610685 0.06459774 0.120082326 0.19639839 0.21073124 0.15523851 0.055980075 0.12155532
0.047151912 0.23514935 0.23304386 0.4241614 0.18624765 0.088299766 0.07722476 0.09909577
0.11725544 0.070791915 0.108875714 0.09673031 0.12791315 0.18048401 0.10364467 0.08110849
0.086625196 0.15949237 0.04686325 0.33816075 0.21738979 0.38246784 0.1373987 0.112844855
0.095693536 0.16444246 0.03009518 0.22230531 0.077111125 0.13088213 0.1041309 0.15450974
0.11122025 0.079325184 0.18818565 0.09521021 0.1546835 0.18057601 0.19346389 0.08739056
0.14469273 0.031086516 0.07681818 0.27714157 0.06282569 0.111634225 0.16726665 0.11495674
0.45075086 0.2787242 0.2711773 0.14920516 0.07417271 0.23911212 0.16840774 0.11117896
00000000: a353 b63e d24b 843d b9ed f53d a91c 493e
00000010: eec9 573e d8f6 1e3e 5d4b 653d fff1 f83d
00000020: 5d22 413d feca 703e 0da3 6e3e af2b d93e
00000030: b4b7 3e3e 82d6 b43d 0428 9e3d b9f2 ca3d
00000040: 9f23 f03d 5afb 903d 3bfa de3d 8a1a c63d
00000050: aafb 023e cdd0 383e a843 d43d 351c a63d
00000060: 8d68 b13d f851 233e aef3 3f3d 6823 ad3e
00000070: 6e9b 5e3e d3d2 c33e 3fb2 0c3e 341b e73d
00000080: f9fa c33d 9b63 283e 2b8a f63c 01a4 633e
00000090: 70ec 9d3d f705 063e 9542 d53d cd37 1e3e
000000a0: 71c7 e33d 3e75 a23d bdb3 403e 92fd c23d
000000b0: 5a65 1e3e ebe8 383e 661b 463e d2f9 b23d
000000c0: 552a 143e 26a9 fe3c da52 9d3d 80e5 8d3e
000000d0: c1aa 803d 7ca0 e43d f347 2b3e 706e eb3d
000000e0: d1c8 e63e f0b4 8e3e c0d7 8a3e 3dc9 183e
000000f0: dde7 973d cfd9 743e 1473 2c3e cbb1 e33d

sa1.mlp_bns.2.weight f4 [128]
0.9995967 1.0224255 0.9924342 0.9971799 0.9952201 0.99956286 0.9913475 1.0052342
1.0107243 0.9960371 0.99142957 1.0178761 1.0082873 1.0151491 1.0278854 1.0072469
1.0176606 0.99361837 0.9951869 0.99772644 1.0033331 1.0052714 0.99448854 0.9982398
0.9938849 1.0003803 0.9966576 1.0048176 1.0095624 0.99486023 0.9966428 1.0187881
1.0250388 1.0120507 1.0002904 0.9882429 0.9976377 0.99787676 1.0328988 1.0020978
0.99487245 0.98915154 0.9922068 1.0025278 0.9876836 1.0184636 1.0047882 1.0328321
1.0013963 1.0015306 1.0036299 0.9843522 1.010394 1.0275918 0.9988448 1.0094057
0.9943668 1.0012172 0.9944309 1.0149564 0.99673665 1.0090697 1.0040076 1.003917
1.0027828 0.9868713 1.0075488 1.004511 0.98341495 1.0011209 1.0034164 1.0113624
1.0108558 0.99461955 1.0233358 1.0083781 1.0181534 0.99715996 1.0035064 0.99263227
0.98449963 0.99271715 0.9934545 0.9921203 0.9943392 1.0179377 0.9953235 0.9854811
0.9988915 0.99456084 0.99001414 0.9934073 0.9931488 1.044986 0.99287224 1.02843
0.983251 1.0102345 0.9999578 1.00109 0.9984739 0.99014425 0.9889164 1.0069109
1.006396 1.0087248 0.99026066 1.0023922 1.001178 1.0101728 1.0301613 0.996629
0.9878139 1.0093455 0.9882508 0.9898107 0.9993921 1.0065786 1.0083079 0.9909459
1.0005302 0.98945963 1.000631 1.0014821 1.0450377 0.99006486 1.004289 1.0539968
00000000: 92e5 7f3f d7de 823f 2b10 7e3f 2f47 7f3f
00000010: bfc6 7e3f 5ae3 7f3f f3c8 7d3f 84ab 803f
00000020: 6a5f 813f 4afc 7e3f 54ce 7d3f c449 823f
00000030: 8f0f 813f 68f0 813f c091 833f 77ed 803f
00000040: b442 823f c65d 7e3f 92c4 7e3f 006b 7f3f
00000050: 386d 803f bcac 803f cd96 7e3f a58c 7f3f
00000060: 3e6f 7e3f 760c 803f f424 7f3f dd9d 803f
00000070: 5739 813f 29af 7e3f fc23 7f3f a667 823f
00000080: 7934 833f e18a 813f 8409 803f 7dfd 7c3f
00000090: 2f65 7f3f da74 7f3f 0736 843f be44 803f
000000a0: f6af 7e3f 0939 7d3f 4401 7e3f d552 803f
000000b0: d5d8 7c3f 045d 823f e69c 803f d833 843f
000000c0: c12d 803f 2832 803f f276 803f 81fe 7b3f
000000d0: 9754 813f 2188 833f 4bb4 7f3f 3534 813f
000000e0: d38e 7e3f e327 803f 0693 7e3f 17ea 813f
000000f0: 222a 7f3f 3229 813f 5283 803f 5a80 803f
00000100: 305b 803f 99a3 7c3f 5cf7 803f d193 803f
00000110: 15c1 7b3f bb24 803f f36f 803f 5374 813f
00000120: b963 813f 639f 7e3f abfc 823f 8912 813f
00000130: da52 823f e045 7f3f e672 803f 261d 7e3f
00000140: 2b08 7c3f b622 7e3f 0953 7e3f 99fb 7d3f
00000150: 048d 7e3f c84b 823f 85cd 7e3f 7d48 7c3f
00000160: 5ab7 7f3f 8a9b 7e3f 9171 7d3f f14f 7e3f
00000170: 003f 7e3f 1ac2 853f e02c 7e3f 98a3 833f
00000180: 56b6 7b3f 5d4f 813f 3cfd 7f3f b823 803f
00000190: fc9b 7f3f 187a 7d3f a029 7d3f 75e2 803f
000001a0: 96d1 803f e51d 813f b981 7d3f 634e 803f
000001b0: 9a26 803f 584d 813f 53dc 833f 1423 7f3f
000001c0: 5fe1 7c3f 3c32 813f 01fe 7c3f 3c64 7d3f
000001d0: 29d8 7f3f 91d7 803f 3c10 813f a1ae 7d3f
000001e0: 6011 803f 3a4d 7d3f ad14 803f 9130 803f
000001f0: ccc3 853f e474 7d3f 8b8c 803f 5ee9 863f

sa1.mlp_bns.2.bias f4 [128]
-0.0017359062 0.0027584168 -0.002068059 -0.005581794 0.004140253 0.0018435732 -0.0014420863 0.0009268443
0.007943235 -0.0027518666 0.0014371945 -0.002497372 0.00025151885 -0.0005126937 0.0006928074 -0.0011956987
-0.0029598132 -0.0004130859 0.00026761706 -0.0001961506 -0.0034185427 -0.0015205204 0.0024550513 0.0026611788
0.00086118333 -0.0006050552 0.0012637775 -0.0047981404 -0.0052378005 -0.00030311223 0.0019415884 0.0042070425
0.0041203354 0.0019063439 0.003965702 0.002123451 0.00397545 -0.0011599155 -0.004356522 -0.0019363725
0.0039753783 0.00073787634 -0.000673037 0.0017422654 0.013002612 0.0033440662 -0.00040021155 0.00082229445
-0.00025513454 -0.0056501506 -0.0009185968 0.0017103238 -0.0048658643 0.0031929577 -0.0005953686 0.0010301833
-0.0017655973 0.0022462185 -0.0025502613 1.2708687e-05 -0.002545843 -0.0052047065 -0.0007578539 -0.0026247234
0.0022188728 0.00090039696 0.006150578 0.0038179823 0.0024015666 -0.003417812 -0.0004339043 0.0043428317
0.0029154664 0.00082207425 -0.004813348 -0.007025111 0.0014493074 0.0013623785 -0.0049444246 0.0044787065
-0.0023160975 0.0012522017 0.0016022394 -0.0038922904 0.002526201 -0.005672574 0.0011402834 -0.00268162
-0.0012997455 0.0018332965 0.0017403597 0.0030313586 -0.0039180433 -0.002774307 1.7409144e-05 -0.0042519174
-0.004460946 -0.0008424984 -0.0026601867 0.0028534 -0.0010319054 -0.0038764677 -0.005556617 -0.00089254184
-0.0015418333 -0.00089993613 -0.0047909915 -0.0017537278 0.0058985283 -0.0020565805 6.744145e-05 0.0035765914
-0.0006975481 -0.0001621834 0.0059824223 -0.00017925854 0.0034158092 -0.00087674253 -0.0008274163 0.00380809
0.005851523 0.0014316469 1.2645637e-05 0.0004528165 0.0013328517 0.0006715489 0.0014233796 -0.0047761984
00000000: 5987 e3ba 8ec6 343b 4688 07bb 7be7 b6bb
00000010: f6aa 873b 0da4 f13a 6304 bdba 78f7 723a
00000020: 5824 023c a958 34bb 3f60 bc3a f3aa 23bb
00000030: 4ade 8339 4b66 06ba 859d 353a feb8 9cba
00000040: 6df9 41bb 7393 d8b9 f44e 8c39 c7ad 4db9
00000050: a109 60bb 334c c7ba ede4 203b 2c67 2e3b
00000060: 09c1 613a 919c 1eba 56a5 a53a b839 9dbb
00000070: dba1 abbb 09eb 9eb9 e57c fe3a 3bdb 893b
00000080: e103 873b 49de f93a b8f2 813b 9929 0b3b
00000090: 7e44 823b 4e08 98ba 28c1 8ebb e1cd fdba
000000a0: e443 823b 0b6e 413a c06e 30ba ba5c e43a
000000b0: e808 553c 1f28 5b3b 7cd3 d1b9 3f8f 573a
000000c0: 94c3 85b9 e624 b9bb fdcd 70ba f22c e03a
000000d0: d471 9fbb f140 513b 8312 1cba 3707 873a
000000e0: 9d6b e7ba 4b35 133b 4922 27bb 6537 5537
000000f0: 28d8 26bb 3e8c aabb b7aa 46ba 8d03 2cbb
00000100: 826a 113b 9e08 6c3a ca8a c93b 1d37 7a3b
00000110: 9a63 1d3b 5ffd 5fbb a67d e3b9 504e 8e3b
00000120: 6911 3f3b 7880 573a 4ab9 9dbb e732 e6bb
00000130: b0f6 bd3a d691 b23a d704 a2bb 1dc2 923b
00000140: abc9 17bb eb20 a43a 3c02 d23a cc15 7fbb
00000150: 9f8e 253b 00e1 b9bb 9075 953a 1ebe 2fbb
00000160: 395c aaba 394b f03a c81c e43a c2a9 463b
00000170: ee62 80bb 26d1 35bb da09 9237 ab53 8bbb
00000180: 212d 92bb 1cdb 5cba 8756 2ebb 1c00 3b3b
00000190: 0041 87ba 560c 7ebb 4814 b6bb 78f9 69ba
000001a0: 5717 caba b1e9 6bba c0fd 9cbb 57dd e5ba
000001b0: 7148 c13b b2c7 06bb 5a6f 8d38 3f65 6a3b
000001c0: a9db 36ba c60f 2ab9 3208 c43b 59f7 3bb9
000001d0: c5db 5f3b 32d5 65ba f8e6 58ba 2691 793b
000001e0: 22be bf3b 19a6 bb3a 9928 5437 0068 ed39
000001f0: 15b3 ae3a e20a 303a b290 ba3a a881 9cbb

sa1.mlp_bns.2.running_mean f4 [128]
-0.095899366 -0.04368857 0.5889183 0.0053640683 -0.2486433 0.045310814 0.1820089 0.09603297
0.23038393 0.2465308 -0.08898729 0.048450895 0.2749175 -0.20934375 -0.57723445 -0.34875748
-0.023017358 -0.03169835 -0.23384905 -0.27819952 0.1846822 -0.18183407 -0.09148115 0.22361386
-0.22515056 0.31622982 0.08655643 0.4536522 -0.12108253 0.29662943 -0.09163848 -0.3095942
0.15921235 0.12741053 -0.6400281 -0.061196115 -0.07177924 0.2288849 -0.35979527 0.014820633
0.45226333 -0.23153427 0.06180436 -0.050410334 0.31985018 -0.17299591 0.0033943593 0.048861783
0.24169353 0.0658233 -0.6375067 0.102629684 -0.27601287 -0.14019166 -0.07119839 0.34864676
0.070284106 -0.4518869 0.32187545 0.14883296 0.18695024 -0.16547364 -0.3333795 0.068928644
0.033226788 -0.10350066 -0.07762339 -0.17061962 0.50117415 -0.13986473 0.36266473 -0.19058348
-0.16265273 -0.019486632 -0.2823989 0.1609782 0.1022821 0.23022589 0.26047444 0.46683577
0.19186622 -0.43916255 0.40432683 -0.05633937 -0.20147736 -0.053358335 -0.18031232 -0.022382125
0.11683866 0.18298851 -0.41439742 0.20346676 0.033629395 -0.052759893 -0.18739286 -0.04959452
-0.12191387 -0.231229 0.08808785 -0.26048017 0.18142596 0.09522937 0.3605771 -0.19619039
-0.11565892 0.005469514 -0.14013058 0.10634827 0.2872846 0.03474018 0.0059591634 0.1309973
-0.009783911 0.2715419 -0.13450289 -0.19028471 -0.35795647 -0.11424043 0.027437707 -0.0025613776
-0.27942884 0.037124235 -0.15413296 0.3550954 -0.06377547 -0.25575984 0.050876062 -0.2513843
00000000: e366 c4bd c9f2 32bd 5ac3 163f 11c5 af3b
00000010: 599c 7ebe d597 393d 8b60 3a3e efac c43d
00000020: c4e9 6b3e 9272 7c3e f83e b6bd 7274 463d
00000030: fdc1 8c3e 355e 56be a3c5 13bf 5790 b2be
00000040: e68e bcbc 21d6 01bd 2076 6fbe 2b70 8ebe
00000050: 551d 3d3e b632 3abe 785a bbbd 08fb 643e
00000060: de8d 66be e0e8 a13e 7f44 b13d 1a45 e83e
00000070: 1efa f7bd d0df 973e f5ac bbbd 2283 9ebe
00000080: 9008 233e e877 023e e2d8 23bf c7a8 7abd
00000090: ff00 93bd ce60 6a3e 1637 b8be 3ed2 723c
000000a0: 0f8f e73e 5217 6dbe 9226 7d3d 117b 4ebd
000000b0: 67c3 a33e d725 31be e673 5e3b 4b23 483d
000000c0: 827e 773e 5ece 863d a433 23bf 832f d23d
000000d0: 8f51 8dbe 678e 0fbe 76d0 91bd d481 b23e
000000e0: 1df1 8f3d b85d e7be dccc a43e ab67 183e
000000f0: e26f 3f3e ec71 29be b8b0 aabe 762a 8d3d
00000100: d018 083d 27f8 d3bd 03f9 9ebd e9b6 2ebe
00000110: f34c 003f b338 0fbe 31af b93e 5128 43be
00000120: 708e 26be 6ea2 9fbc 9796 90be 78d7 243e
00000130: 4779 d13d 56c0 6b3e e85c 853e 1905 ef3e
00000140: 9478 443e ead9 e0be ed03 cf3e 1cc4 66bd
00000150: 1550 4ebe 458e 5abd cba3 38be b85a b7bc
00000160: 1b49 ef3d 5761 3b3e e62b d4be 9759 503e
00000170: fabe 093d c21a 58bd eae3 3fbe a023 4bbd
00000180: fbad f9bd 4cc7 6cbe 6767 b43d a85d 85be
00000190: bac7 393e 9e07 c33d 909d b83e 22e6 48be
000001a0: 95de ecbd 9c39 b33b 647e 0fbe 1fcd d93d
000001b0: f816 933e b84b 0e3d 1645 c33b 2824 063e
000001c0: b24c 20bc 8a07 8b3e 20bb 09be ffd9 42be
000001d0: 1246 b7be e3f6 e9bd 0bc5 e03c c9dc 27bb
000001e0: 4c11 8fbe 950f 183d 08d5 1dbe 10cf b53e
000001f0: b79c 82bd f4f2 82be 6b63 503d 71b5 80be

sa1.mlp_bns.2.running_var f4 [128]
0.07061133 0.07302417 0.30789876 0.056504317 0.20249039 0.064050116 0.16401906 0.053220995
0.04727418 0.08502142 0.13999061 0.11076262 0.06688366 0.059952393 0.1394991 0.15056622
0.05869329 0.14379953 0.28342992 0.17886502 0.065583766 0.16745967 0.10736875 0.11835793
0.11403823 0.06570017 0.077749684 0.13781013 0.1643947 0.24808033 0.22721875 0.110808216
0.04452428 0.061905216 0.096369825 0.087456994 0.110731125 0.1512988 0.078447364 0.17736699
0.2606748 0.08410283 0.11068705 0.13529174 0.114496805 0.0747977 0.060584832 0.06496712
0.08331135 0.15340824 0.122878015 0.13500062 0.07252097 0.1300074 0.07897277 0.16956875
0.088743664 0.31414205 0.19264875 0.14658475 0.12765855 0.10448181 0.12856537 0.13789563
0.09373541 0.15850073 0.13794333 0.050741546 0.13278027 0.2387748 0.06657222 0.04762668
0.14653277 0.21012914 0.12320143 0.05589399 0.08172843 0.05906072 0.1501434 0.3044919
0.08635258 0.23311038 0.16903275 0.5770002 0.04096341 0.070477664 0.29235682 0.077237286
0.07771004 0.16920331 0.060219385 0.07129243 0.12027269 0.038714334 0.17924787 0.119226195
0.06276192 0.17427254 0.08864928 0.16411634 0.086060174 0.44706154 0.113676205 0.103790835
0.21076846 0.09767577 0.110793985 0.09701144 0.101845995 0.08765136 0.10820794 0.19424857
0.13180955 0.06901208 0.24011812 0.051295042 0.18938139 0.16863033 0.1477956 0.10706952
0.062960096 0.1557675 0.18244438 0.07313442 0.035561662 0.07931989 0.087645635 0.07703822
00000000: ac9c 903d b28d 953d e8a4 9d3e 1271 673d
00000010: a459 4f3e b52c 833d 9df4 273e 42fe 593d
00000020: 92a2 413d b61f ae3d b359 0f3e 83d7 e23d
00000030: 4dfa 883d a490 753d dad8 0e3e 082e 1a3e
00000040: 6068 703d 2f40 133e ba1d 913e 6428 373e
00000050: c850 863d 8c7a 2b3e 26e4 db3d a465 f23d
00000060: e08c e93d d08d 863d 3a3b 9f3d 191e 0d3e
00000070: 1657 283e c508 7e3e 08ac 683e 6bef e23d
00000080: 175f 363d 5390 7d3d 8b5d c53d a71c b33d
00000090: 00c7 e23d 13ee 1a3e 03a9 a03d b19f 353e
000000a0: 2b77 853e 1b3e ac3d e4af e23d eb89 0a3e
000000b0: 4d7d ea3d 892f 993d cd27 783d 7b0d 853d
000000c0: 249f aa3d 0d17 1d3e 78a7 fb3d 9a3d 0a3e
000000d0: e085 943d a920 053e 7abc a13d 6ea3 2d3e
000000e0: 3dbf b53d 3ad7 a03e b745 453e 501a 163e
000000f0: ecb8 023e 8ffa d53d a4a6 033e 8334 0d3e
00000100: 5af8 bf3d 044e 223e 0441 0d3e 5ed6 4f3d
00000110: 8df7 073e 6281 743e 0457 883d 3214 433d
00000120: b00c 163e 182c 573e 0851 fc3d 19f1 643d
00000130: 3c61 a73d a7e9 713d 31bf 193e 5de6 9b3e
00000140: 9fd9 b03d 7db4 6e3e ec16 2d3e 49b6 133f
00000150: 40c9 273d 9856 903d cbaf 953e 952e 9e3d
00000160: 7126 9f3d a243 2d3e 9aa8 763d c401 923d
00000170: 8751 f63d ec92 1e3d c18c 373e dd2c f43d
00000180: 5289 803d 8074 323e c18d b53d 1d0e 283e
00000190: 5140 b03d 40e5 e43e 12cf e83d 4a90 d43d
000001a0: b0d3 573e 3c0a c83d f5e7 e23d efad c63d
000001b0: a294 d03d 8e82 b33d 209c dd3d 19e9 463e
000001c0: 15f9 063e 3556 8d3d 86e1 753e c01a 523d
000001d0: 32ed 413e 6ead 2c3e bb57 173e 4447 db3d
000001e0: 39f1 803d 8481 1f3e b3d2 3a3e 80c7 953d
000001f0: 1ba9 113d 7772 a23d 8e7f b33d 37c6 9d3d
