pointnet_table_classifier.pth (torch, 479771 bytes, 44 tensors)

sa1.mlp_convs.0.weight f4 [64, 3, 1, 1]
00000000: 149d 9ebd d0a6 803e 886c 4ebe 0e7e cbbd
00000010: ed23 c7be 323f 7d3e f8cf e4be 6e51 e33e
00000020: 0e82 06bf 1a89 163e 289b c73e 9eb3 b93e
00000030: b8c3 463e bc75 d83e 2999 ec3d b308 a43e
00000040: c91a b53e 3bb2 25be 3924 e13d e677 e53e
00000050: 1b3b e4be e310 08bf 1214 813e 014c 39be
00000060: 55b5 7a3e 12db d5bd 7c03 123f a272 103f
00000070: ff25 f63d c628 3d3e 2c29 a4be 0860 8abe
00000080: 908f 02bf de80 afbe 95e6 083f ddf9 103f
00000090: f4d2 89bd b8ac 903d 8008 263c aa4a cbbd
000000a0: 85e8 ca3d 2daf 4fbe d29f 113f 04d3 05bf
000000b0: ecac 0d3e 35db f9be d31d 39be 73ad d3be
000000c0: a152 90be 64d9 01bf ea90 403e 17ca 0abf
000000d0: 0dd1 debe f8e2 2d3e f10d c13e e1a5 2fbe
000000e0: 3915 77bc 806e 6dbe f4d1 af3e f2d7 133f
000000f0: e7e7 9d3e 73f7 efbe ab05 e53e bd44 87be
00000100: 5933 013f 696b 00bf dd96 00bf e585 babc
00000110: ac78 32be 77a0 90be d1eb d93e f426 60be
00000120: 81de 3e3e 3c4a 0b3f d7d9 7abe c067 6c3e
00000130: f6c3 073e 9f38 fbbe 3348 51be a427 d7be
00000140: fb09 11bf b2d7 a9be 6159 e4be 51f9 853d
00000150: ce75 06bd 76f9 08bd 9142 84be 5215 a83e
00000160: bb5c abbd 3eff 9b3e 9437 49be 9d97 0b3e
00000170: 9b60 e2bd 6ad0 7e3e 712c 49bd c351 ca3e
00000180: fadd 3fbd b68d 07bf e8dd 5d3e 1a33 173f
00000190: a4d7 de3d d344 25be 3f2c a03e c84b 14bd
000001a0: d871 0fbf 4adf ddbe c062 6dbe 8327 da3d
000001b0: b7ad 02bf d798 4c3e f86e 823e 8222 363e
000001c0: 0e81 833e cf0f ff3e e9db 503e 318d c1bd
000001d0: 20f4 06bf 0fcd 473e a4ad 453e f0d0 13bf
000001e0: f78a 0d3e d507 a7bc 871b ef3e a1aa 533e
000001f0: 4ed4 80be bd31 8cbe d796 d53e 956a 2c3e
00000200: e450 b2bd 5e1f f1be 0b36 3b3e f643 d33d
00000210: c4e0 803e a85f d73d a312 8abe d0ae 813e
00000220: a600 103e 5873 9bbe 3610 a4be 9f5b 153f
00000230: a3d5 9dbe 20a0 96be ae38 48be c016 4f3e
00000240: 5a19 09bf f57a f8be 5d37 49be 5644 ed3e
00000250: 508a 633e d1ef 70be 7fb2 8e3e 0a90 303e
00000260: efd3 21be 3329 df3e a172 693e 3e13 003e
00000270: a310 cb3e e1ae c23e 680a 97bd 55e2 dd3e
00000280: ba5b 713e 4183 7b3e 34a7 aa3e 9d9e ff3e
00000290: f591 d0be 5e4c d9be debb 273c 8d1a 94be
000002a0: 2ca3 f5be a65f afbc 03be 8e3d 5e0a fdbe
000002b0: 840e 96bb 1314 103f 6a6d 47bd 7851 093f
000002c0: aa80 a2be 2bfd dd3e 158a 163d 4506 5b3e
000002d0: 43b2 04bf f082 f3be 51f2 953e 5acb bb3e
000002e0: 4d3a a1be 74bc 5abd 180d aebe 99dc ffbe
000002f0: 2da7 a4be 6bed 8cbd 4de9 ee3e 3b85 aebe
-0.07744804 0.25127268 -0.20158589 -0.099361524 -0.38894597 0.24731138 -0.44689918 0.44398063
-0.525422 0.14700738 0.38985562 0.3626985 0.19410598 0.42277324 0.115526505 0.32037887
0.35371998 -0.16181271 0.10993237 0.44818038 -0.44576344 -0.5315077 0.25210625 -0.180954
0.24483235 -0.10442175 0.57036567 0.56424916 0.12018966 0.18472585 -0.32062662 -0.2702639
-0.5100031 -0.34278005 0.5347684 0.5663126 -0.06729689 0.070641935 0.0101338625 -0.099263504
0.09907631 -0.20281668 0.5688449 -0.5227511 0.13835496 -0.48800054 -0.18077783 -0.4134327
-0.2818804 -0.50722337 0.1880528 -0.54214615 -0.43518868 0.16981113 0.3770595 -0.17153122
-0.0150807435 -0.23186684 0.3433987 0.5775138 0.3084099 -0.46868476 0.44730887 -0.2641963
0.50468975 -0.50163895 -0.502302 -0.022768924 -0.17428845 -0.28247425 0.42562726 -0.2188986
0.18639566 0.5441015 -0.24497162 0.23086452 0.13258347 -0.49066636 -0.20437698 -0.4202243
-0.56655854 -0.33172375 -0.4459944 0.06541694 -0.03282719 -0.03344103 -0.25832036 0.32828766
-0.08367296 0.30468172 -0.19650108 0.13632055 -0.11053582 0.24884191 -0.04911465 0.39515504
-0.046842553 -0.5295061 0.21666682 0.5906235 0.10880974 -0.16139536 0.31283757 -0.036205083
-0.56033087 -0.4333442 -0.23182201 0.106520675 -0.5104632 0.19980179 0.25475287 0.17786601
0.25684398 0.49816748 0.20396389 -0.09450758 -0.52716255 0.19511817 0.1930452 -0.5774069
0.13822542 -0.020389477 0.4670069 0.20670559 -0.25161976 -0.27381697 0.41716644 0.16837533
-0.08706835 -0.47094244 0.18282335 0.10315697 0.25171483 0.10516292 -0.26967344 0.25328684
0.14062747 -0.30361438 -0.32043618 0.5834293 -0.30827054 -0.2941904 -0.19552872 0.20223522
-0.5355431 -0.4853131 -0.19650026 0.463412 0.22220731 -0.23528983 0.27870557 0.17242447
-0.15803503 0.4358612 0.22797634 0.1250734 0.3966113 0.38024047 -0.07375032 0.4333674
0.23570147 0.24561788 0.3333069 0.499257 -0.40736356 -0.42441076 0.010237662 -0.28926507
-0.47976053 -0.021407913 0.069698356 -0.49421972 -0.004579367 0.5628063 -0.04868833 0.53639936
-0.31738788 0.43357214 0.03675278 0.2138911 -0.51834506 -0.47560835 0.29286435 0.36678582
-0.31489792 -0.05340238 -0.33994365 -0.4997299 -0.32158795 -0.068812214 0.4666237 -0.34086022

sa1.mlp_convs.0.bias f4 [64]
00000000: 9f44 3a3e f27c e13e 27da 033f 56af c4be
00000010: 1703 32bd 06a0 31be 775e 3ebe 8507 a63d
00000020: 06e5 0dbf 2112 8b3e 2313 24be 01b9 9d3e
00000030: 9d4b 063f 44be eebe 945f aa3e 25d4 853d
00000040: 61ef a53e e778 ffbd 49fd f6be d727 f23e
00000050: 3e8a 2dbe c184 85be 02f5 88be 86fa b93d
00000060: 11ad d9be fed4 003f afbf b4be 9dd4 7c3e
00000070: 27af 65be 2c2d 213e 51c4 c53e 7d9a 8a3e
00000080: 8ca4 fa3e 4747 f23e 051b 8a3e 5117 843e
00000090: 6a16 6dbe ef3a abbe 26f1 b43e 046c 82be
000000a0: 5466 14bf 40fc ed3e b2f2 013f d0aa 873e
000000b0: eea4 3d3e 6a2f f13e e0cf 44be 2c81 21be
000000c0: 1fe8 b0be b067 84be 4534 54be 8058 0a3f
000000d0: 9c6d 293e e7cd 1bbe 1e32 06bf 5658 e4be
000000e0: 680d c8be 074a 05be b79f 7cbc 4480 0cbe
000000f0: 224d 9abe 8727 193e 0cda 91be 3aaa b33e
0.1819024 0.44040638 0.5150475 -0.3841502 -0.043459978 -0.173462 -0.18590723 0.08106903
-0.5542759 0.2716227 -0.16022925 0.3080521 0.52459127 -0.46629536 0.33276045 0.06534604
0.32409194 -0.12474232 -0.48240116 0.4729602 -0.16947266 -0.26077846 -0.26749426 0.09080987
-0.42514852 0.50325 -0.35302493 0.2469048 -0.22430097 0.15739888 0.3862634 0.2707099
0.48953664 0.47320005 0.2697374 0.2579904 -0.23153082 -0.334434 0.35340232 -0.25473034
-0.5796864 0.46481514 0.5076095 0.26497507 0.18519947 0.47106487 -0.19219923 -0.15771931
-0.34552094 -0.25860357 -0.20723064 0.5404129 0.16545719 -0.15215264 -0.5242022 -0.44598645
-0.39072728 -0.1301652 -0.015418938 -0.13720804 -0.30136973 0.14956485 -0.2848667 0.3509081

sa1.mlp_convs.1.weight f4 [64, 64, 1, 1]
00000000: 9f3e 183d 189e 523d a3e4 ea3d 7060 083e
00000010: 2ebe 813d 82b6 82bd d4b3 b7bd 7e7c d13d
00000020: e473 fb3d 88b6 6dbc acbf c5bd e402 f63d
00000030: 7aff e1bd 9a99 05bd 6cba e83c 64bd ebbd
00000040: 8ecc e93d e66f 1a3c ec59 4ebd 6299 d8bd
00000050: 7b2b 32bd ecb7 753b 1a1d f9bd bb47 f8bd
00000060: ea70 8d3d 8c23 92bd 1901 cb3d 16ba 57bd
00000070: 7bea c93d d638 393d bb32 8dbd f51a 9d3d
00000080: cfc2 efbd 0ce9 c53c f7ed cf3d bea0 eebd
00000090: 7344 f73c 8a7e d93c e54c 04be 048a fabd
000000a0: b337 58bd fb84 703d fbbf 473d fb72 ac3d
000000b0: 0a61 a43d a335 333c d5f2 e13d f2bf 133d
000000c0: 1461 6f3d 202f 873d 2602 dabc a998 e3bd
000000d0: 27d9 f23c 4ea0 b83d a2d6 933d eebe 313d
000000e0: 3872 b23d c09b aabd d974 6f3d 27b6 cebc
000000f0: 506b 96bc 8f90 bcbd 5951 a43c 2d4a d73d
00000100: ef6b fa3a cdb6 953d dfdf d73d 2c7c 8abd
00000110: 6185 953d f79c a13d c5b8 373d ac74 f53d
00000120: 1dd2 7b3d 8ff5 2bbd 9623 1cbd a727 26bd
00000130: 8b53 e83d bfa5 be3d 10bf 853d c51a debd
00000140: c46c 6c3d 3e01 89bd 5904 dd3d 1fd4 a3bd
00000150: 7431 3d3d a879 a0bd 7934 023e 0ad8 c33d
00000160: 9ecd 1cbb 6a20 08bd 74db a5bd 0745 f1bc
00000170: e649 e63d d459 ebbd 423a 143d 415c 8a3a
00000180: 02ab 213d e263 8bbd 61a4 763c 3930 0d3c
00000190: 7652 48bb a1e4 b93d 3a62 6739 496f f33d
000001a0: 8faf 2e3d 1d97 86bd 1bc2 d1bd f436 e53d
000001b0: d225 acbc cebb 94bd 09de aa3d 75dc df3d
000001c0: 372a 82bd 714d 2abd 76e0 8ebd beba 0abe
000001d0: a14e 4ebc d7e3 a4bc ac36 d73c 6218 843d
000001e0: 0366 c53d 4cb2 45bd 8bad 54bc 0a41 10bd
000001f0: 87fb e7bd a6e4 003e 1f8d b03d bc82 9f3d
00000200: 976d 43bd 03f6 d2bc 3408 d63d 6a8f c93d
00000210: 3dc1 233d dd89 f8bc abf3 8e3d adad edbd
00000220: 81cd dabd 63b0 f33c 9bd8 f8bd 6766 04bd
00000230: f1e5 c93d b464 e53b 3c81 81bd b368 cfbd
00000240: 02dc 8b3c 113e 8d3c 23eb b6bc f035 46bd
00000250: a7c9 b83c 03a7 303d fc35 a4bd 2068 e13d
00000260: 48dd 0ebd b9a9 50bd 4af5 15bd 3ffb f2bd
00000270: 7dbc 6d3b b75b 263d 7a3c 53bc ae03 e23d
00000280: 3124 873d c4dd cdbd 4207 dbbd 4aab d0bb
00000290: b28c fcbd 9ef7 8ebd 254e b03c be53 87bd
000002a0: e98f f13d 0823 3c3d 9fd6 02bd 9a24 56bd
000002b0: 1441 713d 66fd 8d3d 2001 a4bd 6b57 453c
000002c0: 11e0 473d 1390 c3bd 147c c83d 3353 203c
000002d0: 6958 03be 7648 0b3d 1b67 4fbd 816a 9fbb
000002e0: 8f2c d93d 3296 26bc 4617 0fbc 0b60 3fbc
000002f0: 3f2d 37bd 4dcd d3bd bca7 fabb 29db d73d
00000300: bb22 45bd 7d2f 8c3d 401f 3ebd 071e 0fbd
00000310: 2d79 cb3c 61cf 08bd e5e4 e13d 3081 ebbc
00000320: 10c7 22bd afa6 9cbd c1ed 89bd 6b02 033e
00000330: 22fb 1e3d 3b21 7d3c 37ce 03be ceb6 223d
00000340: 10ff f13d 2cc2 80bd dab0 74bd d43b d6bd
00000350: 80ea d7bd 058f f8bc dd2d b63d 5b28 95bd
00000360: 827f 76bd e3be babd b348 a93d d825 c43d
00000370: 743f c63d 71a8 acbd d7de 8fbc adb6 93bd
00000380: 6160 873d c3d0 b23c 09f1 f7bd d3a9 b2bd
00000390: 404d c5bd ace6 e4bc 28f5 90bd 9902 fdbc
000003a0: 9a6c e2bd e6f3 573d 7d5a c43d deaf 563d
000003b0: 5210 f03d fb13 c73d 0a09 02be bf45 373c
000003c0: 8793 0c3e 50f4 06bd 8a6c 86bd 59a0 b9bd
000003d0: 2f6b a9bd 4598 56bd 1265 8dbd 6855 abbd
000003e0: f19b 9fbd 76ce 58bd e9f8 45bc 2e64 0a3e
000003f0: a1bf d0bd 375a e5bd 3db9 593d 89f8 ccbd
0.037169095 0.0514203 0.1146939 0.13318038 0.06335102 -0.06382467 -0.08969846 0.10228823
0.12277964 -0.014508851 -0.09655699 0.1201227 -0.110350564 -0.03261719 0.028409205 -0.11510733
0.11415969 0.009426093 -0.050378725 -0.105761304 -0.043498497 0.003749366 -0.12163754 -0.121230565
0.06906302 -0.07135686 0.09912319 -0.0526677 0.09859177 0.04522022 -0.06894442 0.07671157
-0.11707079 0.024158977 0.1015281 -0.11651753 0.030184006 0.026549596 -0.12919958 -0.12233356
-0.052787494 0.05872057 0.04876707 0.08420368 0.08026321 0.010938081 0.11032645 0.036071725
0.05844219 0.06600785 -0.026612353 -0.11113102 0.029644562 0.09014951 0.07218672 0.043394975
0.08713192 -0.08330488 0.058461044 -0.025233341 -0.018361717 -0.0920726 0.02005832 0.10512195
0.0019105653 0.07310257 0.10540747 -0.06761965 0.07300831 0.07891267 0.044853944 0.11985144
0.061479677 -0.04198223 -0.038119875 -0.04056516 0.113440596 0.09308957 0.06530583 -0.1084495
0.057720914 -0.0668969 0.10791845 -0.07999443 0.04618974 -0.07835704 0.12715329 0.095626906
-0.0023926268 -0.033234037 -0.08098498 -0.02945186 0.11244564 -0.11491743 0.03618837 0.0010556058
0.039469726 -0.068061605 0.015053839 0.008617454 -0.0030566729 0.09076811 0.00022066469 0.1188646
0.042647894 -0.06571791 -0.10242101 0.11192122 -0.021014128 -0.072623834 0.08343131 0.10930721
-0.06355708 -0.04157776 -0.06976406 -0.13547799 -0.012591989 -0.020128174 0.026271187 0.06449963
0.09638598 -0.04826574 -0.012980829 -0.035218276 -0.11327272 0.12587222 0.08620667 0.077886075
-0.047711935 -0.025752073 0.10450783 0.09841807 0.03997921 -0.030339176 0.0698007 -0.11605392
-0.10683728 0.029747194 -0.12150689 -0.03232422 0.09858311 0.00700053 -0.063234776 -0.10127392
0.017072681 0.01724151 -0.022328919 -0.048391283 0.022557093 0.043128025 -0.08018109 0.110061884
-0.034879 -0.05094311 -0.03661088 -0.11864328 0.0036275678 0.04061481 -0.012892837 0.11035858
0.065987 -0.10052064 -0.10694744 -0.0063680755 -0.12331523 -0.06980823 0.021521637 -0.066077694
0.11795027 0.045931846 -0.03194296 -0.052281 0.058899954 0.069330975 -0.08008027 0.012044768
0.04879767 -0.09548964 0.09789291 0.009785461 -0.12826695 0.03400465 -0.05063544 -0.004864991
0.10604202 -0.010167645 -0.008733576 -0.011680613 -0.044720884 -0.103418924 -0.00764939 0.10539848
-0.048128825 0.06844995 -0.04641652 -0.034940746 0.024838055 -0.033400897 0.11029986 -0.028748125
-0.039740622 -0.0764898 -0.06734801 0.12793891 0.038813718 0.015449817 -0.12871633 0.039725117
0.118162274 -0.06287035 -0.05973897 -0.1046063 -0.10542774 -0.030341635 0.088954665 -0.07283088
-0.060180195 -0.0911844 0.082658194 0.095775306 0.096800715 -0.08430565 -0.017562313 -0.07212577
0.0661018 0.021828061 -0.12106521 -0.08723798 -0.09633875 -0.027942024 -0.0707801 -0.030885028
-0.1105587 0.052722834 0.09587572 0.052413814 0.11721863 0.09720608 -0.1269876 0.011186062
0.13728152 -0.03294784 -0.06563671 -0.09063787 -0.08272397 -0.05239131 -0.06904043 -0.08365899
-0.07793415 -0.05293127 -0.012083271 0.13514778 -0.101928 -0.11198848 0.053155173 -0.10008342

sa1.mlp_convs.1.bias f4 [64]
00000000: 025f 81bd 9a97 943d dcba 80bc 3af1 b63b
00000010: 576b e7bd 8d9e 4abd 93e4 dabd 4e96 98bd
00000020: ab8b c03d 07e4 a1bd b4f2 823c d0a1 d4bc
00000030: 2c10 6e3d 33a9 bdbc 2b60 6b3d 07ea 993c
00000040: 17f8 063d e4c1 ddbd 2246 fcbd c545 8dbd
00000050: 6309 e63c ea23 533d ae3a 9dbd dff5 48ba
00000060: bb8d a93d dec2 e63d 8229 213d f43d edbd
00000070: 6e2a eb3d cbbd 1abc 599f 01bc 7b31 e33d
00000080: ca86 b4bb de84 b83d 5595 1dbd df3b bb3d
00000090: 02ad a9bd 92c9 b53c bb63 7ebd 02a9 043e
000000a0: 3d10 1f3c 03ba edbd 4d94 a03d 6e1a 99bd
000000b0: e2fc 96bd ec7e 8fbc dc44 de3d 6267 bcbc
000000c0: 2bdf e1bd 4d0e fd3c 14b5 09bc bc9d b5bd
000000d0: cd30 9f3d 903b 86bd e77d c03d c85b be3d
000000e0: fc3e e6bd 4b66 f43c a793 2dbd 2875 a9bd
000000f0: af43 e7bd 6aee 1f3d 1b47 9dbd 3292 01be
-0.063169494 0.07255478 -0.015714101 0.0055829557 -0.1129977 -0.049467612 -0.10688128 -0.07450543
0.094016396 -0.07904821 0.01598487 -0.025956064 0.05812089 -0.02315197 0.05746476 0.01878835
0.03295144 -0.10827997 -0.12318064 -0.06898073 0.028080648 0.051547922 -0.07677208 -0.0007666032
0.08278986 0.11267637 0.039346226 -0.11584082 0.11482702 -0.009444664 -0.007911527 0.11093422
-0.005509232 0.090097174 -0.038472492 0.09142279 -0.08284952 0.022190843 -0.06210683 0.12955096
0.009708461 -0.116077445 0.07840786 -0.07475744 -0.07372452 -0.017516576 0.10852978 -0.022998516
-0.11028894 0.030890608 -0.008404989 -0.08867976 0.0777298 -0.065543294 0.09399014 0.0929485
-0.11242482 0.029833933 -0.04237714 -0.08274299 -0.112922065 0.03904573 -0.07679578 -0.12653425

sa1.mlp_convs.2.weight f4 [128, 64, 1, 1]
00000000: 8968 65bb 02b4 943d d9b3 a0bb 81b8 ed3d
00000010: 4807 013e 4a51 483d 9a32 cc3d 5adc 37bd
00000020: ec71 203d f0f9 863d 2a9f 41bd c2ba b5bd
00000030: 218f b1bc a190 803d 2c18 c73d 9140 fe3d
00000040: 6ce5 ed3c afba 8ebd 6b29 99bd e132 463d
00000050: 9d02 b8bd 58ae e3bc c891 9bbd e140 d5bd
00000060: 96d9 f93d 93de f13b 756a 083d 9c96 3b3c
00000070: 7402 d3bd 7e36 503d fb80 413d 5de4 003e
00000080: fbd6 0bbe a488 903d 766c 6abc 116a ef3d
00000090: ac99 c83c 1219 7b3d ef2f e23d 93f4 ecbd
000000a0: dc33 8b3c 293b c93d 3ffa f5bc 55f2 83bc
000000b0: 9ac1 e33d 254e 84bc 50d2 8b3d d173 06bc
000000c0: cf1d e63b 01c9 003e 45f3 803d 5646 c4bd
000000d0: 198e fabd 4536 b8bd 839a 33bd 6397 9abc
000000e0: 9cdf 6b3c 6c97 043d 1e6f db3d beec 283b
000000f0: 26d6 993d a5f3 46bd 9d05 4fbd 4f0c f43c
00000100: fbaf c33d 253e 26bc b010 353d 2c9c a13d
00000110: b50c 18bb 7ce1 de3d 34ef f5bd 655c 343d
00000120: c3ab a63d 7e1e 7d3d 0c08 983d d8d6 ce3d
00000130: 7ce7 73bd 6bd9 a1bd c27f f83d b19d d43d
00000140: bcae 733c 5802 11bb bab3 05bd 82dd 54bd
00000150: 06cb cc3d f27c dc3d 6682 bd3d cdc4 debd
00000160: 8da3 ccbd 27fc b43d 2c0f 033b 9862 4abb
00000170: 6a8c c5bd 174d a0bc b420 aabd de9b 213d
00000180: a7b2 5e3d d80a 2e3d 4f2f 83bc b58f d33c
00000190: 5f73 8cbb 2584 02bd 8b2a a5bd 8991 90bd
000001a0: bb45 413d b807 d53c 19ad 933d b5bf a53d
000001b0: 4be3 de3a 3adf eebd 76f7 b23d 2480 d1bd
000001c0: 9b4b 853d 20cd e1bd 9269 243d 8066 8ebd
000001d0: 62ce ad3d 6fc8 7a3c ea4e 04bd 5869 b53d
000001e0: e7d2 21bd ee00 7b3b 7073 da3c 8a02 873d
000001f0: ce66 afbd 9d67 8dbd cbcd 7b3d 6661 de3c
00000200: d2d0 853b 6007 cebd 1c4b f33d 2238 e0bd
00000210: bb28 01be 2135 9f3c 6922 b5bc 3f23 95bd
00000220: 6c2c aa3d 8915 68bd 6e66 97bd 2505 babd
00000230: 4f0f 25bd a9c6 edbc 7517 08bd 02a1 3e3c
00000240: 7809 33bd d68f 57bd 8754 cfbd 6bd5 3c3d
00000250: 67e3 be3d 1f89 633d e9ec c9bd 157a 52bc
00000260: 4391 303d 064d fa3a 8c06 92bc 985b 003e
00000270: f7f1 1cbd a966 91bd 467f 4f3d 5781 9d3d
00000280: 1278 363d 458a 9ebd a2d2 2b3d b158 553d
00000290: 7593 bb3d 075d 7f3d e7b2 51bd 1bc5 8dbb
000002a0: 6113 9c3d dddf 963d dc1d 0fbd 2bf7 bcbb
000002b0: bda0 1dbd f358 d0bc 3177 34ba abe9 943d
000002c0: fa96 c2bd 1507 053d fdc0 61bc 05a7 1ebc
000002d0: faf4 0c3e b8fa 9f3d 5595 fa3d d2d9 e3bd
000002e0: 01b1 1abd 4164 05bd 0f06 efbc 4748 943d
000002f0: 67c9 8dbd f5fc b73d 3e22 c53d e8ac 0f3d
00000300: acc6 5fbd 13bb dbbd 02f8 ad3d d10a 5f3d
00000310: 42ff e03c 2a53 fd3c c84a b2bc 26f9 78bd
00000320: 8815 de3d 659c da3d e0cb d7bd 092a d23d
00000330: 718b c8bd 2ee7 cebc 2036 28bd 5cad 83bd
00000340: dc09 6ebd 5fc3 cfbd f56e b63d fbf1 133d
00000350: 74a9 ac3d edbd dd3d d63c e9bd c70c ee3c
00000360: bf34 c13c cf1a b73c f98d e4bc 981f 84bd
00000370: 9930 95bd 0692 10bd f15a dc3d 65c7 833d
00000380: cc8f d1bc 97dc f9bc b441 d03d ce7a c7bb
00000390: 191d 683d ace6 e93d 46a9 853d 1008 9bbd
000003a0: 3411 593d fc13 a93d 38d5 713c 3b35 88bd
000003b0: 940d ebbd 6c58 c53d 7ef3 033d 21da c63d
000003c0: b8b4 e9bd 5a60 0bbe b28b a8bd a53d 97bd
000003d0: 938d 593c d33e 99bc 546b c33d 871a 293d
000003e0: 0efa 863c 3e21 0ebe 39a0 a0bc c751 c23c
000003f0: b174 ebbd c414 3f3c ed63 2cbc b2d9 bfbc
-0.0035004935 0.07260896 -0.004904252 0.11607457 0.12600434 0.04890565 0.09970589 -0.044887878
0.039171144 0.065906405 -0.04727093 -0.08873512 -0.021674694 0.06277586 0.09721407 0.12414659
0.029040061 -0.06969201 -0.07478603 0.048388366 -0.089848734 -0.027793095 -0.07596165 -0.10412765
0.12199704 0.0073812692 0.03330465 0.011449482 -0.10303202 0.050833218 0.047242146 0.12587114
-0.13656227 0.07057312 -0.014308086 0.116901524 0.024487339 0.061303206 0.11044299 -0.11570086
0.016992502 0.09825737 -0.030026553 -0.016106764 0.11120911 -0.016150543 0.06827223 -0.008206324
0.0070225964 0.12576677 0.062964 -0.09583728 -0.12234134 -0.08994726 -0.043848526 -0.018871015
0.014396574 0.03237097 0.10714553 0.0025775875 0.07511549 -0.0485722 -0.050542463 0.029791025
0.0955505 -0.010146652 0.044205368 0.078911155 -0.0023200933 0.108828515 -0.12008515 0.044033427
0.0813823 0.061796658 0.0742341 0.10099572 -0.059546933 -0.07902797 0.12133743 0.1038164
0.014873203 -0.002212664 -0.032642104 -0.05196906 0.09999661 0.10766019 0.09253387 -0.108773805
-0.09992132 0.08837157 0.0019998057 -0.003088152 -0.096459225 -0.01956801 -0.08307019 0.039455287
0.054369595 0.04249081 -0.01601377 0.02582536 -0.0042862142 -0.031864304 -0.08064755 -0.07059009
0.04718564 0.026004657 0.0721075 0.08093206 0.0017004994 -0.11663671 0.08738606 -0.10229519
0.06508561 -0.110254526 0.040139742 -0.06953144 0.0848663 0.015306576 -0.03230182 0.08857983
-0.039507773 0.0038300115 0.026666373 0.06592281 -0.0856453 -0.06904528 0.061475556 0.027146053
0.004083731 -0.100600004 0.1187956 -0.109482065 -0.12613194 0.019434514 -0.022111135 -0.07282113
0.08309254 -0.056661163 -0.07392584 -0.090830125 -0.040297803 -0.029025393 -0.033225495 0.011635067
-0.043710202 -0.052627407 -0.10123544 0.04610197 0.09320717 0.05555069 -0.0985964 -0.012846489
0.043107282 0.0019096441 -0.017825387 0.1253494 -0.038316693 -0.07099659 0.050658487 0.07690685
0.0445481 -0.077412166 0.041948922 0.052086536 0.091589846 0.062344577 -0.051196005 -0.0043264753
0.07620884 0.07366917 -0.034940585 -0.0057667694 -0.03848337 -0.02543304 -0.0006884216 0.07271131
-0.09501453 0.032477457 -0.013778922 -0.009683375 0.13765326 0.07811493 0.12235514 -0.1112553
-0.03776646 -0.032566313 -0.029177694 0.07240348 -0.0692318 0.089837946 0.09625672 0.035077006
-0.054632828 -0.10729041 0.08494569 0.054453675 0.027465466 0.030923445 -0.021764174 -0.06078448
0.108439505 0.10674361 -0.10536933 0.10261924 -0.09792221 -0.02525672 -0.041067243 -0.0642955
-0.05811487 -0.10144686 0.08907882 0.036119442 0.08430758 0.10827241 -0.11388557 0.029058827
0.023584722 0.02235165 -0.02789973 -0.064513385 -0.0728466 -0.03529551 0.10759533 0.06434516
-0.025581263 -0.030500693 0.10168782 -0.0060876375 0.056668375 0.1142095 0.06526427 -0.07569897
0.05299492 0.08255765 0.014760308 -0.06650778 -0.11477199 0.09636006 0.032214634 0.097095735
-0.114114225 -0.13610974 -0.0822977 -0.07384805 0.013278383 -0.018706715 0.095419556 0.041285064
0.016476657 -0.13879868 -0.01960765 0.023720635 -0.114968665 0.011662666 -0.010521871 -0.023419235

sa1.mlp_convs.2.bias f4 [128]
00000000: 908f 35bc 694f 323d 9c1f e9bd c3f2 60bd
00000010: 2e22 d8bd f5c8 9d3d 7913 82bd c7fc ed3d
00000020: dcef d3bd d7ec a6bd a1c4 aa3c ae4a 02be
00000030: 2802 183d c45a b43c 29f9 4cbd 48c3 0b3d
00000040: 7f37 f33d 23e3 a73d 7993 ed3b f2af e5bd
00000050: 7a59 b53d 2b1f ac3d 80cb 9ebd 1ccd 83bd
00000060: c144 e83d 1991 413d 9ab7 3e3d 43a8 c4bc
00000070: 0a02 f4bc aadf d3bd ba59 59bd b08b b9bd
00000080: 038a 903c 792f a4bd aa19 a4bd b4cd 063d
00000090: 8cf6 02bd 862a 29bd 299f d6bd 4b9a e83c
000000a0: da68 f1bc 9594 223d 1ac2 8e3d b0a4 4d3d
000000b0: ea3c 843d f286 b1bd da69 c8bc 3f1f 9fbd
000000c0: 905a 943d 90eb 81bc 02cd e33d 5dbc 66bd
000000d0: 987a b43d fcba 8dbc 6bb0 e93d 99fd d43d
000000e0: 9d1d dd3d f68c 4c3d 45be b63d 6e1c d3bd
000000f0: 1f03 acbd 1f76 23bc 49ba f33d 268d 9d3d
00000100: 1589 eabd c896 0cbd 8989 ea3d 2be9 c3bd
00000110: 0ef5 b33d f6ce 77bc 9026 eebb a44c 6bbd
00000120: 41c7 9abc a6ea 2c3d 530c 8a3b 4ac3 823d
00000130: ca54 b6bd 4546 843c d4d5 7cbd ae51 45bd
00000140: 3fa1 013e d3af 8a3c d995 9bbc 84c1 d73c
00000150: 52e1 e73d 603a bbbb 7f23 84bd 1095 4b3d
00000160: f6b5 ffbb 96d5 e9bd 3a8d f4bd 9cf3 813a
00000170: 48fa d13d f9be 063d 94d7 8fbd f01f 89bd
00000180: 4355 a3bd 503d c03d 04f5 153d cd77 74bd
00000190: 9dd2 85bd bb46 a8bd 0467 96bd 2d22 5cbd
000001a0: 5d28 20bd aa8f fc3d 2a1b 1b3d 9e34 42bc
000001b0: 8fe3 443d 63b6 d8bc 6e22 d83a 0234 8bbd
000001c0: 08d3 6abd 334f 98bd e60b aabd 5e6e d53d
000001d0: 6deb a53d b701 b53d 0570 efbd 8e2c 683d
000001e0: 3e2f 2abd 2c30 b53d 1e22 95bd c198 f4bd
000001f0: 635b a1bd 53a0 f1bd 0a52 a53d a731 e43d
-0.011081591 0.043532763 -0.11382982 -0.054919016 -0.10553394 0.07704345 -0.0635137 0.11620479
-0.10348484 -0.08150642 0.020845713 -0.127238 0.03711143 0.022015937 -0.050042305 0.03412178
0.118758194 0.0819762 0.007250246 -0.112151995 0.08854957 0.08404382 -0.07753658 -0.06435606
0.11341239 0.047257517 0.046561815 -0.024006015 -0.029786129 -0.10345395 -0.053064086 -0.090598464
0.017643934 -0.08016867 -0.080127075 0.032911018 -0.031973407 -0.04130032 -0.10479576 0.028393885
-0.029468942 0.03969248 0.06970616 0.050205886 0.06456931 -0.08668317 -0.024464536 -0.077696316
0.07243836 -0.015859395 0.111230865 -0.05633198 0.088124454 -0.017301075 0.11410602 0.103999324
0.10796664 0.04993912 0.0892301 -0.10308157 -0.08399033 -0.009976893 0.119007654 0.076929376
-0.114519276 -0.034323484 0.11452014 -0.09565958 0.08786975 -0.015125027 -0.0072677806 -0.057446137
-0.01889384 0.042215966 0.004212895 0.06384905 -0.08902891 0.016146788 -0.06172736 -0.0481736
0.12659167 0.016929543 -0.018992351 0.026337393 0.11322273 -0.005713746 -0.06452083 0.049702704
-0.007803674 -0.114176914 -0.11940999 0.000991452 0.102528155 0.03289697 -0.0702354 -0.06695545
-0.07975247 0.093866944 0.03661062 -0.059684563 -0.06534312 -0.08216616 -0.073438674 -0.05374353
-0.039100993 0.12332089 0.037867703 -0.011853365 0.04806858 -0.026454156 0.0016489753 -0.06797029
-0.05733016 -0.07436981 -0.08303051 0.104214415 0.081015445 0.08838218 -0.11691288 0.056683116
-0.04154896 0.08847079 -0.07281898 -0.11943198 -0.07878759 -0.117981575 0.08072288 0.11142283

sa1.mlp_bns.0.weight f4 [64]
00000000: f6b8 7e3f e22e 803f 1a6c 7f3f 5891 803f
00000010: 05bc 7e3f 0ab1 803f 1318 813f d3e8 7e3f
00000020: 855e 7e3f 3b76 803f d18b 7b3f 86e4 803f
00000030: 658f 803f d895 7f3f c60c 7f3f d7b9 803f
00000040: ea15 803f fe9d 803f 759e 7f3f 0180 7d3f
00000050: b8c9 803f 89f8 7c3f a9f2 7f3f d8ee 7f3f
00000060: 00e4 803f 49a5 803f 6906 803f f1a1 813f
00000070: d16c 7d3f fb0b 823f 6e02 803f be22 813f
00000080: 177a 803f c1fc 7e3f 09f9 7e3f 1516 803f
00000090: b3bb 803f 7967 803f 9624 803f 1fcc 803f
000000a0: 21cf 7d3f a214 803f 374c 7e3f 8192 7d3f
000000b0: bc37 7e3f c19f 813f f801 803f 588b 803f
000000c0: b2a1 803f b57b 7c3f f0d6 7d3f 6b40 7d3f
000000d0: f41b 823f 399e 803f 9c0d 7c3f 4100 813f
000000e0: d852 7f3f abad 7e3f a6f2 803f 7c4a 7e3f
000000f0: 32f2 7c3f 7592 7f3f 832b 803f cf1b 7f3f
0.9950098 1.0014307 0.99774325 1.0044355 0.99505645 1.0054028 1.0085472 0.9957401
0.99362975 1.0036081 0.9826022 1.006974 1.004376 0.9983802 0.99628866 1.0056714
1.0006688 1.0048215 0.9985116 0.99023443 1.006156 0.98816735 0.99979645 0.9997382
1.006958 1.0050441 1.0001956 1.0127546 0.98994166 1.0159906 1.0000741 1.0088727
1.0037259 0.9960442 0.9959875 1.0006739 1.0057281 1.0031577 1.0011165 1.0062293
0.9914418 1.0006297 0.99335045 0.9905167 0.99303794 1.0126878 1.0000601 1.0042524
1.0049345 0.9862626 0.99156094 0.9892642 1.0164781 1.0048286 0.98458266 1.0078202
0.99735785 0.99483746 1.007405 0.99332404 0.9880706 0.9983285 1.0013279 0.9965181

sa1.mlp_bns.0.bias f4 [64]
00000000: 7f8a b03b 9ba8 fbb9 3367 ec3b 1fdd e83b
00000010: c601 37bb 1e71 fd3b 1043 673b 0f00 ae3c
00000020: 750d 7eba 287c d7ba 4381 b3bb ab30 abbb
00000030: 433a 123c 37b8 3bbc 0e6c 893c b55f dd39
00000040: 446a 9b3c 0b3f 35bc 1c9f fe3a 38dd 6fbc
00000050: e2bc 26bc 7b29 75bb 4fc3 5f3c a640 a33b
00000060: 8e7e 523c 4181 f4ba 4e9f 00bc d22e 1f3c
00000070: 0273 91bc abcd 113c 6879 6ebb c74f 61bc
00000080: 4086 efbb 18cf c13b e1f3 613c 5adb ed3b
00000090: a7ae b93b a332 7fbc 953a a2bc 5adc 5c3c
000000a0: 2b11 c03b 902e 80bb 993d 0ebc d719 2abc
000000b0: f43a 84bb 94d2 f9bb d14d 26bb dfb9 f0ba
000000c0: 0160 003c b8c2 ccbb 7c70 58b9 c490 263b
000000d0: b966 453c 0c23 1abb 2841 30bb 6ce9 47bb
000000e0: 62a2 1f3c 7087 7abc 1d98 563b 30ae 193a
000000f0: d7e4 963a 4e04 893a 48c5 453b 6b64 a63b
0.005387604 -0.00048000072 0.0072144507 0.007106438 -0.002792464 0.007734432 0.0035287775 0.021240262
-0.00096913363 -0.00164402 -0.0054780557 -0.0052243075 0.0089250235 -0.011457494 0.016775157 0.00042223712
0.01897157 -0.011062394 0.001942608 -0.014640145 -0.010176869 -0.0037408757 0.013657405 0.004982072
0.012847556 -0.0018654243 -0.007850481 0.009715753 -0.017755035 0.008899133 -0.0036388282 -0.013751931
-0.007309705 0.00591458 0.013791055 0.0072588148 0.005666572 -0.015576038 -0.019803325 0.01348027
0.0058614216 -0.0039118007 -0.008681678 -0.010382137 -0.004035348 -0.00762398 -0.0025375972 -0.0018365941
0.007835389 -0.006248798 -0.00020641269 0.0025415877 0.012048417 -0.0023519425 -0.0026894305 -0.003050412
0.009743305 -0.01529108 0.0032744475 0.0005862443 0.0011512291 0.0010453553 0.0030177403 0.0050778887

sa1.mlp_bns.0.running_mean f4 [64]
00000000: df78 393e ee4a e03e f563 043f 198b c4be
00000010: fedf 37bd a84d 32be 33ca 3dbe 1660 a83d
00000020: ee4b 0ebf 48b6 8a3e 4614 24be 7d7f 9d3e
00000030: 77c8 063f ec52 efbe 8eb9 a93e f79b 863d
00000040: c9b3 a53e 3db0 00be d83f f7be 7421 f13e
00000050: 29f2 2cbe 6105 85be 624d 89be a69e b73d
00000060: 89bc dbbe fca1 003f a847 b5be 1b7b 7b3e
00000070: 065a 64be 44a2 213e ccba c53e 3906 8b3e
00000080: d61a fa3e d2f4 f13e 92a9 893e 9c56 833e
00000090: b59c 6cbe 04ef abbe 2f4c b43e 443d 82be
000000a0: 4d98 14bf e549 ed3e 6742 023f b3ca 883e
000000b0: 2b08 3c3e ed46 f03e 87a5 44be 3194 24be
000000c0: a439 b1be 73f6 83be c08f 57be 9857 0a3f
000000d0: 32cb 273e d77a 1dbe cbcc 05bf 559e e3be
000000e0: 5de5 c7be 4488 04be dc31 6ebc 88e3 0bbe
000000f0: d5f4 9abe f9fb 183e e5c0 92be d876 b33e
0.18112515 0.43807167 0.5171502 -0.38387373 -0.04489135 -0.17412436 -0.18534164 0.08221452
-0.5558461 0.27092195 -0.16023359 0.30761328 0.52649635 -0.46742952 0.3314938 0.06572717
0.32363728 -0.1256723 -0.48290896 0.47095835 -0.16889252 -0.25980666 -0.2681685 0.08965807
-0.42917278 0.5024717 -0.35406232 0.2455868 -0.22299966 0.15784556 0.38619077 0.27153185
0.488486 0.47257096 0.26887184 0.25652015 -0.23106654 -0.33580792 0.35214373 -0.25437367
-0.5804489 0.4634544 0.5088257 0.26717147 0.18362491 0.46929112 -0.19203769 -0.16072156
-0.3461429 -0.25773963 -0.2105093 0.5403991 0.16386107 -0.15378891 -0.52265614 -0.44456735
-0.39042178 -0.12942606 -0.014538255 -0.13661015 -0.30264917 0.1493987 -0.28662792 0.35051608

sa1.mlp_bns.0.running_var f4 [64]
00000000: a59b 1f3b 11f2 a13b 5727 703c a2a7 3c3c
00000010: 20c7 2b3b 2894 953b 3597 6f3c 9c05 6d3b
00000020: 2bd0 a23c e15f 793b 0e7f 913c 9358 1d3d
00000030: d89d 2e39 4836 1a3b faf4 b43b c906 303c
00000040: fdca a93b 57d7 063c 4d16 2b3b 15ec 083d
00000050: a14e 343c 6d6e 673c d0db 433b b21b 523b
00000060: a7ec c93b 9300 aa3c 41b3 ce3c cfa1 403b
00000070: bb2d 993b d84b a43b dd42 513a cf6e 153c
00000080: b93d 863b 5f75 143c d802 f63c 831f 8f3b
00000090: 93d5 5d3c 2144 963c 4c13 cd3c 719f dc3c
000000a0: ca0a 683c 8174 1a3c c5d3 733b 9081 c63b
000000b0: 4308 003c c433 1a3c d93a c73b 1d46 b33b
000000c0: a471 bb3b aabe 193c 2c41 793b 82e1 223b
000000d0: 9d49 653b dfdb 973b f873 823c 9c55 a03b
000000e0: 95e6 8e3b bd38 0e3d 3bdf de3b b36d 503b
000000f0: 2f0c 573c 52b3 853b 9932 1b3c e13a f63b
0.0024354246 0.0049421866 0.014657817 0.011514576 0.0026211217 0.0045647807 0.014623453 0.0036166674
0.019874653 0.0038051533 0.01776078 0.03841455 0.00016652734 0.002353089 0.0055223675 0.010743805
0.005181669 0.008230052 0.0026105822 0.03342827 0.011005075 0.014125449 0.0029885657 0.0032059965
0.0061622444 0.020752227 0.02523196 0.002939332 0.004674641 0.005013924 0.00079826807 0.009120657
0.0040967134 0.009061187 0.030030653 0.00436777 0.01353969 0.018343033 0.025033616 0.026931496
0.014162729 0.009427191 0.0037205082 0.0060579255 0.00781447 0.009411756 0.0060800132 0.0054710046
0.005720334 0.009383837 0.003803323 0.0024853651 0.0034986504 0.004634365 0.015924439 0.004893018
0.0043609836 0.03472208 0.0068015135 0.0031803667 0.013125463 0.0040802145 0.009472513 0.007514343

sa1.mlp_bns.1.weight f4 [64]
00000000: ea4b 803f 38ed 7e3f 8737 803f 2245 813f
00000010: a74a 813f 9a12 7d3f be2f 7e3f 0f6f 823f
00000020: 0a36 803f 9ab3 7f3f 3b68 7f3f d76a 7f3f
00000030: 05fb 7d3f 2036 803f 7ac9 7f3f 0ff7 7d3f
00000040: 7db3 7e3f 0fb6 813f b1f6 7c3f 2a68 813f
00000050: 11cf 7f3f 0644 813f 2841 813f 124c 813f
00000060: 1333 803f 8f8c 7f3f b5be 7e3f 8f67 813f
00000070: 9d3d 7f3f 40af 813f 362c 803f e0a6 813f
00000080: cd98 7c3f 2dc6 7d3f ef6e 803f 69f9 813f
00000090: 5e6f 7d3f cfb1 803f c3cd 7d3f ed2f 7c3f
000000a0: af81 7c3f 97c9 7f3f 6128 803f 8e11 813f
000000b0: 6129 7e3f 6057 813f c7c9 7c3f 2899 803f
000000c0: 345f 7f3f f390 803f 939d 7c3f 48de 803f
000000d0: 7213 803f 5a8e 823f bed1 7e3f e94e 7d3f
000000e0: ce22 7f3f 246d 813f 5c55 7c3f feea 803f
000000f0: 881c 803f 7fb7 7e3f 0d99 803f 13cf 7e3f
1.0023167 0.9958072 1.0016946 1.0099223 1.0100907 0.9885651 0.992916 1.0190142
1.0016491 0.99883425 0.9976842 0.997724 0.9921115 1.0016518 0.99916804 0.99205106
0.9949263 1.0133685 0.9881392 1.0109913 0.99925333 1.0098884 1.0098009 1.010134
1.0015587 0.9982385 0.99509746 1.0109729 0.9970339 1.0131607 1.0013492 1.0129051
0.98670655 0.9913052 1.0033854 1.0154239 0.9899806 1.0054263 0.9914209 0.9851063
0.9863538 0.99916977 1.0012323 1.0083482 0.9928189 1.010479 0.9874539 1.004674
0.99754643 1.0044235 0.9867794 1.0067835 1.0005934 1.0199692 0.9953879 0.9894853
0.9966248 1.0111432 0.9856775 1.0071714 1.0008707 0.9949874 1.0046707 0.9953472

sa1.mlp_bns.1.bias f4 [64]
00000000: b29c 693c 6059 2bbb ad47 963b f797 1fbc
00000010: dd84 833c 2dd6 3a3c ea24 1bbc 6576 d638
00000020: bc15 1fbc e33d 6e3c 19be f4ba e05a 8abc
00000030: e013 c53a 8405 21bc 7221 33bc b35d de3b
00000040: 6313 aebb ad2b ce3c bf5b 06bc d839 da3b
00000050: 443a 0dbc 3489 a0b9 03ca 98bc 0658 f23b
00000060: 7f6c 7e3b 7f06 45bb 2518 353c b849 1a3b
00000070: 7119 05bc faad 0a3c e870 91bb 27a3 263b
00000080: d5be 92bb eb0b e8ba 1f08 0f3a 94d7 09bc
00000090: 8d82 bebb 702d cdb9 3591 bcbc c961 afbc
000000a0: 1ea8 cebb eb97 b23c e8a7 77bc 27be a93c
000000b0: 9ba4 99bc d37c 7f3c 2677 5fbc e6c3 153c
000000c0: 4a18 e7bb b9bc ed3c 67db 66bb 2a7f 3ebc
000000d0: 4796 393b d896 ce3b faa4 9aba 0865 d5bc
000000e0: f28f a63b a3c3 573c a4d5 c4bb 5cf3 3a3c
000000f0: 4586 133c ca7e 42bc e839 5f3a 2e20 753a
0.0142585505 -0.00261458 0.004586181 -0.009740821 0.016054565 0.011403603 -0.00946925 0.00010226368
-0.009709772 0.014541122 -0.0018672376 -0.016889036 0.001503583 -0.009827975 -0.010933267 0.006786072
-0.0053123697 0.02516731 -0.008200585 0.0066597275 -0.008619849 -0.00030619802 -0.018651014 0.007395747
0.0038821993 -0.0030063686 0.01105312 0.0023542475 -0.0081237415 0.008464331 -0.0044385083 0.0025426836
-0.0044783154 -0.0017703747 0.0005456227 -0.008413214 -0.0058139027 -0.000391345 -0.023018459 -0.021408932
-0.006306662 0.021800956 -0.015115716 0.020720555 -0.018755248 0.015593725 -0.013639247 0.009140944
-0.007052456 0.029020654 -0.0035225989 -0.011626998 0.0028318332 0.006304603 -0.0011798434 -0.026049152
0.0050830776 0.013169202 -0.0060069133 0.01141056 0.00900418 -0.011871049 0.00085154036 0.00093508034

sa1.mlp_bns.1.running_mean f4 [64]
00000000: 4202 0a3e f4f6 c83e e563 63be 7be0 dcbe
00000010: 8713 19bf 5a4e e6bb 8cb5 b2be 6a56 ecbe
00000020: ae2f 8d3e d3e8 dcbd c198 2d3d 0e59 fc3e
00000030: 2487 593e 223f 013e 5163 d7be efb1 a73c
00000040: 54bb 433e f1ed a1be 2110 13be b99f cfbc
00000050: 0bfb 4b3d 520a 733d 7712 69be cc01 013d
00000060: a4e8 c73c f459 8e3e 665b 9a3e 938b 0cbf
00000070: 5dd3 143f 7827 133d f474 c73e 56e7 06be
00000080: 1d97 b33d 977c 633e 39d4 84be aa56 a6be
00000090: e2f9 b1be 1576 d63e 5231 c0be 1aff 123f
000000a0: 6a5c 663d a87f 6dbe fd5f a8bb af33 b4bd
000000b0: 5b19 5e3c 6b7a 8fbe e714 ff3d d4df 0f3f
000000c0: 7cf5 55be 125f 393d a498 0ebf e022 2e3f
000000d0: 9a71 2fbd a917 b5bc f6e9 4e3e e0bf fc3e
000000e0: 2c50 93be cf98 273e 5c15 ee3d 8256 0fbe
000000f0: 93d2 433d 1820 9fbd 6080 05be 0d47 78be
0.13477424 0.3925091 -0.22206075 -0.43140015 -0.5979542 -0.007028383 -0.34904134 -0.4615968
0.2757544 -0.10786595 0.042382006 0.49286693 0.21242958 0.1262174 -0.4206796 0.020470588
0.19114429 -0.31626847 -0.14361621 -0.025344716 0.04979996 0.059336014 -0.2276095 0.031495854
0.024402924 0.27803004 0.30147856 -0.54900473 0.58135015 0.035926312 0.38956416 -0.13174185
0.08769057 0.22215496 -0.25943163 -0.32487994 -0.34760958 0.41886964 -0.37537628 0.57420504
0.056240477 -0.23193228 -0.005138396 -0.0879892 0.01355585 -0.28023085 0.12455159 0.5620091
-0.20894426 0.04525668 -0.5570166 0.68021965 -0.04283295 -0.022106009 0.20206437 0.4936514
-0.28772104 0.16366886 0.11625168 -0.13997844 0.04780824 -0.07769793 -0.13037252 -0.24245854

sa1.mlp_bns.1.running_var f4 [64]
00000000: aa23 3a3d 6815 183e 0258 883d 9a53 233e
00000010: 6c4f 8d3e 9ef7 563d 38bd b83e 574b 7d3d
00000020: 4f0f 843d 8402 3a3e 9c66 0f3e 1126 8c3e
00000030: 321e 493d 5c32 b63c eb60 993e 46ae a23d
00000040: 589a f93d b654 643d 1ba8 203f 964e 2a3d
00000050: 9d22 223d cd3b ad3c 41be 913d 93d7 b13d
00000060: 5014 f63d 80c7 c33c 9079 873e 1632 b13d
00000070: 7f68 a43e 7a03 323e 1ebc e73d 4557 8e3d
00000080: 7fbe f13d b9a4 bd3e 4f00 2e3e 67bc 0b3e
00000090: 90ba aa3d f10a 153e 78da d13d 398a 843e
000000a0: dd3d ff3d 3db2 443d 5097 b43c defa 783e
000000b0: 2325 a03c 1636 8d3d 0808 843d aaa7 be3e
000000c0: 29f5 573d 809a 513d e957 a43e d417 953e
000000d0: 4cc2 2b3e 38e2 933e 7ff8 b33d 30ba 363e
000000e0: 0ddf 5a3d ad7f b23d d806 533e 95d3 2e3e
000000f0: 8486 2d3e d899 763e 91c3 913d 627d 563d
0.04544417 0.14851916 0.06657411 0.1594986 0.27599657 0.05248224 0.36081862 0.061839428
0.064482324 0.18165022 0.14003986 0.27372792 0.049101062 0.02224081 0.29956755 0.07943396
0.12187642 0.05574485 0.6275651 0.04157885 0.03958379 0.02114668 0.07116366 0.08683696
0.12015593 0.02389884 0.26459932 0.08652131 0.32110974 0.17384139 0.113151774 0.06950239
0.11803912 0.37039736 0.16992305 0.13646089 0.08336365 0.14554955 0.10246748 0.25886706
0.12462971 0.048021544 0.022044808 0.24314448 0.019548958 0.06895082 0.06446844 0.37237293
0.052724037 0.051172733 0.3209832 0.29119742 0.16773337 0.2888353 0.08787631 0.17844462
0.053435374 0.087157585 0.2060808 0.170729 0.16945845 0.24082124 0.071173795 0.052365668

sa1.mlp_bns.2.weight f4 [128]
00000000: 2e9f 7c3f 0d27 833f ba3e 803f b4fc 7f3f
00000010: dd34 803f 15bf 7c3f e324 823f 2a92 7b3f
00000020: 64b8 833f 3878 7f3f b00c 803f b5e6 7c3f
00000030: 95ea 803f 701f 813f 288f 7d3f 8a19 813f
00000040: fa9b 803f 5a8e 813f 2488 803f 1ef4 7b3f
00000050: 9934 823f 0512 813f 13d8 7d3f 828f 7e3f
00000060: 0ae2 7c3f 831e 813f 861f 7d3f 8121 7f3f
00000070: 0f74 7d3f eb5f 803f f649 803f 05a2 813f
00000080: 3ada 7d3f eb9b 803f 7943 823f 1298 7f3f
00000090: 96ed 813f 000d 803f bc20 7f3f 0dd9 823f
000000a0: f050 803f dcd6 7f3f 5fce 803f 9b36 7e3f
000000b0: 3ebb 813f 083b 813f 961c 7f3f f39c 7e3f
000000c0: aa1e 813f 8289 803f de59 7d3f f7a5 813f
000000d0: 128c 813f a7a5 7d3f a0bc 7f3f 987a 7d3f
000000e0: 6c15 813f 1ec2 7c3f 963e 7f3f 42fe 7c3f
000000f0: 0c4e 813f c463 803f 21f9 803f cbc9 813f
00000100: a317 7e3f 0d18 7f3f 292e 7e3f d4be 803f
00000110: ef91 843f 0506 813f 282d 813f 476c 7e3f
00000120: 6bc2 813f 1f16 813f 0fc2 803f 63e7 7e3f
00000130: 3879 803f 4e65 7c3f e6e6 803f 31ea 823f
00000140: 3ad5 813f 8cfe 803f e6ba 7c3f f8e5 7d3f
00000150: c9d4 7f3f 45f5 803f 8a24 7c3f 97b7 7d3f
00000160: 7db9 813f bef2 7d3f 154f 813f 2212 7a3f
00000170: a341 813f 1ff4 7e3f be47 803f 7833 823f
00000180: 3079 7e3f 68e5 803f b76e 803f 5489 813f
00000190: 9237 823f 18c4 803f 9872 803f 0684 7f3f
000001a0: 5b6f 7d3f 8ff3 7d3f e9ce 7a3f 1c00 813f
000001b0: 921e 7d3f 1c66 813f 2ab9 7c3f 8194 823f
000001c0: d0f5 7e3f dd68 813f a71e 7b3f 468b 833f
000001d0: edca 7d3f d28f 7c3f dd7b 7e3f bf08 803f
000001e0: 7518 813f 3454 803f dd3b 7d3f b218 823f
000001f0: 8e0f 813f dc62 803f 57d2 833f 95a7 823f
0.9868039 1.0246292 1.0019143 0.9999497 1.0016133 0.9872907 1.0167507 0.98269904
1.0290647 0.99792814 1.0003872 0.9878953 1.0071589 1.0087719 0.99046564 1.0085919
1.00476 1.0121567 1.0041547 0.9841937 1.0172302 1.0083624 0.9915783 0.99437726
0.9878241 1.0087436 0.98876226 0.996605 0.99005216 1.0029272 1.0022571 1.012757
0.9916111 1.0047582 1.0176841 0.99841416 1.015063 1.0003967 0.99659324 1.0222489
1.00247 0.99937224 1.006298 0.9930207 1.0135267 1.009614 0.99652994 0.99458236
1.0087483 1.0041964 0.9896525 1.0128773 1.0120871 0.9908089 0.99897194 0.9901519
1.0084662 0.987337 0.99704874 0.98825467 1.0101943 1.0030446 1.0076028 1.0139707
0.99254817 0.99646074 0.99289185 1.0058236 1.0357035 1.0079962 1.0091906 0.9938397
1.0137457 1.0084876 1.0059222 0.9957182 1.0036993 0.9859208 1.0070465 1.022772
1.0143197 1.0077682 0.98722684 0.9917903 0.9993406 1.007485 0.98493254 0.9910826
1.0134732 0.9919852 1.0102259 0.9768392 1.0098156 0.9959125 1.0021894 1.0171957
0.9940367 1.0070009 1.0033787 1.0120034 1.0173209 1.0059843 1.0034971 0.99810827
0.9899804 0.99199766 0.9797197 1.0078158 0.9887477 1.0109286 0.9872004 1.020157
0.9959383 1.0110127 0.98093647 1.0276878 0.99137765 0.9865695 0.9940775 1.0002669
1.0085589 1.0025697 0.9891947 1.0163786 1.0082872 1.003017 1.0298566 1.0207392

sa1.mlp_bns.2.bias f4 [128]
00000000: 8f85 473c 0b1e aebb d556 1fbc 5693 85bb
00000010: afce d0bc b363 553c 31f7 70ba 98c3 9d3b
00000020: d895 71bc 7a7a 203c 3cdc e1bc 174c 003b
00000030: 541b d4b7 c684 973c 9b26 a7bc 98d4 a6bc
00000040: f37c 85bc e7f4 143c 4d67 fb3a 334e 63bc
00000050: 1309 9dbc a0fe 823c 69ba 683b 9913 db3a
00000060: 05b2 08bd 400a f1bc 20da c1bc c6d9 32bb
00000070: 6278 90b9 2e0e 2239 c0d0 f9bc cb55 9bbc
00000080: 0d8f 25bb 3dff 133c 9a7d 113c e7ee 14bd
00000090: 708d 35ba 4344 34bc cda4 6cbb c7d8 ba3b
000000a0: 6b3d 10bb 32a2 2cbc fbf2 d6bb 8fb4 8abb
000000b0: fc09 c13b 960c 89bb 144b 1cbc 929d c3bc
000000c0: 2c9f bc3a 6aa4 04bc fe96 f7bc 8b0e 133c
000000d0: 899f 92bc 1451 c73c f28a 8b3b a537 7bbb
000000e0: 0430 413c 99e3 8a3b 5900 843b c148 6f3c
000000f0: 671e cf3b dc5a 5d38 5887 3cbb 2f66 5bbb
00000100: 8b88 83bb 6652 26bc a895 b83c 653d 14bc
00000110: 10de 9dbb 4e8e 83bb dbb9 fcbc 0bfa 2b3c
00000120: 219b b7bc f0aa ad3b 297f a03c 5642 e9bb
00000130: dd36 513b 3afb 30bc f512 473a 33ea c23c
00000140: 7e57 cb3c deff 93bb c682 413b 8663 343c
00000150: 85be 15bc 23ce ea3b 587a dfbb 51a2 cf3b
00000160: 6508 003c 5404 183b 602a 553c cdfb 40bc
00000170: 67e8 a1bc 25d5 a03b 77f9 383c 3da0 99bb
00000180: 260e cabb d722 f6bb 0c2f 913b 4302 513c
00000190: cfdf 103c 73af 44bc b26c 153c 2fd5 a7ba
000001a0: e239 fabc 9f96 b6bb 2743 07bc ab7e fbb7
000001b0: 11a6 e23b 8999 b93c 9174 b5bb 0c4d 1abc
000001c0: 6785 b13b 1e24 b2bb ed88 943c 2973 05bc
000001d0: cc4a e3bb c185 f23b 19f5 ec3b 342c 9ebb
000001e0: 2779 f2ba 85a7 393c 1985 67bc ab8d b2bc
000001f0: 6161 8cba 66ec 473c ebd0 453c a7f5 8cbc
0.012177839 -0.00531364 -0.009725292 -0.0040764017 -0.02548918 0.013024258 -0.0009192108 0.0048145764
-0.014745198 0.009794826 -0.027570836 0.0019576603 -2.5285095e-05 0.018495928 -0.02040415 -0.020365044
-0.016294932 0.009091592 0.0019180566 -0.013873625 -0.019169366 0.015990555 0.00355115 0.0016714215
-0.033372898 -0.029423833 -0.02366358 -0.0027290448 -0.00027555512 0.00015454806 -0.030495048 -0.018961808
-0.0025262267 0.0090330215 0.008880043 -0.036360648 -0.0006925678 -0.011002603 -0.003610897 0.0057021114
-0.0022009264 -0.010536717 -0.0065597272 -0.00423295 0.005891083 -0.0041824086 -0.009539384 -0.023878846
0.0014390699 -0.00809584 -0.030223366 0.008975635 -0.017898338 0.024330653 0.004258507 -0.0038332727
0.011791233 0.0042385575 0.0040283618 0.014604748 0.006320763 5.2775125e-05 -0.0028767195 -0.0033477654
-0.00401408 -0.010151481 0.0225323 -0.009047841 -0.0048177317 -0.004014767 -0.030850342 0.010496627
-0.022412838 0.0052999184 0.019591885 -0.0071185036 0.003192357 -0.010802085 0.00075940724 0.023793316
0.024821993 -0.0045165857 0.002952741 0.011010056 -0.009139662 0.0071656867 -0.0068200044 0.0063364883
0.007814501 0.002319594 0.013010591 -0.011778784 -0.019764138 0.0049082213 0.011289946 -0.0046882913
-0.0061662374 -0.0075114775 0.0044306573 0.012756887 0.008842423 -0.012004721 0.009120153 -0.0012804623
-0.030545179 -0.0055721547 -0.008255756 -2.9980516e-05 0.0069167693 0.02265622 -0.0055375774 -0.0094177835
0.005417514 -0.0054364344 0.018131698 -0.008145132 -0.0069364067 0.0074011986 0.0072313664 -0.0048270468
-0.0018499241 0.011331444 -0.014130854 -0.021796068 -0.0010710174 0.012202358 0.012073736 -0.01720698

sa1.mlp_bns.2.running_mean f4 [128]
00000000: 4d37 a53e 3625 903e 640b a1bd f9a0 babd
00000010: 89b2 873d 6e08 b8be c8b8 bdbe cbf0 973e
00000020: facd 503d d234 a6bd 75f5 c03d 9516 a4be
00000030: 1497 733e 9dc2 b1be 2638 3dbe 92d1 0abd
00000040: f6a0 d4bc 15dd dc3d c83a 65be 71be e3bd
00000050: cbae 173e 4f9d 153d 3620 8a3a c739 bcbe
00000060: 5e4c 963e 28fc 1bbe 7d7d c23e a07d 08be
00000070: 419f 3dbe b3c2 d8be f7a3 34be 8548 03be
00000080: e008 26be c652 e8bd d36a 16be d2e8 af3e
00000090: 39fc 8ebe df11 abbe d56b 99be 398c 62be
000000a0: 82bd 76be 3c4e bb3e 0b46 ddbc 3d39 1abe
000000b0: 9f45 9cbe 3860 983c 945a 7ebe e4bd 83bd
000000c0: 243d ee3c c716 12be ad50 b23e 0fee bfbd
000000d0: 2714 083b e066 bb3e 0f8c 163e d51d dabd
000000e0: 38bc c33d 847f eebd 654e f93e ff3b 22be
000000f0: df07 8ebe 1916 d93c fb8a 0a3e 7455 30be
00000100: bc13 c63c 18a0 a1be b588 5c3e d1b3 0b3e
00000110: 42b4 43bd 440a 6f3e 5b48 fcbe 03b3 523e
00000120: 1e38 9fbe 647a 3b3d 6cec 8e3d 8466 19bd
00000130: af26 253e 5f32 453d 66cd 8bbe 9e59 c7bd
00000140: d816 5bbd fb24 22bc b360 95be 7879 81be
00000150: b7e6 68be badc 1a3e 06ef b23e 387b 70bc
00000160: a100 dbbc c832 9dbe 0823 edbe ecfe 903e
00000170: 1fe5 1d3f 2d2d 9c3e d3f2 093e 45d5 bf3e
00000180: e32a 7fbe 8f83 13be 7730 843e 0eb5 1e3e
00000190: 5d82 97be 3109 7bbd 7c3b 3e3e 8063 8cbe
000001a0: 0d36 be3d 42fe 9d3e f19e 6b3d 0101 4dbe
000001b0: 1d88 c3be 49af d4be 4e0c bb3d 683b 80bd
000001c0: 182a 94be e7ee cbbc da6e c53d 2428 98bd
000001d0: afd1 893e a5d5 b53e 42b4 fdbd dc36 403e
000001e0: 58ac 9fbd 3c7d 5e3e f90f b0be 92aa 27be
000001f0: 2f71 86be 4732 473e a7c8 17bd 697a 613e
0.32268754 0.2815339 -0.07863501 -0.09112734 0.0662585 -0.3594393 -0.3705504 0.29675898
0.050977685 -0.081155434 0.09421817 -0.3204848 0.237881 -0.3471879 -0.1847845 -0.033891268
-0.025955658 0.107843556 -0.22385705 -0.11120308 0.14812772 0.036526974 0.0010538164 -0.3676283
0.2935514 -0.15232909 0.37986365 -0.13329172 -0.18517782 -0.42336044 -0.17640673 -0.12820633
-0.16214323 -0.11343913 -0.14689188 0.34357315 -0.27926806 -0.33412072 -0.29965082 -0.22123803
-0.24095729 0.36583126 -0.027010938 -0.15060897 -0.30521867 0.018600568 -0.2483924 -0.06432703
0.029081888 -0.14266501 0.34827176 -0.09371578 0.0020763965 0.36601925 0.14701866 -0.10650221
0.09557384 -0.116454154 0.48692623 -0.15843199 -0.2774038 0.026499795 0.1352958 -0.17220098
0.024179332 -0.31567454 0.21536525 0.13642813 -0.04777933 0.2334376 -0.49273953 0.205761
-0.31097502 0.045771018 0.06978688 -0.037451282 0.16128038 0.04814374 -0.27305144 -0.0973389
-0.053488582 -0.009896512 -0.29175338 -0.25287986 -0.2274426 0.15123263 0.34947985 -0.014677815
-0.026733698 -0.30702806 -0.4631579 0.2831949 0.61677736 0.30503216 0.13471536 0.374674
-0.24918704 -0.14405654 0.25818226 0.15498754 -0.29591647 -0.061288062 0.18577379 -0.27419662
0.09287653 0.30858046 0.057524625 -0.20019914 -0.38189784 -0.41539982 0.09133206 -0.06261331
-0.28938365 -0.024894191 0.09640284 -0.07429531 0.26917788 0.3551456 -0.12387897 0.18770927
-0.07796544 0.2172746 -0.34387186 -0.16373661 -0.26258227 0.19452773 -0.03705659 0.22019352

sa1.mlp_bns.2.running_var f4 [128]
00000000: 7f7e 003e 4f49 2f3d 0eef 083d 4e2d de3d
00000010: 2437 5c3e 208b 123f e6f6 9a3d 0237 153e
00000020: c977 333d 32f4 213e 9c9e 7b3e 6e8c b73d
00000030: dfa2 553d 6589 903d 7700 cd3d dda5 c83d
00000040: ed65 903d 2470 1b3e af70 d33d 573c 343e
00000050: 723d c43d e372 973d 68b1 413e 3935 1a3e
00000060: c775 2d3e 1a1d 813d 93d1 613e 195b c73d
00000070: b74b 253d 02e4 843e ab32 a73d 49e7 a23d
00000080: 78b7 393e 2e37 7b3e 4415 423e e6bc e23d
00000090: 1ce2 9b3d 6996 9c3d ae87 883e 24cc 293d
000000a0: a7df 903d 7d9e 263e 845b f33d de80 f93d
000000b0: df2f 8b3d 6276 513e 49cc a93d 90f2 f13d
000000c0: 9b07 fc3d bc56 c53d 7b38 093e 8d17 ee3d
000000d0: 226d 7e3d 421e 963d 6a91 ec3d bade 093e
000000e0: 6cc1 c03d ea36 fc3d dab0 063e e3ba 903e
000000f0: 612d 233e f858 e03d fe14 103e ed9a bd3d
00000100: cdf1 d23d 58fb d23d cbfb f03d db5e 293e
00000110: 220a 433d 33a8 6f3d 0106 973d 1035 353e
00000120: c3d6 e43d ca86 e03d 02e4 093e c98c 6f3d
00000130: 0a9c 163d 1c02 043e ac74 273e 346e 6f3d
00000140: 385d b13d d796 0a3e 3eff dd3d 79fe 0a3e
00000150: 87ba 093e 70a9 b33d 2ff6 bc3d b450 8d3d
00000160: 514f b23d cbc8 a03d 2bd2 5b3e 5d32 263e
00000170: 327b 053e 76d4 893e 65fd ad3e d2bc 2f3e
00000180: 360a 263d f5f5 373d 02f7 103e 25cb 363e
00000190: d4bd c73d 9b02 1d3e a95c a83d 7373 5e3e
000001a0: 5dc0 5c3e e400 da3d 3aac dc3d 9bc6 033e
000001b0: e30c 513d 7245 093e 3bc2 e73d 8d59 233d
000001c0: 3f2e 843d e6d2 8c3e 8604 5d3e 4c54 393e
000001d0: c136 563d 6010 163e 65bd d73d 2f78 913d
000001e0: 2c43 413e 31ae ab3d fd15 463e 0a24 573d
000001f0: e88e 873e b50b 413d 11ce 8b3d c6b4 d33c
0.12548254 0.042794522 0.033431105 0.10848485 0.2150541 0.5724354 0.075666234 0.14571765
0.043815408 0.1581581 0.24572223 0.08962332 0.05215728 0.07057456 0.10009854 0.09797261
0.07050691 0.15179497 0.10324227 0.17601143 0.09582032 0.0739496 0.18915331 0.15059365
0.1693946 0.06304379 0.22052602 0.097341724 0.04035541 0.25955206 0.08163961 0.079542704
0.18136394 0.24532768 0.18953425 0.11071186 0.07611486 0.07645876 0.26666015 0.04145445
0.07073908 0.16271396 0.118826896 0.121827826 0.0679624 0.20455316 0.082909174 0.11813843
0.12306138 0.09635684 0.13400452 0.11625586 0.062115796 0.0732999 0.11551173 0.1346387
0.09411892 0.123151615 0.13153401 0.28267583 0.1593528 0.109544694 0.14070508 0.092580654
0.10300026 0.10301846 0.11766776 0.1654009 0.047617085 0.058510017 0.07374192 0.17696023
0.11173775 0.10963209 0.13465884 0.058483873 0.036769904 0.1289143 0.163531 0.058454707
0.08660358 0.13534103 0.10839699 0.13573636 0.13450061 0.08772552 0.09226643 0.069001585
0.08706535 0.07850798 0.21466891 0.1623015 0.13035277 0.26919907 0.33982387 0.17161873
0.04053708 0.044912297 0.14156726 0.17850931 0.09753004 0.15333025 0.082207985 0.21723728
0.21557756 0.10644701 0.10775037 0.1286873 0.05103768 0.13405398 0.113163434 0.039880324
0.06454133 0.27504653 0.21583757 0.18098563 0.05229831 0.14654684 0.10534171 0.07103001
0.1887328 0.08382834 0.19344325 0.052524604 0.26476216 0.047130305 0.068264134 0.025843035
