src/pipelineC/checkpoints/dgcnn_seg_best.pth (torch, 692138 bytes, 59 tensors)

bn1.weight f4 [64]
00000000: 7821 803f fe6d 7a3f de8f 7f3f 7658 803f
00000010: afc0 713f a8fa 7a3f 91f0 803f 0074 7e3f
00000020: df1b 783f e181 7b3f 176f 753f 1535 803f
00000030: fa55 803f 63ad 763f 5f0a 803f 4790 7e3f
00000040: d0d6 823f fb96 7b3f c939 813f e616 823f
00000050: 4aed 803f 9749 763f 1493 7c3f 1786 813f
00000060: 560f 7f3f 386f 793f 62cd 7e3f dd7b 763f
00000070: e0c9 7c3f c882 743f c927 813f bb7a 733f
00000080: de2b 803f d24f 853f 75e8 7b3f 89ae 833f
00000090: 02ff 773f de2a 7e3f e8d7 7c3f 5fdd 7a3f
000000a0: d297 7b3f 9f34 753f bb72 803f bd85 7e3f
000000b0: c2f5 773f 3c6b 783f 2acd 793f 6dfb 793f
000000c0: 3622 7f3f 02e3 793f 6393 7c3f a0db 813f
000000d0: 48cf 823f eeae 7d3f cd17 793f 4f13 793f
000000e0: c051 773f 88d2 7f3f ccfb 7b3f a90c 7f3f
000000f0: c77d 813f a6f7 783f 3f03 803f 24dc 823f
1.0010214 0.97824085 0.998289 1.0026996 0.94434637 0.9803872 1.0073415 0.9939575
0.9691753 0.98245054 0.95872635 1.0016199 1.0026238 0.9635832 1.0003165 0.994389
1.0221806 0.9827725 1.009576 1.0163238 1.0072415 0.9620604 0.98661923 1.0119046
0.99632776 0.9743533 0.9953214 0.9628275 0.98745537 0.95512056 1.0090266 0.95109147
1.0013387 1.0414984 0.98401576 1.0287639 0.96873486 0.9928416 0.98766947 0.97994035
0.98278534 0.9578342 1.0035013 0.9942282 0.9685937 0.97038627 0.9757868 0.9764927
0.99661577 0.9761201 0.98662394 1.0145149 1.0219507 0.99095047 0.9730194 0.9729509
0.96609116 0.9993062 0.98431087 0.9962869 1.0116509 0.9725288 1.0000991 1.0223432

bn1.bias f4 [64]
00000000: a3e1 5dbc 1bf8 9a3d d783 26bd 5c44 cebc
00000010: 3ad7 0f3d 62be 9dbd e04a 93bc dc70 0d3c
00000020: 8deb 43bc 4c49 3fbd 1ba5 f3bb 85b3 bc3c
00000030: 308f 023d ff6a 95bc 7ea3 30bd ec4e ed3a
00000040: 6e6b 9cbd 4a65 a6bc 04cd d6bc e494 8fbb
00000050: 3798 be3c 5c60 29bd fb2c 4bbc e448 c43c
00000060: ba79 ba3c 3572 613c fb5a 233d f425 523c
00000070: cdf7 e63b d435 ac3c 2433 843b 8603 51bd
00000080: 30f7 fabc b1d6 97bc 70f2 65bd d21d 803c
00000090: 58a4 2d3d 9330 d53a 930e 81bc d086 28bd
000000a0: 855e 213d 1e97 d73b 052c 273c b5b4 923d
000000b0: c60b 993b 48b0 f73c 9956 02bd 7ee5 8dbb
000000c0: 823e 26bc b452 2c3c 3847 36bd 3787 b7ba
000000d0: 0866 153d c0b2 c5bc c56b 993b 64b1 7c3b
000000e0: 06d2 813d c1b0 91bb 392e 093b e30d 243c
000000f0: 9e2c e9bb 4b56 31bc 3f94 5d3d 1dc5 35bc
-0.0135425655 0.075668536 -0.040653076 -0.02517908 0.035117365 -0.07702328 -0.01798004 0.008632865
-0.011958015 -0.04670076 -0.0074354536 0.02303482 0.031874835 -0.018239496 -0.04312467 0.0018105186
-0.07637678 -0.02031197 -0.026220806 -0.004381763 0.023265941 -0.04135166 -0.012400861 0.023960538
0.022763122 0.013760139 0.039881688 0.012826432 0.007048583 0.021021761 0.0040344168 -0.05102875
-0.030635446 -0.01853499 -0.05613941 0.01563922 0.04239306 0.0016265087 -0.01575402 -0.041144192
0.03939678 0.006579294 0.010203366 0.071633734 0.004670593 0.030235425 -0.031820867 -0.004330336
-0.010146739 0.010517765 -0.044501513 -0.0014002089 0.036474258 -0.024133086 0.0046820366 0.0038557881
0.06338887 -0.0044461195 0.0020932092 0.0100130765 -0.0071159145 -0.0108237965 0.054096457 -0.011094359

bn1.running_mean f4 [64]
00000000: 8696 9bc5 2be5 1343 4cf6 66c5 ce41 51c4
00000010: 59a0 3045 032f aec5 ef8f 84c5 f19c 79c5
00000020: 3727 82c2 50ae d5c5 a474 a945 dc52 6b42
00000030: 8454 c6c4 4f13 8145 c64a 81c5 7863 3d45
00000040: 4504 a9c5 8ff3 d4c4 870a a9c4 f347 2dc5
00000050: 943a bac4 47ea adc5 b218 d745 6ac0 02c5
00000060: a9d5 b643 e702 9845 002c 5945 555c 1745
00000070: 822e 04c5 4237 c643 3d24 c8c4 6441 d545
00000080: b71e 48c5 00e5 acc4 42cc e8c5 c3a0 c8c5
00000090: da50 5445 7828 7ec4 8c9d dd45 d60e 54c4
000000a0: 4300 2045 fe27 5444 c273 29c5 a4dc a0c4
000000b0: 3f06 c645 531d 3145 59be a8c5 a0f4 c345
000000c0: 2c30 11c5 7ec7 3745 ad90 c3c5 c4ad 58c4
000000d0: fcdf 9bc4 8d26 f1c5 ad1e ea45 983a 8ec5
000000e0: 7ac0 bd44 2c3d 91c5 69c4 f245 e015 edc4
000000f0: fdfc 4cc5 aa4b b545 2a79 c9c4 d3ad f0c4
-4978.8154 147.89519 -3695.3936 -837.0282 2826.0217 -5573.8765 -4241.9917 -3993.8088
-65.07659 -6837.789 5422.58 58.830917 -1586.6411 4130.4136 -4137.3467 3030.2168
-5408.5337 -1703.6112 -1352.329 -2772.4968 -1489.8306 -5565.2847 6883.087 -2092.026
365.66922 4864.363 3474.75 2421.7708 -2114.9067 396.4317 -1601.1324 6824.174
-3201.9197 -1383.1562 -7449.532 -6420.095 3397.0532 -1016.6323 7091.6934 -848.2318
2560.0164 848.6249 -2711.2349 -1286.895 6336.781 2833.8328 -5399.7935 6270.578
-2323.0107 2940.4683 -6258.0845 -866.7151 -1246.9995 -7716.819 7491.8345 -4551.324
1518.0149 -4647.6465 7768.5513 -1896.6836 -3279.8118 5801.458 -1611.7864 -1925.432

bn1.running_var f4 [64]
00000000: fd63 054b 6c84 e348 bddd fd4a d716 524a
00000010: 066e 034b 70de 2b4b 6aef 214b 2ed9 dd4a
00000020: f6ba 4f4a 441f 7a4b 8c1b 324b 18b8 304b
00000030: c035 984a 46e7 f54a 332f 1c4b e333 544a
00000040: 83f5 284b 323c ad49 28be ee4a c595 a24a
00000050: 099b 894a 742e 074b 0b47 6d4b 2db4 2c4a
00000060: 4623 094b 7a9d f54a 3e15 324b 46c4 fe49
00000070: a2e6 814a 96ef 994a 07d1 214a 9b26 994b
00000080: 947b 054b 949f a54a 0443 a44b 4e4e 8c4b
00000090: e23c f44a 07c9 164a 4650 9d4b 7253 b04a
000000a0: 90da 954a e25d ce4a 6627 a94a e515 414a
000000b0: b4aa 894b 3dc0 074b 5df8 794b 2ef2 5f4b
000000c0: 6ab2 f849 7a79 c74a 3579 5b4b d679 524a
000000d0: 1d87 9749 577c 894b 3961 964b f119 3b4b
000000e0: 3057 4b4a 770d 2e4b 0ab3 7e4b 51f7 354a
000000f0: 7965 5a4a 569c 4e4b f44e ab4a 0fd1 954a
8.741885e+06 465955.38 8.3186865e+06 3.4421018e+06 8.613382e+06 1.12636e+07 1.0612586e+07 7.269527e+06
3.4034535e+06 1.6392004e+07 1.167246e+07 1.1581464e+07 4.987616e+06 8.057763e+06 1.0235699e+07 3.4767288e+06
1.1072899e+07 1.4191422e+06 7.823124e+06 5.3275865e+06 4.5090605e+06 8.859252e+06 1.5550219e+07 2.8295792e+06
8.987462e+06 8.048317e+06 1.1670846e+07 2.0870488e+06 4.256593e+06 5.044171e+06 2.6512018e+06 2.0073782e+07
8.747924e+06 5.427146e+06 2.153012e+07 1.8390172e+07 8.003185e+06 2.4704658e+06 2.0619404e+07 5.777849e+06
4.910408e+06 6.762225e+06 5.542835e+06 3.1635132e+06 1.8044264e+07 8.896573e+06 1.6382045e+07 1.4676526e+07
2.0373252e+06 6.536381e+06 1.4383413e+07 3.4484375e+06 1.2413156e+06 1.8020526e+07 1.9710578e+07 1.2261873e+07
3.331532e+06 1.1406711e+07 1.6691978e+07 2.9813322e+06 3.5782062e+06 1.3540438e+07 5.613434e+06 4.9091915e+06

bn2.weight f4 [64]
00000000: 3636 763f d866 803f 2afd 7f3f 98c5 7a3f
00000010: a3cd 753f 797b 793f 8ea3 813f 1291 6d3f
00000020: 9f6f 7e3f 4f75 7f3f bd62 7e3f d32c 7f3f
00000030: e811 803f c5f6 7a3f 1ae1 733f efd5 763f
00000040: c843 773f 8e50 7e3f f362 7d3f f952 7c3f
00000050: fcea 6e3f 456a 773f 44fe 743f 9787 7d3f
00000060: d619 753f 071f 803f 6b56 6d3f 8bb1 803f
00000070: 443f 783f 15a5 793f 0ad9 773f 19b1 783f
00000080: b1bc 743f c99e 793f 12b0 7a3f ea4e 713f
00000090: 913d 823f eac6 763f 8d8f 763f 1a17 783f
000000a0: 8515 7d3f 49b3 7c3f ad79 703f 071d 7b3f
000000b0: 0361 7d3f 0a9a 793f f2fa 7a3f 78f6 7a3f
000000c0: 5239 7e3f 3b2c 743f 687d 743f 50b2 7d3f
000000d0: 2bf5 823f 7052 7b3f 4c14 7f3f 6f8f 713f
000000e0: 6d77 783f 1e61 783f 0cb3 813f 6e4a 7d3f
000000f0: c8ea 783f 8e00 793f d5ee 833f fde4 763f
0.9617647 1.0031385 0.9999567 0.97957754 0.960169 0.9745403 1.0128038 0.92799485
0.9938907 0.99788374 0.9936941 0.9967777 1.0005465 0.9803279 0.9526535 0.96420187
0.965878 0.99341667 0.9897911 0.98564106 0.9332731 0.9664653 0.9570048 0.9903502
0.9574255 1.0009469 0.9270999 1.0054182 0.96971536 0.9751752 0.9681555 0.9714523
0.9560042 0.9750791 0.9792491 0.9426104 1.0175039 0.9639727 0.9631279 0.9691025
0.9886096 0.9871107 0.9393566 0.9809117 0.98976153 0.9750067 0.9803916 0.9803233
0.99306214 0.9537999 0.95503855 0.9910021 1.0231069 0.98172665 0.99640346 0.9435949
0.9705723 0.9702319 1.0132766 0.98941696 0.9723325 0.9726647 1.0307261 0.9644316

bn2.bias f4 [64]
00000000: 849b 1d3d 38a6 b7bc b9c5 8fbc ec83 863c
00000010: e75a 7bbc 0207 42bc 2cca 93bc 0bbf 20bd
00000020: a280 cdbc 79fd 623d f2d9 233b 016e 59bc
00000030: a1b5 063b 9690 01bd 594e b1bc 9436 093d
00000040: b2af b739 b5c5 cebd 46c2 2bbb b0b1 7d3c
00000050: c85d 5dbb 9f99 4d3b 3b81 213d 19f5 58bc
00000060: 662c d3bc 8842 353d 2858 33bd 26ba 84bc
00000070: 5744 89bd a53d 543b 1cee 06bd fde6 66bc
00000080: a9ed 4fbd 8de0 6fbd 426a 0e3d f6cb ffbc
00000090: 5d6d b7bb 0695 c8bc ec3a c63c 221e de3b
000000a0: 4e98 b33b 989c 1abd eb87 91bc 1a21 e8bc
000000b0: 5302 febb 962f 8dbb 3b77 2fbd c0d8 03bc
000000c0: 1dba 95bb 9e40 23bd 3c3d 9e3c 4d2f 8fbc
000000d0: 39e2 b23c 74b0 61bc 13bd 193b 5f3f 03bd
000000e0: 10ab 133b a385 80bd 64a3 3ebd 09d7 313d
000000f0: 20d5 d13b fe6d 5dbd 95ea a9bc 7ca6 bdbc
0.03847839 -0.022418126 -0.017550336 0.016420327 -0.015341497 -0.011842491 -0.018040739 -0.039244693
-0.025085751 0.05541751 0.0025001732 -0.013270856 0.0020555037 -0.03163203 -0.021643804 0.033499315
0.00035035383 -0.100963034 -0.0026208325 0.0154842585 -0.0033777822 0.0031372083 0.039429884 -0.01324203
-0.025778007 0.044252902 -0.043785244 -0.016202044 -0.06702488 0.0032385376 -0.032941923 -0.014093158
-0.05076376 -0.058563758 0.034769304 -0.031225186 -0.005597754 -0.024485122 0.024198018 0.0067784945
0.0054808026 -0.037746996 -0.017765006 -0.028336097 -0.007751742 -0.004308651 -0.042838316 -0.008047283
-0.0045693056 -0.039856546 0.019316308 -0.01747861 0.021836387 -0.01377498 0.0023458644 -0.032042857
0.002253238 -0.06275489 -0.04654254 0.043417964 0.0064035803 -0.054059975 -0.02074174 -0.023150675

bn2.running_mean f4 [64]
00000000: 1f73 36be 8ea3 bf3d 0cd3 9d3d 84c8 31be
00000010: adc1 f1bc a21a 563e 8a1a 803e 0749 e93d
00000020: 65b5 4b3e 64c1 05bf 4e58 c63e eab7 043f
00000030: 0baf ebbc a2de 023e cd2e 393f 72d6 eabe
00000040: 31ae 1c3f 93cb d83e 348b 35be c522 23be
00000050: 4102 e73e 4df8 47be 2d1a 4bbe e429 583e
00000060: f0ba d0bc 7b3a 25be 2af3 0b3d 1ec6 413e
00000070: 5099 a03e 30a2 4cbb 928b a4be 7fe3 693e
00000080: 6b84 0a3f b85e 0f3f 791d 93be 12cb 2abe
00000090: d440 20be 8b4f 1fbf 7813 22bd 4b05 283e
000000a0: c1cc 903c 9fad c13e 383d 7ebe 9c16 443e
000000b0: bb9f 9b3e 536b 6fbd 09a1 843e 09b0 223e
000000c0: b5b4 bf3d f405 0e3e a2b8 9fbe cf56 043d
000000d0: e020 933d 649a 1c3e 7852 d6be 4e32 ad3e
000000e0: d662 003d 30f9 a33e 4f11 223e 6c41 1fbf
000000f0: ea6f adbe 3c8b 5d3d 2cc6 fcbe daac 48bc
-0.17817353 0.093573675 0.077062696 -0.17361647 -0.029511297 0.20908597 0.25020248 0.11390882
0.19893415 -0.52248216 0.38739246 0.5184313 -0.02876999 0.1278024 0.7233704 -0.45866734
0.61203295 0.42342815 -0.17728883 -0.15931232 0.45118907 -0.19528313 -0.19834204 0.2110973
-0.025479764 -0.1613559 0.034167446 0.18923232 0.31366968 -0.00312246 -0.32137734 0.22840689
0.54108304 0.56003904 -0.28733423 -0.16679028 -0.1564973 -0.6223075 -0.039569348 0.16408269
0.01767576 0.37827775 -0.2482804 0.1914925 0.30395302 -0.05845196 0.2590411 0.15887465
0.09360639 0.13869458 -0.3119555 0.03230935 0.07184005 0.1529327 -0.41859794 0.33827442
0.031344257 0.32026052 0.15826915 -0.622092 -0.33874446 0.054087862 -0.49369943 -0.012248242

bn2.running_var f4 [64]
00000000: 830f de3d 220f de3d 102c a43d 7c77 de3d
00000010: 4e7c 343e cbaa 2b3e 2100 b13d c40d bf3e
00000020: c68d 6e3d f570 b93d b625 893d 03d7 b63d
00000030: d4d4 853d 4965 5a3d aa98 f63d 4721 0b3e
00000040: 52eb 293e f5f1 983d 07c1 ce3d 84a4 0c3e
00000050: 6940 0e3e 9c04 4f3e a2a0 bf3d 8822 a93d
00000060: 88e4 973d 3a3e 3c3d 7253 6c3e a093 a83d
00000070: 29ba 943d 1c30 223e acd5 2c3e b32d d43e
00000080: 4354 ea3d 0a3b 073e 4d63 823e 5fcb 833e
00000090: b4b7 a73d 83f4 483e c489 8e3e 8894 ff3d
000000a0: 8f84 4e3e 3ea3 0c3e d8b4 583e 580d 8b3d
000000b0: 2be7 363d dda2 353e 9faa 713d 0f10 ca3d
000000c0: 661e 8e3d c311 0f3e 698d c73d f640 e43d
000000d0: d4d2 103d 9f57 473e 04c6 733e d11b 3b3e
000000e0: 442d ac3d 2f37 5d3d d41e 493d d42e 233e
000000f0: 2d91 213e 875c 213e be03 d83d be01 7d3e
0.108428024 0.1084273 0.08016217 0.108626336 0.17625543 0.16764371 0.08642603 0.3731519
0.058240674 0.09054748 0.06696646 0.08927729 0.06534734 0.05331925 0.12040837 0.13586913
0.16593674 0.07468025 0.10095411 0.13734633 0.13891758 0.20216602 0.0935681 0.082585394
0.07416636 0.04595778 0.23078707 0.08231282 0.0726207 0.15838665 0.16878384 0.41441116
0.11441853 0.13206115 0.25466385 0.25741097 0.081893355 0.19624524 0.27839482 0.12479502
0.20167755 0.13734147 0.21162736 0.067896545 0.044654053 0.17737909 0.059000608 0.09866344
0.06939392 0.1397162 0.09743769 0.11145203 0.03535731 0.19467019 0.23806006 0.1827233
0.08407071 0.054007705 0.049101666 0.15935832 0.15778036 0.15757953 0.10547589 0.24707696

bn3.weight f4 [64]
00000000: edaa 703f 9f41 7d3f b2af 7d3f 05ac 6e3f
00000010: 3cb5 723f 25dd 7b3f 8857 713f 838a 7a3f
00000020: 99a6 733f 6bcd 803f b752 803f 3e09 7f3f
00000030: 36ce 633f 9408 813f 1ec8 713f 0dcb 763f
00000040: 41bd 763f f60a 803f 0f6b 7b3f 372c 743f
00000050: 3f1e 793f 8ff3 7f3f 2008 803f 4747 7c3f
00000060: c8dc 743f 8e92 7a3f b8e4 743f b4b5 843f
00000070: a95c 7e3f 730f 703f 6f7b 7c3f 8a1c 793f
00000080: 6e29 843f 3469 763f 63db 793f 3ff9 7a3f
00000090: 29b2 783f f7bb 723f 7fa2 773f 498e 7a3f
000000a0: 505e 793f 3dce 813f 6bdb 6f3f f320 703f
000000b0: 6354 783f fdf8 823f 84e9 6f3f cb71 863f
000000c0: 9eb9 773f a9e7 693f c5a3 7c3f bf0f 773f
000000d0: 17c1 7b3f f812 803f 453c 6e3f 938c 7e3f
000000e0: f5d6 753f 4aca 723f 0d51 7b3f d146 7d3f
000000f0: f8d5 743f e405 7b3f 50d2 763f 2bda 783f
0.9401081 0.98928255 0.99096215 0.9323123 0.9480779 0.98384315 0.9427419 0.978676
0.9517608 1.0062689 1.0025243 0.9962348 0.8898653 1.0080743 0.9444598 0.9640358
0.9638253 1.0003345 0.98210233 0.95379966 0.97311777 0.99981016 1.000248 0.9854626
0.95649385 0.97879875 0.956615 1.0367951 0.9936014 0.93773574 0.98625845 0.9730917
1.0325143 0.9625428 0.9760038 0.9803657 0.9714685 0.9481806 0.96732324 0.9787336
0.97409534 1.0141064 0.9369418 0.93800277 0.97003764 1.0232235 0.9371569 1.0503477
0.96767604 0.9136911 0.9868739 0.965084 0.98341507 1.0005789 0.93060714 0.9943325
0.96031123 0.9483992 0.9817055 0.9893618 0.9563899 0.98055863 0.9641466 0.972079

bn3.bias f4 [64]
00000000: c3e9 b5bc 3d56 cabc e477 f9bc 16c4 c3bc
00000010: 340f 1bbd ca6e 08bd 06e0 21bc 733e 88bd
00000020: 4ac4 37bb 2a33 003c c17b 5b3d a868 b93c
00000030: 91b6 35bd 73fa f53c 24ff 1339 b802 e73b
00000040: 9ddb 1cbd 6e3e e83c a657 633c c661 81bc
00000050: f6d2 10bd 2e0a 1d3d 73f8 b13c 9b5f b03a
00000060: 0bd2 b839 45c8 70bd 33ed b7bc 4281 1f3d
00000070: 83b5 a7bc 4a77 4b3b 5fba d5bc 0279 11b9
00000080: 4d2d b6bc 1dcf 83bc e724 46bd 09f6 dfbc
00000090: c9f0 99bc a7d2 d5bc 40b9 bfbc dd1d a63a
000000a0: 1122 f13c 7daf d0bc 30f3 933c 5659 08bd
000000b0: ba76 c8bc 5d4b fbbc e385 1dbd 8292 2e3c
000000c0: dc5d ce3c 6260 223c fae0 8dbc 2a12 7dbc
000000d0: 0555 a5bc 42c4 27bd d422 27bd 57a7 af3d
000000e0: 7964 9a3c 50ed 01bd acfb febc 399d 8f3c
000000f0: 5929 aabc 507d f9bc 8c78 8abc c2fe 37bd
-0.022206193 -0.024699325 -0.030452676 -0.023897212 -0.037856296 -0.03330878 -0.0098800715 -0.06652536
-0.0028040581 0.007824698 0.053584818 0.022632912 -0.044363562 0.03002665 0.0001411406 0.0070498846
-0.038295377 0.028350081 0.0138758775 -0.015793692 -0.035357438 0.038339786 0.021724915 0.0013456227
0.0003525171 -0.058784742 -0.022451973 0.03894163 -0.020472294 0.0031046444 -0.026089845 -0.00013873357
-0.022238398 -0.01608997 -0.048375037 -0.027338998 -0.018791573 -0.026101423 -0.023403764 0.0012673695
0.02943519 -0.025474304 0.018060297 -0.033288322 -0.024470676 -0.030675584 -0.038457762 0.010655047
0.02519124 0.009910675 -0.017319191 -0.015446225 -0.020182142 -0.04095865 -0.0408047 0.085768394
0.018846737 -0.03172046 -0.031125866 0.017531024 -0.02077167 -0.030455261 -0.016903184 -0.04492069

bn3.running_mean f4 [64]
00000000: 9df0 e8be 1463 9a3e caf4 b33e 1a4b df3e
00000010: 6b34 d9be c151 81be 8f8d b53e 83da ce3e
00000020: e31c 803e 5311 9b3d d547 0bbc 86b4 5cbe
00000030: 0357 99be 4c59 223f 41dc 76be 09ac 3dbf
00000040: 2735 973e 6877 393e ec56 e83e 00ab e5be
00000050: 1f50 a83e c505 20be cb4e 3dbe b676 be3d
00000060: 7de6 0a3f bcec 2e3e f5f3 ba3e f442 25bf
00000070: 2ce5 44be 1be6 b8be 22ec c53e fb6d dcbe
00000080: 361e 123e df4e 783d b5f1 9f3e e00f ce3e
00000090: 0a92 993e 0c6b 0a3f 9736 58be 0b5c 32be
000000a0: 3528 a73d c7e9 bd3d 7888 33bf ef70 6dbe
000000b0: 7456 adbe fb3b 60bf f635 b7bd 6970 bbbe
000000c0: 9075 98be c423 1c3f 8635 f6bc 9ba8 14bf
000000d0: a181 c73e 9697 d13e 99cc 99bd 3c18 12be
000000e0: 7426 24be 37a2 af3d 4110 f63d 04b9 783d
000000f0: 3142 f4bd a73a 05be c5d1 d33e 012c 2bbe
-0.45496073 0.30153716 0.35147697 0.43611985 -0.42422804 -0.25257686 0.35459563 0.40401086
0.2502204 0.07571664 -0.008501013 -0.21553239 -0.29949197 0.63417506 -0.24107458 -0.7409063
0.2953274 0.18111956 0.45378816 -0.44857025 0.32873628 -0.15627201 -0.18487088 0.09299986
0.5425795 0.17082494 0.3651425 -0.6455529 -0.19228047 -0.36113057 0.38656718 -0.43052658
0.14269337 0.060622092 0.31239095 0.40246487 0.2999423 0.5406959 -0.21114574 -0.17417924
0.08161966 0.09273105 -0.7013011 -0.23187612 -0.3385502 -0.8759152 -0.08945839 -0.366092
-0.29777193 0.60992074 -0.030054819 -0.5806977 0.38966087 0.40935963 -0.07509727 -0.14267057
-0.16030294 0.08575862 0.12014819 0.06072332 -0.119266875 -0.13010655 0.4137098 -0.16716005

bn3.running_var f4 [64]
00000000: 4e7b 643e fb16 183e 41e4 373e c2ab 153e
00000010: 8ae8 343e e866 563e 697f b43e 61ef 583e
00000020: d2d6 2c3e 7f9f 573e 2ac1 123e 8db2 253e
00000030: 5d2e 123f 3cef 803e 055f fe3d 1157 8c3e
00000040: 17e3 9e3e 11b5 dd3d 6e41 423e d83b 1e3e
00000050: 1065 f63d 4f1c 073e 35cd 233e 49d5 2d3e
00000060: 74bd ac3e 69a7 253e a272 403e 98f7 cf3e
00000070: 596d 653e 49c9 953e c9d7 8f3e 53ae 4d3e
00000080: efd4 1e3e e13b 223e 09a6 433e 210c 7e3e
00000090: 4de9 183e 809f a73e bcae 333e 98f7 0f3e
000000a0: 8033 023e 050f 443e 68ae 243f e00a 8c3e
000000b0: 9a49 353e bc3a 8c3e 8b24 573e a73b 333e
000000c0: bddc 163e 5548 b73e a76f 2e3e 99e8 0a3f
000000d0: 11d7 943e 1269 e93e 5d79 273e 73b7 d53d
000000e0: 97c0 253e 6f88 bb3d 9101 f13d aa69 713e
000000f0: 0670 723e 8b2e 3f3e 1777 6c3e 4716 1f3e
0.22312662 0.14852516 0.17958166 0.14616302 0.17666832 0.20937693 0.35253456 0.21185066
0.16878822 0.21056937 0.14331499 0.16181393 0.57101995 0.2518252 0.12420467 0.27410176
0.3103263 0.10825551 0.18970272 0.15452516 0.12030995 0.13194393 0.15996249 0.16975893
0.3373829 0.16177143 0.18793729 0.40618587 0.22404994 0.2925513 0.28094319 0.2008603
0.15510915 0.15843154 0.19106306 0.24809314 0.14932747 0.32738876 0.17547125 0.14059293
0.12714958 0.19146354 0.6432862 0.27352047 0.17703858 0.2738856 0.21010034 0.17503224
0.14732642 0.35797372 0.1703478 0.54261166 0.29070333 0.45587975 0.1635489 0.10435381
0.16186748 0.09156882 0.11767877 0.23575464 0.23675546 0.18670098 0.23092304 0.15535842

bn4.weight f4 [64]
00000000: 08fc 813f 8cd2 7c3f afb6 7e3f 093d 6b3f
00000010: 71e5 673f 8689 7c3f ae0c 7b3f ffb9 733f
00000020: b1ac 7f3f 06b6 813f 61a0 683f 0ce6 7d3f
00000030: 81c5 843f c616 703f 26ad 653f 2129 7c3f
00000040: ff94 863f c53e 7d3f 7c39 723f d024 783f
00000050: 1b92 743f 7fcd 813f 12d0 713f f02e 7e3f
00000060: 0135 7a3f 5237 7d3f 2aac 7e3f f5a4 753f
00000070: 4c83 7c3f 378a 793f d159 833f 8ff6 853f
00000080: c189 6c3f 195b 673f 5233 6e3f 43aa 703f
00000090: 73f1 763f d64a 7b3f 8fba 513f ed46 7d3f
000000a0: 724c 673f 7e7d 783f 35c3 573f 3f17 743f
000000b0: 0fd7 7c3f 4e5a 633f b39c 733f 98eb 7f3f
000000c0: d0fb 7b3f c65c 6d3f ad87 763f 0529 813f
000000d0: ab87 7e3f 8f11 813f 4893 803f 9ec3 7d3f
000000e0: b83e 813f a4e1 7c3f 00cd 6c3f ed5b 723f
000000f0: bc2d 7e3f cd19 863f 0dbf 703f 2ab2 7e3f
1.0155039 0.9875877 0.99497503 0.9189001 0.90584475 0.98647344 0.9806622 0.9520568
0.9987288 1.0133674 0.9086972 0.9917915 1.0372773 0.9378475 0.8971733 0.9850026
1.051422 0.98923904 0.94618964 0.9693117 0.9553544 1.0140837 0.94458115 0.9929037
0.9773713 0.9891254 0.9948145 0.9595483 0.98637843 0.97476524 1.0261785 1.0465869
0.92397696 0.9037338 0.9304706 0.940098 0.9646217 0.98161066 0.8192529 0.9893635
0.9035102 0.97066486 0.8428224 0.9534797 0.98765653 0.8880967 0.9516098 0.9996886
0.9843111 0.92719686 0.96300775 1.0090643 0.9942576 1.0083483 1.0044947 0.99126613
1.0097265 0.987818 0.92500305 0.9467152 0.99288535 1.0476624 0.9404152 0.99490607

bn4.bias f4 [64]
00000000: 8d6f bb3b fd2c 0c3c 9df0 e33c 1339 e1bc
00000010: 4561 babc 96ed 173d 7ac8 d7bb 91c6 2f3d
00000020: fbfc 163b 8be1 b73c 46c9 adbb bd71 7f3a
00000030: f4d7 033d 4964 1d3c 9b8b f1bc 595b c2b9
00000040: 3bf0 a23c 41a2 023d 5521 293d 261a e8bc
00000050: b0e1 a9ba 991a 9f3c 2013 93bc 5035 673c
00000060: 500e 79ba a03e c53c 6312 b9bc bf1e a03c
00000070: d55f c6bc 569f 653a cc1a e8bc 7139 d43c
00000080: 40ea 68bc 10dd bdbc 8ec0 f3bb e1e4 10bd
00000090: 8896 e23b dcbf 033a ee3a af3c 4a21 793b
000000a0: 9a0f 573b 9de0 ff3b e987 c9bb f881 1dbd
000000b0: 2422 423c 7563 a93b 7088 b0bc ac5f 9b3c
000000c0: f784 f2bc c2c5 0c3c 0feb 02bd f7be 723c
000000d0: dd34 303d 15b9 d73b 556d a83c 521c a63a
000000e0: 20b0 403d ead0 f83c 010b f9bc 6938 e9bc
000000f0: b641 273c b0cc 5fbc 94d1 fc3b d307 1dbd
0.005720085 0.008555648 0.027824694 -0.027493035 -0.02275146 0.037091814 -0.006585178 0.042913977
0.0023038972 0.022446414 -0.0053035347 0.00097444264 0.03218837 0.009606429 -0.029485514 -0.00037070623
0.019889941 0.03189302 0.041291554 -0.028332781 -0.0012960937 0.019421862 -0.017953455 0.014111832
-0.0009500729 0.024077713 -0.022591775 0.01954591 -0.024215618 0.00087593996 -0.02833309 0.025906296
-0.014216006 -0.0231767 -0.007438726 -0.035374526 0.0069149174 0.00050258427 0.021390405 0.0038014227
0.0032815696 0.0078087584 -0.006150235 -0.038454026 0.01184896 0.005169327 -0.021549433 0.018966518
-0.029604418 0.008592071 -0.03196245 0.014816037 0.043019164 0.006583343 0.020559946 0.0012673235
0.047042966 0.030373055 -0.030400755 -0.028469281 0.010208538 -0.013659641 0.0077154133 -0.03833754

bn4.running_mean f4 [64]
00000000: 6159 34be c89f b0be f25f 343e 2029 eabe
00000010: 6f48 343d d05f f5bd f02b ae3e 1a40 0f3d
00000020: 1907 ce3d 33f2 09b9 fbed eabc d184 703e
00000030: a40a 153e 831b 0b3e 9de0 7f3e 5f75 52bd
00000040: 16aa b7be b956 593e d55e c1be d30a 22bd
00000050: c14c 8b3c e9f9 0e3e b297 a83e 5ebf 8b3e
00000060: 22fb a03e 543d ea3c 3825 85be ffb5 ccbd
00000070: 8ce3 873d 9faf 973e c926 6e3e 5901 0abe
00000080: 9054 30bf 090f 9bbd 89cc c03d ab46 913e
00000090: 9e15 58bd e335 253e 141a a5be 31c8 5a3d
000000a0: bd7d 753e 3a28 b03e 4b04 89be 13f9 93bd
000000b0: 3993 8a3d 4e07 82be 1cd7 f73c d6d6 03be
000000c0: 4b86 ac3d 5a81 ae3e dcb9 a13e b8a2 60be
000000d0: 6972 b53d e62b cd3e aad8 913e b436 a93e
000000e0: b601 653c 4cdc eabd 639a f23d a01e 6b3d
000000f0: df3d 083e 558f 1bbf e133 003f 2c19 343e
-0.1761222 -0.34496903 0.17614725 -0.457345 0.04401439 -0.119811654 0.34017897 0.03497324
0.100599475 -0.00013155564 -0.028677931 0.23488165 0.1455484 0.13584714 0.24988027 -0.051381465
-0.35871953 0.21224488 -0.37767664 -0.039561104 0.017004373 0.1396252 0.32928234 0.2729444
0.314416 0.028593697 -0.26004958 -0.099956505 0.06635198 0.29626176 0.23256983 -0.13477077
-0.6887903 -0.07571227 0.09414012 0.28374228 -0.05275499 0.16133837 -0.3224646 0.053413574
0.23973747 0.3440569 -0.26761088 -0.072252415 0.06766362 -0.25396198 0.03025394 -0.12874922
0.08424052 0.34083062 0.31587112 -0.21937072 0.08859713 0.40072554 0.28485614 0.33049548
0.013977459 -0.114677995 0.11845853 0.057402253 0.13304852 -0.6076558 0.5007916 0.17587727

bn4.running_var f4 [64]
00000000: 0a42 613e 568f 893e a943 023e 6e1f 983e
00000010: f4d7 af3d 30ed 123e 43e0 183e 37c0 083e
00000020: e472 2c3e a417 263e 61c5 313e d626 e23d
00000030: 6588 143e f459 083e 7d7d 6f3e 9718 f03d
00000040: dfad 363e 5149 093e 0884 4b3e cf59 313e
00000050: 6eeb 1b3e d40f 043e c10a 4b3e dce3 f33d
00000060: e9a5 4f3e c071 123e c0ca 0c3f 4894 1e3e
00000070: ddc1 de3d 57b5 533e d317 e23d f4ea 2b3e
00000080: a344 0c3f 6fc5 1c3e 9d68 513e 8a07 f03d
00000090: fd4f 623e 0407 283e 7b8a 543e f03f 093e
000000a0: 926c 3d3e c967 fc3d aeeb 473e da8c f83d
000000b0: 7926 073e b20a 0f3e eba4 133e 80a1 023e
000000c0: 4786 063e 9da5 583e 64d2 163e 295d a23e
000000d0: 506d 013e c5ee 163e d0bd 053e f1d9 093e
000000e0: 441f d33d 85e0 d83d a557 1d3e 0bb0 0c3e
000000f0: 8256 1f3e 3a58 093f 340e 5e3e 0ccd 0d3e
0.21997848 0.2686717 0.12721123 0.2971148 0.08586112 0.14348292 0.14929299 0.13354574
0.16840702 0.16219956 0.1736045 0.110425636 0.14505155 0.13315564 0.23387714 0.1172344
0.17839764 0.13406874 0.19874585 0.17319416 0.15226528 0.12896663 0.19828321 0.11908695
0.20278133 0.14301205 0.5499687 0.15486252 0.1087682 0.20674644 0.110397 0.16788846
0.5479223 0.1530969 0.20450063 0.11720188 0.22100826 0.16408926 0.20755951 0.13403296
0.18498448 0.12324483 0.19523498 0.1213624 0.1319827 0.13968924 0.1441838 0.1275692
0.1313716 0.21156926 0.14728695 0.317117 0.12639356 0.14739521 0.13060689 0.13462044
0.10308698 0.10589699 0.15365465 0.1373903 0.15560344 0.5365025 0.21685106 0.1384775

bn5.weight f4 [64]
00000000: 0000 803f 0000 803f 0000 803f 0000 803f
00000010: 0000 803f 0000 803f 0000 803f 0000 803f
00000020: 0000 803f 0000 803f 0000 803f 0000 803f
00000030: 0000 803f 0000 803f 0000 803f 0000 803f
00000040: 0000 803f 0000 803f 0000 803f 0000 803f
00000050: 0000 803f 0000 803f 0000 803f 0000 803f
00000060: 0000 803f 0000 803f 0000 803f 0000 803f
00000070: 0000 803f 0000 803f 0000 803f 0000 803f
00000080: 0000 803f 0000 803f 0000 803f 0000 803f
00000090: 0000 803f 0000 803f 0000 803f 0000 803f
000000a0: 0000 803f 0000 803f 0000 803f 0000 803f
000000b0: 0000 803f 0000 803f 0000 803f 0000 803f
000000c0: 0000 803f 0000 803f 0000 803f 0000 803f
000000d0: 0000 803f 0000 803f 0000 803f 0000 803f
000000e0: 0000 803f 0000 803f 0000 803f 0000 803f
000000f0: 0000 803f 0000 803f 0000 803f 0000 803f
1.0 1.0 1.0 1.0 1.0 1.0 1.0 1.0
1.0 1.0 1.0 1.0 1.0 1.0 1.0 1.0
1.0 1.0 1.0 1.0 1.0 1.0 1.0 1.0
1.0 1.0 1.0 1.0 1.0 1.0 1.0 1.0
1.0 1.0 1.0 1.0 1.0 1.0 1.0 1.0
1.0 1.0 1.0 1.0 1.0 1.0 1.0 1.0
1.0 1.0 1.0 1.0 1.0 1.0 1.0 1.0
1.0 1.0 1.0 1.0 1.0 1.0 1.0 1.0

bn5.bias f4 [64]
00000000: 0000 0000 0000 0000 0000 0000 0000 0000
00000010: 0000 0000 0000 0000 0000 0000 0000 0000
00000020: 0000 0000 0000 0000 0000 0000 0000 0000
00000030: 0000 0000 0000 0000 0000 0000 0000 0000
00000040: 0000 0000 0000 0000 0000 0000 0000 0000
00000050: 0000 0000 0000 0000 0000 0000 0000 0000
00000060: 0000 0000 0000 0000 0000 0000 0000 0000
00000070: 0000 0000 0000 0000 0000 0000 0000 0000
00000080: 0000 0000 0000 0000 0000 0000 0000 0000
00000090: 0000 0000 0000 0000 0000 0000 0000 0000
000000a0: 0000 0000 0000 0000 0000 0000 0000 0000
000000b0: 0000 0000 0000 0000 0000 0000 0000 0000
000000c0: 0000 0000 0000 0000 0000 0000 0000 0000
000000d0: 0000 0000 0000 0000 0000 0000 0000 0000
000000e0: 0000 0000 0000 0000 0000 0000 0000 0000
000000f0: 0000 0000 0000 0000 0000 0000 0000 0000
0.0 0.0 0.0 0.0 0.0 0.0 0.0 0.0
0.0 0.0 0.0 0.0 0.0 0.0 0.0 0.0
0.0 0.0 0.0 0.0 0.0 0.0 0.0 0.0
0.0 0.0 0.0 0.0 0.0 0.0 0.0 0.0
0.0 0.0 0.0 0.0 0.0 0.0 0.0 0.0
0.0 0.0 0.0 0.0 0.0 0.0 0.0 0.0
0.0 0.0 0.0 0.0 0.0 0.0 0.0 0.0
0.0 0.0 0.0 0.0 0.0 0.0 0.0 0.0

bn5.running_mean f4 [64]
00000000: 0000 0000 0000 0000 0000 0000 0000 0000
00000010: 0000 0000 0000 0000 0000 0000 0000 0000
00000020: 0000 0000 0000 0000 0000 0000 0000 0000
00000030: 0000 0000 0000 0000 0000 0000 0000 0000
00000040: 0000 0000 0000 0000 0000 0000 0000 0000
00000050: 0000 0000 0000 0000 0000 0000 0000 0000
00000060: 0000 0000 0000 0000 0000 0000 0000 0000
00000070: 0000 0000 0000 0000 0000 0000 0000 0000
00000080: 0000 0000 0000 0000 0000 0000 0000 0000
00000090: 0000 0000 0000 0000 0000 0000 0000 0000
000000a0: 0000 0000 0000 0000 0000 0000 0000 0000
000000b0: 0000 0000 0000 0000 0000 0000 0000 0000
000000c0: 0000 0000 0000 0000 0000 0000 0000 0000
000000d0: 0000 0000 0000 0000 0000 0000 0000 0000
000000e0: 0000 0000 0000 0000 0000 0000 0000 0000
000000f0: 0000 0000 0000 0000 0000 0000 0000 0000
0.0 0.0 0.0 0.0 0.0 0.0 0.0 0.0
0.0 0.0 0.0 0.0 0.0 0.0 0.0 0.0
0.0 0.0 0.0 0.0 0.0 0.0 0.0 0.0
0.0 0.0 0.0 0.0 0.0 0.0 0.0 0.0
0.0 0.0 0.0 0.0 0.0 0.0 0.0 0.0
0.0 0.0 0.0 0.0 0.0 0.0 0.0 0.0
0.0 0.0 0.0 0.0 0.0 0.0 0.0 0.0
0.0 0.0 0.0 0.0 0.0 0.0 0.0 0.0

bn5.running_var f4 [64]
00000000: 0000 803f 0000 803f 0000 803f 0000 803f
00000010: 0000 803f 0000 803f 0000 803f 0000 803f
00000020: 0000 803f 0000 803f 0000 803f 0000 803f
00000030: 0000 803f 0000 803f 0000 803f 0000 803f
00000040: 0000 803f 0000 803f 0000 803f 0000 803f
00000050: 0000 803f 0000 803f 0000 803f 0000 803f
00000060: 0000 803f 0000 803f 0000 803f 0000 803f
00000070: 0000 803f 0000 803f 0000 803f 0000 803f
00000080: 0000 803f 0000 803f 0000 803f 0000 803f
00000090: 0000 803f 0000 803f 0000 803f 0000 803f
000000a0: 0000 803f 0000 803f 0000 803f 0000 803f
000000b0: 0000 803f 0000 803f 0000 803f 0000 803f
000000c0: 0000 803f 0000 803f 0000 803f 0000 803f
000000d0: 0000 803f 0000 803f 0000 803f 0000 803f
000000e0: 0000 803f 0000 803f 0000 803f 0000 803f
000000f0: 0000 803f 0000 803f 0000 803f 0000 803f
1.0 1.0 1.0 1.0 1.0 1.0 1.0 1.0
1.0 1.0 1.0 1.0 1.0 1.0 1.0 1.0
1.0 1.0 1.0 1.0 1.0 1.0 1.0 1.0
1.0 1.0 1.0 1.0 1.0 1.0 1.0 1.0
1.0 1.0 1.0 1.0 1.0 1.0 1.0 1.0
1.0 1.0 1.0 1.0 1.0 1.0 1.0 1.0
1.0 1.0 1.0 1.0 1.0 1.0 1.0 1.0
1.0 1.0 1.0 1.0 1.0 1.0 1.0 1.0

conv1.0.weight f4 [64, 6, 1, 1]
00000000: 7f06 0abd 3b07 b4be e90d 5abe 0c50 5b3e
00000010: 8bb8 cbbd 5133 83be db36 043e af96 ef3d
00000020: 9d37 e23e 9ec3 efbc 04ff 763d 4bec 143c
00000030: b71b 553d 8ced 483e 243f 18be a360 963e
00000040: 1298 42be c91a 44be 464b 563c 0ca8 f6bb
00000050: a5d7 3ebb 2f46 13be a969 873e 1323 28bd
00000060: 92d3 2dbe 06c6 d33e 3eaa 573e eb51 963e
00000070: d07b 93be 62fa 103e c77d 143b 60f8 dbbd
00000080: 1f0e b8bc a217 9abe 30d2 853d 7ff3 8fbe
00000090: f2ed a13d 6f66 89be a7bc 86be 3a0f 9c3e
000000a0: 6296 80be d32b 61be 6b4b f43c c399 4e3d
000000b0: df33 41be 9e43 9cbd 6ad7 90be 0b86 50be
000000c0: 5109 c6be 6b83 603e edc3 cabd 903d de3d
000000d0: fe69 933e b563 8abb cea2 0b3e ebff e7bd
000000e0: f3b6 4e3e 49df 6bbe 0afb 7cbe 0521 b1be
000000f0: 4d55 a7be 14e1 7cbe 4203 1bbe 4721 d93c
00000100: 6a9b adbe 3ed8 8c3e 249a f9bd 7ed6 8abc
00000110: 5edf 75be c3ba de3e 716a b4be 3acb 08bb
00000120: 7519 723d 08b1 f5bd 804d d23e 5e94 87be
00000130: a544 6bbe 7ae1 9ebd c86b 043e de30 e33d
00000140: f85a 393e ad69 803e 339e 613e e3c1 553e
00000150: a0ea a63e 085e 6dbe eb6c 4a3e d30e d8bd
00000160: b38d c03e cbd5 55be c192 403d deb4 2f3d
00000170: 047d 893e 9aa2 d43c 7871 35be 2a62 1e3e
00000180: 530a babe d9ef 69bc 0894 9c3e 656e 723e
00000190: c08c 2b3e 04a4 8dbe cecc 70bd 3e4a 7e3d
000001a0: c062 133e e5ae 82bc 1894 093e 0c48 b0bd
000001b0: 8d03 93bb 84d6 f0bd f390 a0bc bd9d afbe
000001c0: 6a41 953e db29 86bd 0eca 23be f4b8 11bd
000001d0: b51e 043e b47b 863e a9f9 263e cc88 12be
000001e0: 546e d03e 3471 c6bc d85b 973e 468a 9a3e
000001f0: 1bf1 e9bd 82b4 9fbd 0c63 a8bd 8bba b4be
00000200: 7c4c 20be 01ae 0dbe 4b65 40bd e2b7 90be
00000210: b232 3b3b 8651 2b3c 4f6c 34be 9187 45be
00000220: 3be1 71be 700b b43e 51c1 5b3e 0c32 ac3d
00000230: 7791 d6bd ce97 3d3e 6427 cfbd b994 debd
00000240: 8c44 663e 9b24 a8be ffc2 ddbd f839 b0be
00000250: 3346 c7be cb77 ab3c c940 af3e 46bc 0f3e
00000260: 5489 cfbd 8706 26be 09aa d33d 3d11 7f3e
00000270: 5126 11be 5642 b7be 0ca9 353e 4949 aabe
00000280: e292 cbbe 003f 383e 0773 e5be f256 fdbd
00000290: 368e 59be 263b 68b7 b24c 9dbd b458 fb3d
000002a0: 0c3b 54be 3488 eabe 25ba 31be 4b5e 88be
000002b0: 0616 cb3d 787f d8bd 20d3 613e 3a8c 913c
000002c0: a65d 993e 94ef a03e 2e9a 6c3e eeb0 963c
000002d0: 7a4f b13e 7ed2 d03e 414f d53d e289 2abd
000002e0: fdfc 48be a81b a6bd 805b b1be 6a89 333e
000002f0: 40d8 7e3d 182b b1be eea3 943e e9d3 b33e
00000300: 7684 543d d385 d4bd 4626 1c3d 74ec 953c
00000310: 8410 d1be 8493 27be a35d f9be 8332 763e
00000320: 0f57 4fbe 57ea a9be fa2b 2e3e 03d9 8abd
00000330: 4baf acbe 3842 47be cd04 3dbe d43d 3fbe
00000340: 7235 d1be c5ec c1be e5b7 7bbd 12c6 ba3e
00000350: 359a 75be 16e2 93be 37a2 c33e eb2f a6be
00000360: ecb5 28bd f086 123e 2107 a03e f2d3 82be
00000370: 2f27 833e f6ab 343e 3a6e d1bd 87c8 24bd
00000380: bf9f 30bc ca33 b93d fc1e 743e 168e 56bd
00000390: 9036 f8bc 868e 09bd f74e 14be 2308 af3e
000003a0: 4272 a23e 6e4d b73e 8f58 d33d 72f7 9ebe
000003b0: 07f1 36be 4d7c 093d 9101 c73e f856 32bd
000003c0: f716 8ebe 32af adbe 75df 073e b999 903e
000003d0: af5e 92bd d42d 033e 8114 17be e790 a0bd
000003e0: ea6e 85bd a391 41be 76b0 cfbe bc37 353d
000003f0: 774d 3abe a8c2 463e 11e5 853e e524 a5be
-0.0336976 -0.35161766 -0.21294369 0.21417254 -0.09947308 -0.2562509 0.1291155 0.116986625
0.44183055 -0.029268082 0.060301796 0.00908954 0.052028384 0.19621867 -0.14867836 0.29370603
-0.19003323 -0.19150843 0.01307947 -0.007527357 -0.0029120233 -0.14382242 0.264478 -0.041049074
-0.16975239 0.41362017 0.21061036 0.29359373 -0.288054 0.14158013 0.0022657977 -0.10740733
-0.022467671 -0.30096155 0.06534231 -0.2811546 0.079067126 -0.26835963 -0.26315805 0.30480367
-0.25114733 -0.21989374 0.029821118 0.050439607 -0.18867444 -0.076300845 -0.28289348 -0.20363633
-0.38678983 0.21925132 -0.09900651 0.10851586 0.28791803 -0.004223312 0.13636324 -0.11328109
0.20186977 -0.23034395 -0.24705139 -0.34595504 -0.32682267 -0.24695235 -0.15137962 0.026505126
-0.33907634 0.2750873 -0.12187603 -0.016947981 -0.24010989 0.43501863 -0.35237458 -0.0020873086
0.05910631 -0.11996657 0.41074753 -0.26480383 -0.22975405 -0.0775785 0.1293174 0.11093305
0.18101108 0.25080624 0.22033004 0.20874743 0.3260088 -0.23180401 0.19768111 -0.105497025
0.37608108 -0.20882337 0.047014955 0.042897098 0.26853192 0.02595644 -0.17719066 0.15467134
-0.36336002 -0.014278376 0.3058169 0.23674925 0.1675291 -0.27664196 -0.058789067 0.06208252
0.14393139 -0.015952537 0.134354 -0.08607492 -0.0044865073 -0.117596656 -0.019600367 -0.34300032
0.2915147 -0.06550952 -0.15995046 -0.035576776 0.12902339 0.26266253 0.16306175 -0.14309996
0.40709174 -0.024223901 0.2956226 0.3018362 -0.1142294 -0.07798101 -0.08222017 -0.3529857
-0.15654176 -0.13835908 -0.0469716 -0.2826529 0.0028564152 0.010456448 -0.17619441 -0.19289996
-0.23621075 0.35164976 0.21460463 0.08407983 -0.10476964 0.1851494 -0.10114935 -0.1086821
0.22487086 -0.32840428 -0.10828208 -0.34419227 -0.38920745 0.020931145 0.34229115 0.14036664
-0.10133615 -0.16213427 0.10335166 0.2490892 -0.14174773 -0.35792798 0.17740268 -0.33259037
-0.397605 0.17992783 -0.4481432 -0.12370099 -0.21245655 -1.3842049e-05 -0.07680644 0.12272778
-0.2072565 -0.4580704 -0.17356165 -0.2663444 0.0991631 -0.10571188 0.22053194 0.01776706
0.2995426 0.31432784 0.2310569 0.018394914 0.34630948 0.40785593 0.10415507 -0.0416354
-0.19627757 -0.08110744 -0.3464012 0.17532888 0.06221795 -0.3460319 0.29031318 0.35122612
0.051884137 -0.103770874 0.038122438 0.018301226 -0.40832913 -0.16364866 -0.48704252 0.24042706
-0.20248054 -0.331866 0.17008963 -0.06779673 -0.33727488 -0.19458854 -0.18458863 -0.1867593
-0.40861088 -0.37875953 -0.061454672 0.3647924 -0.23984607 -0.28883427 0.38209698 -0.32458434
-0.04118912 0.14309287 0.3125544 -0.25552326 0.25615832 0.17643723 -0.10226102 -0.0402303
-0.010780274 0.09043081 0.23839945 -0.052381597 -0.030299455 -0.033583187 -0.14483248 0.34185895
0.31727797 0.35801262 0.103196256 -0.3104816 -0.17865382 0.033565808 0.38868383 -0.04353997
-0.27751896 -0.33922726 0.13268836 0.2824228 -0.07146966 0.12810451 -0.14753915 -0.07840138
-0.06515296 -0.18903212 -0.40564317 0.044242606 -0.18193613 0.19410193 0.26151326 -0.3225471

conv1.1.weight f4 [64]
00000000: 7821 803f fe6d 7a3f de8f 7f3f 7658 803f
00000010: afc0 713f a8fa 7a3f 91f0 803f 0074 7e3f
00000020: df1b 783f e181 7b3f 176f 753f 1535 803f
00000030: fa55 803f 63ad 763f 5f0a 803f 4790 7e3f
00000040: d0d6 823f fb96 7b3f c939 813f e616 823f
00000050: 4aed 803f 9749 763f 1493 7c3f 1786 813f
00000060: 560f 7f3f 386f 793f 62cd 7e3f dd7b 763f
00000070: e0c9 7c3f c882 743f c927 813f bb7a 733f
00000080: de2b 803f d24f 853f 75e8 7b3f 89ae 833f
00000090: 02ff 773f de2a 7e3f e8d7 7c3f 5fdd 7a3f
000000a0: d297 7b3f 9f34 753f bb72 803f bd85 7e3f
000000b0: c2f5 773f 3c6b 783f 2acd 793f 6dfb 793f
000000c0: 3622 7f3f 02e3 793f 6393 7c3f a0db 813f
000000d0: 48cf 823f eeae 7d3f cd17 793f 4f13 793f
000000e0: c051 773f 88d2 7f3f ccfb 7b3f a90c 7f3f
000000f0: c77d 813f a6f7 783f 3f03 803f 24dc 823f
1.0010214 0.97824085 0.998289 1.0026996 0.94434637 0.9803872 1.0073415 0.9939575
0.9691753 0.98245054 0.95872635 1.0016199 1.0026238 0.9635832 1.0003165 0.994389
1.0221806 0.9827725 1.009576 1.0163238 1.0072415 0.9620604 0.98661923 1.0119046
0.99632776 0.9743533 0.9953214 0.9628275 0.98745537 0.95512056 1.0090266 0.95109147
1.0013387 1.0414984 0.98401576 1.0287639 0.96873486 0.9928416 0.98766947 0.97994035
0.98278534 0.9578342 1.0035013 0.9942282 0.9685937 0.97038627 0.9757868 0.9764927
0.99661577 0.9761201 0.98662394 1.0145149 1.0219507 0.99095047 0.9730194 0.9729509
0.96609116 0.9993062 0.98431087 0.9962869 1.0116509 0.9725288 1.0000991 1.0223432

conv1.1.bias f4 [64]
00000000: a3e1 5dbc 1bf8 9a3d d783 26bd 5c44 cebc
00000010: 3ad7 0f3d 62be 9dbd e04a 93bc dc70 0d3c
00000020: 8deb 43bc 4c49 3fbd 1ba5 f3bb 85b3 bc3c
00000030: 308f 023d ff6a 95bc 7ea3 30bd ec4e ed3a
00000040: 6e6b 9cbd 4a65 a6bc 04cd d6bc e494 8fbb
00000050: 3798 be3c 5c60 29bd fb2c 4bbc e448 c43c
00000060: ba79 ba3c 3572 613c fb5a 233d f425 523c
00000070: cdf7 e63b d435 ac3c 2433 843b 8603 51bd
00000080: 30f7 fabc b1d6 97bc 70f2 65bd d21d 803c
00000090: 58a4 2d3d 9330 d53a 930e 81bc d086 28bd
000000a0: 855e 213d 1e97 d73b 052c 273c b5b4 923d
000000b0: c60b 993b 48b0 f73c 9956 02bd 7ee5 8dbb
000000c0: 823e 26bc b452 2c3c 3847 36bd 3787 b7ba
000000d0: 0866 153d c0b2 c5bc c56b 993b 64b1 7c3b
000000e0: 06d2 813d c1b0 91bb 392e 093b e30d 243c
000000f0: 9e2c e9bb 4b56 31bc 3f94 5d3d 1dc5 35bc
-0.0135425655 0.075668536 -0.040653076 -0.02517908 0.035117365 -0.07702328 -0.01798004 0.008632865
-0.011958015 -0.04670076 -0.0074354536 0.02303482 0.031874835 -0.018239496 -0.04312467 0.0018105186
-0.07637678 -0.02031197 -0.026220806 -0.004381763 0.023265941 -0.04135166 -0.012400861 0.023960538
0.022763122 0.013760139 0.039881688 0.012826432 0.007048583 0.021021761 0.0040344168 -0.05102875
-0.030635446 -0.01853499 -0.05613941 0.01563922 0.04239306 0.0016265087 -0.01575402 -0.041144192
0.03939678 0.006579294 0.010203366 0.071633734 0.004670593 0.030235425 -0.031820867 -0.004330336
-0.010146739 0.010517765 -0.044501513 -0.0014002089 0.036474258 -0.024133086 0.0046820366 0.0038557881
0.06338887 -0.0044461195 0.0020932092 0.0100130765 -0.0071159145 -0.0108237965 0.054096457 -0.011094359

conv1.1.running_mean f4 [64]
00000000: 8696 9bc5 2be5 1343 4cf6 66c5 ce41 51c4
00000010: 59a0 3045 032f aec5 ef8f 84c5 f19c 79c5
00000020: 3727 82c2 50ae d5c5 a474 a945 dc52 6b42
00000030: 8454 c6c4 4f13 8145 c64a 81c5 7863 3d45
00000040: 4504 a9c5 8ff3 d4c4 870a a9c4 f347 2dc5
00000050: 943a bac4 47ea adc5 b218 d745 6ac0 02c5
00000060: a9d5 b643 e702 9845 002c 5945 555c 1745
00000070: 822e 04c5 4237 c643 3d24 c8c4 6441 d545
00000080: b71e 48c5 00e5 acc4 42cc e8c5 c3a0 c8c5
00000090: da50 5445 7828 7ec4 8c9d dd45 d60e 54c4
000000a0: 4300 2045 fe27 5444 c273 29c5 a4dc a0c4
000000b0: 3f06 c645 531d 3145 59be a8c5 a0f4 c345
000000c0: 2c30 11c5 7ec7 3745 ad90 c3c5 c4ad 58c4
000000d0: fcdf 9bc4 8d26 f1c5 ad1e ea45 983a 8ec5
000000e0: 7ac0 bd44 2c3d 91c5 69c4 f245 e015 edc4
000000f0: fdfc 4cc5 aa4b b545 2a79 c9c4 d3ad f0c4
-4978.8154 147.89519 -3695.3936 -837.0282 2826.0217 -5573.8765 -4241.9917 -3993.8088
-65.07659 -6837.789 5422.58 58.830917 -1586.6411 4130.4136 -4137.3467 3030.2168
-5408.5337 -1703.6112 -1352.329 -2772.4968 -1489.8306 -5565.2847 6883.087 -2092.026
365.66922 4864.363 3474.75 2421.7708 -2114.9067 396.4317 -1601.1324 6824.174
-3201.9197 -1383.1562 -7449.532 -6420.095 3397.0532 -1016.6323 7091.6934 -848.2318
2560.0164 848.6249 -2711.2349 -1286.895 6336.781 2833.8328 -5399.7935 6270.578
-2323.0107 2940.4683 -6258.0845 -866.7151 -1246.9995 -7716.819 7491.8345 -4551.324
1518.0149 -4647.6465 7768.5513 -1896.6836 -3279.8118 5801.458 -1611.7864 -1925.432

conv1.1.running_var f4 [64]
00000000: fd63 054b 6c84 e348 bddd fd4a d716 524a
00000010: 066e 034b 70de 2b4b 6aef 214b 2ed9 dd4a
00000020: f6ba 4f4a 441f 7a4b 8c1b 324b 18b8 304b
00000030: c035 984a 46e7 f54a 332f 1c4b e333 544a
00000040: 83f5 284b 323c ad49 28be ee4a c595 a24a
00000050: 099b 894a 742e 074b 0b47 6d4b 2db4 2c4a
00000060: 4623 094b 7a9d f54a 3e15 324b 46c4 fe49
00000070: a2e6 814a 96ef 994a 07d1 214a 9b26 994b
00000080: 947b 054b 949f a54a 0443 a44b 4e4e 8c4b
00000090: e23c f44a 07c9 164a 4650 9d4b 7253 b04a
000000a0: 90da 954a e25d ce4a 6627 a94a e515 414a
000000b0: b4aa 894b 3dc0 074b 5df8 794b 2ef2 5f4b
000000c0: 6ab2 f849 7a79 c74a 3579 5b4b d679 524a
000000d0: 1d87 9749 577c 894b 3961 964b f119 3b4b
000000e0: 3057 4b4a 770d 2e4b 0ab3 7e4b 51f7 354a
000000f0: 7965 5a4a 569c 4e4b f44e ab4a 0fd1 954a
8.741885e+06 465955.38 8.3186865e+06 3.4421018e+06 8.613382e+06 1.12636e+07 1.0612586e+07 7.269527e+06
3.4034535e+06 1.6392004e+07 1.167246e+07 1.1581464e+07 4.987616e+06 8.057763e+06 1.0235699e+07 3.4767288e+06
1.1072899e+07 1.4191422e+06 7.823124e+06 5.3275865e+06 4.5090605e+06 8.859252e+06 1.5550219e+07 2.8295792e+06
8.987462e+06 8.048317e+06 1.1670846e+07 2.0870488e+06 4.256593e+06 5.044171e+06 2.6512018e+06 2.0073782e+07
8.747924e+06 5.427146e+06 2.153012e+07 1.8390172e+07 8.003185e+06 2.4704658e+06 2.0619404e+07 5.777849e+06
4.910408e+06 6.762225e+06 5.542835e+06 3.1635132e+06 1.8044264e+07 8.896573e+06 1.6382045e+07 1.4676526e+07
2.0373252e+06 6.536381e+06 1.4383413e+07 3.4484375e+06 1.2413156e+06 1.8020526e+07 1.9710578e+07 1.2261873e+07
3.331532e+06 1.1406711e+07 1.6691978e+07 2.9813322e+06 3.5782062e+06 1.3540438e+07 5.613434e+06 4.9091915e+06

conv2.0.weight f4 [64, 128, 1, 1]
00000000: df22 bebc b863 1abd d470 63bd e616 923d
00000010: b11f 9f3c 20d3 113e 3406 b4bd e4e3 c5bd
00000020: 9ce6 e1bc 27b2 eebb 72c2 0b3d 2c42 bfbd
00000030: 94ff 3d3d b0d2 ddbc 6ca3 083e 592b 25bc
00000040: 67b0 52bd 9e12 073e edea 0b3e 9acc 47bc
00000050: 6fc7 ddbd 9ec3 68bd 416d 1e3d 524f b8bd
00000060: 3e41 efbc e6f1 a7bd ba31 b6bd 9ccf f1bd
00000070: 47ce e8bc a695 46bd 9dad 81bd 4c52 093d
00000080: 1b5b d7bd 6b81 643d 57b1 d13c 5872 043e
00000090: e0d8 883b 9557 0d3e ce34 9cbc c74e 073c
000000a0: 5adb 9cbd 7423 8539 e289 24bc 23cf 9bbd
000000b0: 35e1 243d ca59 543d 2ef4 923c 5936 373d
000000c0: 4390 fabd 74e2 d7bc a7f7 36bb cc70 c7bd
000000d0: 74b8 ddbd 6449 a53d 8245 75bd edee fc3c
000000e0: ec9e 9abd 91d3 653d 5b38 b7bb b955 93bc
000000f0: 2e6b 61bd 309d 343d c931 9b3d 26ee c63c
00000100: 2dda ff39 a426 f13c 3aa8 893d 57aa a7bd
00000110: 6efa e53a d03a 14bd 68de c5bc ed7d 9dbd
00000120: 025e 87bd 4666 983d 02b7 81bd 6b2d 053d
00000130: aaac fbbc 0edc 6fbd 1baa 13bc 9f42 ae3b
00000140: 388b 0f3d 1efe 4e3c 73e4 9ebd 8b66 4ebd
00000150: 9e38 1abd 5bec 423c 3b93 a0bd 7dc4 f93c
00000160: 6f77 303d b17d 26bd 4f2c 223c 7b16 44bd
00000170: 110a a53a 08a1 043d 7c42 3abd 8a76 15bd
00000180: bc40 553d 7a72 c0bc 3ef0 1939 4784 123c
00000190: 91b0 473d e5e8 c2bd b5ae 87bd ff44 8abd
000001a0: 11cd 213c 6254 e73c 85c8 643d 2774 253d
000001b0: 4631 823d b5be 413d 24bb a53c e4f5 c3bc
000001c0: f7cc 48bd 2b73 3b3c a6de e13c 565f 81bc
000001d0: 6077 6dbd dcf2 89bc 1e65 003d f3df 493c
000001e0: 6182 0f3d 5153 f5bc 6c95 09bd d655 d23c
000001f0: c7d7 713d 7ade 01bd b9a7 2fbd 52b6 0ebd
00000200: 01bd 203e c4a7 8abc 5fe8 303d 987e 55bd
00000210: 46ed 9abd c2bd 3f3c 3b2f 403d 0e19 ccbd
00000220: e5d7 143d 37be 9fbc e510 be3c 9c34 cebd
00000230: 0b05 8cbd b345 363d 0c66 f13d 570e 06bd
00000240: 01e2 093e 82af 103e b4f9 e83c 6a1b fc3c
00000250: 11d7 023e df34 f73d 11c9 6f3c 7f74 213e
00000260: 741b 1c3d 5af3 b8bc 1c02 99bd c5cd 02be
00000270: 9aaf 87bd 5913 5cbd 2037 2ebd 60f8 95bd
00000280: f1b9 95bd c606 d0bd cffa dabd 92ac 193e
00000290: f18e 05be 59b3 e83d 4700 3dbd 4659 6e3d
000002a0: f226 7c3d 6f31 253c 9776 16be 6baa d63d
000002b0: 710d 75bd e95c be3c 0e8f 693d 31a6 c9bb
000002c0: 945f 5a3c 8edf 213d 4b8d de3b 7e64 e0bd
000002d0: d76a 213e d53d a5ba 2acf 57bd 1774 2bbd
000002e0: b175 4a3b 0646 0bbe c2f3 083d ddbe aabd
000002f0: 96b6 203e 5e79 3cbc 4b37 8e3d 6287 da3d
00000300: 6e93 91bc 8ae2 bdbd d8d9 973c 62b2 1d3c
00000310: 6006 213d b311 a73d 2be9 f8bc d667 8cbd
00000320: 3b6c 25bd 8d89 ba3d 5b67 8bbc 7c71 2abc
00000330: 4546 12bd 72b7 f1bc 5675 0e3d a290 0fbd
00000340: 06ad 50bb 6bb4 e03c e06a 98bc 6ecf 8a3d
00000350: 35ec 4e3d 09eb 123d 211f 943d 6dbb 0fbd
00000360: e52d b13c 6158 1d3d a7b6 75bd 6afd 34bd
00000370: 8b37 413d 805d 0e3d 3174 ec3c d1da 4cbd
00000380: 1bd0 d5bc cdd5 63bd 05ef 84bd dc3e 81bd
00000390: 39ba 9ebd 2b77 973d 3741 e13b 07d0 583c
000003a0: 8b7b 783d 9c8e 983d 4f0e 8abd 658f 193d
000003b0: 2691 64bd ebf7 2b3d 4ecf 813d f47b 0c3d
000003c0: a970 dd3c 8c73 a53d 461b f7bb c4f7 0cbd
000003d0: 7cd5 8f3d 3d79 83bd 8a7c 313a d70f 723d
000003e0: 19a6 593d 553b 5dbd 38be dcbc 698f d43c
000003f0: 0a6a c63c 1093 c33c 1910 233b 782c 973c
-0.023209987 -0.037692755 -0.055527523 0.07133274 0.019424291 0.14240694 -0.08790246 -0.09662607
-0.027575783 -0.007284421 0.034120984 -0.09338793 0.046386316 -0.027078003 0.1334359 -0.010081136
-0.05143776 0.13190696 0.13663836 -0.012194777 -0.108290546 -0.05682718 0.03867841 -0.08999504
-0.029205915 -0.08200435 -0.08896203 -0.118071765 -0.028418673 -0.04848256 -0.06331942 0.03352575
-0.10515424 0.055787485 0.025597258 0.12934244 0.004176244 0.13802941 -0.019068148 0.008258528
-0.076590255 0.0002539415 -0.010042639 -0.076078676 0.040253837 0.051843442 0.0179387 0.044729564
-0.12234547 -0.026353098 -0.0027918608 -0.09738311 -0.10826197 0.08070639 -0.05988074 0.030875647
-0.07549843 0.05610997 -0.005591435 -0.017985212 -0.055033855 0.04409522 0.07577855 0.02428348
0.00048799944 0.02943737 0.0672154 -0.081867866 0.0017545947 -0.0361889 -0.024153903 -0.07690034
-0.066097274 0.07441382 -0.06333734 0.032514017 -0.030721981 -0.05855947 -0.009012724 0.0053180004
0.03504488 0.012633828 -0.07758417 -0.05039076 -0.03765165 0.011897172 -0.07840582 0.0304892
0.04308265 -0.040647212 0.009898259 -0.047873 0.0012591501 0.032380134 -0.04547356 -0.03649
0.05206369 -0.023492087 0.00014680714 0.00894267 0.04875237 -0.09517077 -0.066251196 -0.06751441
0.009875552 0.028238479 0.055855293 0.040393975 0.063570544 0.047301013 0.020230837 -0.02392096
-0.049023595 0.011441032 0.027571987 -0.01579253 -0.057975173 -0.016839437 0.031346433 0.01232146
0.03503645 -0.029946955 -0.033589765 0.025675695 0.059043672 -0.03170631 -0.042884562 -0.034841843
0.156971 -0.0169257 0.043190356 -0.052122682 -0.075647876 0.011702957 0.046920042 -0.09965716
0.036338706 -0.019499881 0.023201415 -0.10068628 -0.06836899 0.044500064 0.11787042 -0.03272852
0.1346512 0.14129451 0.02843938 0.03077479 0.12777354 0.12070631 0.01463534 0.15767096
0.03811212 -0.022576977 -0.074711055 -0.12773807 -0.0662529 -0.05372939 -0.04253304 -0.073227644
-0.07310856 -0.10157542 -0.10692369 0.15007237 -0.13042809 0.11362333 -0.046142843 0.058190607
0.06156058 0.010082587 -0.14693676 0.104817234 -0.05982727 0.023237662 0.057021193 -0.0061538448
0.013328452 0.03951984 0.006791746 -0.10956667 0.15763412 -0.0012606928 -0.0526878 -0.04185876
0.0030892903 -0.1360093 0.03343559 -0.083371855 0.15694651 -0.011503546 0.0694414 0.106703535
-0.017770495 -0.092717245 0.018536493 0.009625049 0.03931272 0.08157673 -0.03038462 -0.06855743
-0.04038642 0.09108267 -0.017017057 -0.010403033 -0.035711545 -0.029506419 0.03477987 -0.035050042
-0.0031841411 0.02742978 -0.01860565 0.06777845 0.050518233 0.03586868 0.072325 -0.035090853
0.02162833 0.038414363 -0.059988644 -0.044186987 0.04717211 0.034757137 0.028863998 -0.050013367
-0.026100209 -0.05562382 -0.06490902 -0.063108176 -0.07750363 0.07395776 0.0068742293 0.013233191
0.060664695 0.074490756 -0.067410104 0.037490267 -0.055802487 0.04198448 0.06338368 0.0342979
0.02703126 0.080786794 -0.007541093 -0.034415975 0.07023141 -0.06419609 0.0006770572 0.059097137
0.05313692 -0.05401166 -0.026946172 0.02594729 0.024220485 0.023873836 0.002488142 0.018453822

conv2.1.weight f4 [64]
00000000: 3636 763f d866 803f 2afd 7f3f 98c5 7a3f
00000010: a3cd 753f 797b 793f 8ea3 813f 1291 6d3f
00000020: 9f6f 7e3f 4f75 7f3f bd62 7e3f d32c 7f3f
00000030: e811 803f c5f6 7a3f 1ae1 733f efd5 763f
00000040: c843 773f 8e50 7e3f f362 7d3f f952 7c3f
00000050: fcea 6e3f 456a 773f 44fe 743f 9787 7d3f
00000060: d619 753f 071f 803f 6b56 6d3f 8bb1 803f
00000070: 443f 783f 15a5 793f 0ad9 773f 19b1 783f
00000080: b1bc 743f c99e 793f 12b0 7a3f ea4e 713f
00000090: 913d 823f eac6 763f 8d8f 763f 1a17 783f
000000a0: 8515 7d3f 49b3 7c3f ad79 703f 071d 7b3f
000000b0: 0361 7d3f 0a9a 793f f2fa 7a3f 78f6 7a3f
000000c0: 5239 7e3f 3b2c 743f 687d 743f 50b2 7d3f
000000d0: 2bf5 823f 7052 7b3f 4c14 7f3f 6f8f 713f
000000e0: 6d77 783f 1e61 783f 0cb3 813f 6e4a 7d3f
000000f0: c8ea 783f 8e00 793f d5ee 833f fde4 763f
0.9617647 1.0031385 0.9999567 0.97957754 0.960169 0.9745403 1.0128038 0.92799485
0.9938907 0.99788374 0.9936941 0.9967777 1.0005465 0.9803279 0.9526535 0.96420187
0.965878 0.99341667 0.9897911 0.98564106 0.9332731 0.9664653 0.9570048 0.9903502
0.9574255 1.0009469 0.9270999 1.0054182 0.96971536 0.9751752 0.9681555 0.9714523
0.9560042 0.9750791 0.9792491 0.9426104 1.0175039 0.9639727 0.9631279 0.9691025
0.9886096 0.9871107 0.9393566 0.9809117 0.98976153 0.9750067 0.9803916 0.9803233
0.99306214 0.9537999 0.95503855 0.9910021 1.0231069 0.98172665 0.99640346 0.9435949
0.9705723 0.9702319 1.0132766 0.98941696 0.9723325 0.9726647 1.0307261 0.9644316
