src/pipelineC/checkpoints/dgcnn_seg_epoch30.pth (torch, 692288 bytes, 59 tensors)

bn1.weight f4 [64]
1.0019621 0.9767518 1.0017891 1.0008467 0.94659257 0.9816976 1.0093589 0.996026
0.97203594 0.98743683 0.9608069 1.0022427 1.0033973 0.96559054 1.000253 0.9950212
1.0224057 0.9819972 1.0105369 1.0138634 1.0071734 0.9628739 0.9878701 1.0132107
0.99532706 0.9742786 0.9953565 0.964224 0.98936 0.9573944 1.0091616 0.9552396
1.0027539 1.0409324 0.9864503 1.0304043 0.9703106 0.9937431 0.9884639 0.98245573
0.9836057 0.9609099 1.005529 0.9971219 0.96968997 0.97144014 0.97943234 0.97819555
0.99643856 0.9769786 0.99033004 1.014971 1.0202723 0.99206465 0.9736729 0.97550184
0.96749127 0.9996876 0.98747355 0.99864894 1.0105842 0.9744308 1.0031142 1.0225581
00000000: 4b40 803f 680c 7a3f a03a 803f bf1b 803f
00000010: e453 723f 8950 7b3f ac32 813f 8ffb 7e3f
00000020: 59d7 783f a9c8 7c3f 71f7 753f 7d49 803f
00000030: 536f 803f f130 773f 4a08 803f b6b9 7e3f
00000040: 31de 823f 2b64 7b3f 4659 813f 47c6 813f
00000050: 0feb 803f e77e 763f 0ee5 7c3f e3b0 813f
00000060: c1cd 7e3f 536a 793f afcf 7e3f 62d7 763f
00000070: b246 7d3f cd17 753f 352c 813f 958a 743f
00000080: 3d5a 803f 463d 853f 0288 7c3f 4ae4 833f
00000090: 4766 783f f365 7e3f f80b 7d3f 3882 7b3f
000000a0: 95cd 7b3f 31fe 753f 2db5 803f 6143 7f3f
000000b0: 9a3d 783f 4db0 783f 14bc 7a3f 066b 7a3f
000000c0: 9916 7f3f 451b 7a3f 4586 7d3f 92ea 813f
000000d0: 4898 823f f3f7 7d3f a142 793f 7dba 793f
000000e0: 82ad 773f 87eb 7f3f 11cb 7c3f 75a7 7f3f
000000f0: d35a 813f 4c74 793f 0c66 803f 2fe3 823f

bn1.bias f4 [64]
-0.012839504 0.06804143 -0.03465925 -0.021024676 0.029384632 -0.07522006 -0.013473938 0.011019272
-0.013529688 -0.037796836 -0.0063050683 0.019768506 0.033674307 -0.018900154 -0.042528592 0.0013370761
-0.07422317 -0.020754635 -0.021800177 -0.0006121978 0.023192635 -0.039825417 -0.012836657 0.023784153
0.022052754 0.01090786 0.037371732 0.008985832 0.006098778 0.018485557 0.0014622882 -0.047808263
-0.02477748 -0.017305152 -0.05030944 0.013925148 0.040050317 0.002439873 -0.018435583 -0.037182014
0.036844872 -0.0015755338 0.00888649 0.0694487 0.0027910653 0.028532548 -0.029321449 -0.009001602
-0.013656241 0.012546897 -0.0387536 0.0008904569 0.034982223 -0.022809638 0.0025264118 0.0035639293
0.058255676 -0.006757987 0.00095263956 0.009631895 -0.008343677 -0.012446337 0.059978 -0.010890355
00000000: c85c 52bc 4e59 8b3d dcf6 0dbd f13b acbc
00000010: 0ab8 f03c fa0c 9abd cbc1 5cbc 2d8a 343c
00000020: a0ab 5dbc dbd0 1abd bf9a cebb 90f1 a13c
00000030: 12ee 093d 7fd4 9abc 7632 2ebd d440 af3a
00000040: 5102 98bd a005 aabc 4996 b2bc e67b 20ba
00000050: 7bfe bd3c fa1f 23bd d850 52bc fcd6 c23c
00000060: faa7 b43c e1b6 323c 1a13 193d 5039 133c
00000070: 42d8 c73b 066f 973c 40aa bf3a 99d2 43bd
00000080: 24fa cabc 89c3 8dbc 4511 4ebd 4e26 643c
00000090: cd0b 243d 47e6 1f3b 3806 97bc 2b4c 18bd
000000a0: a6ea 163d 2482 ceba a498 113c 1f3b 8e3d
000000b0: 4eea 363b 17bd e93c 8933 f0bc 757b 13bc
000000c0: 6dbe 5fbc 8091 4d3c 18bc 1ebd 8d6d 693a
000000d0: 8549 0f3d 47db babc 2892 253b d090 693b
000000e0: 819d 6e3d 1b72 ddbb 8fba 793a 19cf 1d3c
000000f0: ebb3 08bc b9eb 4bbc 7eab 753d 766d 32bc

bn1.running_mean f4 [64]
-5199.77 228.54372 -3822.6433 -892.34534 3043.5486 -5899.2314 -4437.6943 -4252.2466
65.14359 -7323.512 5551.6797 76.08936 -1815.1942 4505.7017 -4238.312 3091.2742
-5594.5117 -1765.4877 -1436.8706 -2769.858 -1522.1354 -5857.374 7145.624 -2156.2393
254.38329 5164.745 3619.143 2535.911 -2211.4434 723.32434 -1725.9075 7158.6187
-3421.0908 -1466.9249 -7956.561 -6673.978 3661.0867 -965.6657 7561.6816 -705.417
2761.767 957.9609 -2931.213 -1304.5247 6557.1084 3073.5254 -5646.111 6579.588
-2533.6467 3070.6853 -6636.83 -983.9345 -1283.6202 -8055.63 7891.461 -4724.032
1777.4877 -4941.9883 8121.3213 -2016.3136 -3425.959 6157.5996 -1547.577 -1949.3004
00000000: 297e a2c5 318b 6443 4bea 6ec5 1a16 5fc4
00000010: c738 3e45 da59 b8c5 8ead 8ac5 f9e1 84c5
00000020: 8549 8242 19dc e4c5 707d ad45 c12d 9842
00000030: 37e6 e2c4 9dcd 8c45 7f72 84c5 6334 4145
00000040: 18d4 aec5 9baf dcc4 dc9b b3c4 ba1d 2dc5
00000050: 5544 bec4 fe0a b7c5 fe4c df45 d4c3 06c5
00000060: 1f62 7e43 f665 a145 4a32 6245 937e 1e45
00000070: 1837 0ac5 c2d4 3444 0abd d7c4 f3b4 df45
00000080: 74d1 55c5 995d b7c4 7da4 f8c5 d38f d0c5
00000090: 63d1 6445 9b6a 71c4 744d ec45 b05a 30c4
000000a0: 469c 2c45 7f7d 6f44 6833 37c5 ca10 a3c4
000000b0: dee8 cc45 6818 4045 e370 b0c5 b49c cd45
000000c0: 595a 1ec5 f7ea 3f45 a466 cfc5 cffb 75c4
000000d0: d973 a0c4 0abd fbc5 b09b f645 42a0 93c5
000000e0: 9b2f de44 e86f 9ac5 92ca fd45 090a fcc4
000000f0: 581f 56c5 cc6c c045 7772 c1c4 9da9 f3c4

bn1.running_var f4 [64]
9.249294e+06 512614.9 8.2272735e+06 3.2123478e+06 8.431278e+06 1.2089117e+07 1.0529778e+07 8.39331e+06
4.1256835e+06 1.904165e+07 1.2492542e+07 1.0450049e+07 6.133455e+06 9.62741e+06 1.0648046e+07 3.6759828e+06
1.2358928e+07 1.5166175e+06 7.103237e+06 6.0950705e+06 4.3680655e+06 9.889945e+06 1.7399346e+07 2.8049908e+06
1.1260514e+07 8.783244e+06 1.4019238e+07 2.3105732e+06 4.283783e+06 6.2160025e+06 3.128319e+06 2.0601582e+07
9.656426e+06 5.054822e+06 2.4993476e+07 1.856067e+07 7.987118e+06 2.9520175e+06 2.4149374e+07 6.596454e+06
5.0338345e+06 8.232693e+06 6.019573e+06 3.328723e+06 2.0740346e+07 1.0882223e+07 1.631457e+07 1.5376433e+07
2.427948e+06 6.731337e+06 1.6589389e+07 3.9297038e+06 1.4037916e+06 1.9808168e+07 2.1607838e+07 1.2133153e+07
3.287424e+06 1.3033394e+07 1.8347054e+07 3.1573892e+06 4.0131582e+06 1.4417204e+07 6.345059e+06 5.2341145e+06
00000000: 0e22 0d4b dd4c fa48 9313 fb4a ef10 444a
00000010: aea6 004b 1d77 384b f2ab 204b 5e12 004b
00000020: cecf 7b4a b946 914b fe9e 3e4b 8174 1f4b
00000030: 9e2d bb4a 12e7 124b ee79 224b 3b5d 604a
00000040: 1095 3c4b 4c22 b949 0ac6 d84a bd01 ba4a
00000050: 834d 854a 99e8 164b 19bf 844b fb33 2b4a
00000060: 62d2 2b4b 8c05 064b a6ea 554b b506 0d4a
00000070: 0ebb 824a 85b2 bd4a fcef 3e4a 772d 9d4b
00000080: 6a58 134b cc42 9a4a 62af be4b 4f9b 8d4b
00000090: 5cbf f34a 462d 344a bf3e b84b cc4e c94a
000000a0: d59e 994a ea3d fb4a eab3 b74a 4c2b 4b4a
000000b0: 7d3c 9e4b af0c 264b caf0 784b 31a0 6a4b
000000c0: b030 144a 926c cd4a 4d22 7d4b 9fd9 6f4a
000000d0: 7d5c ab49 d41f 974b cfda a44b 2123 394b
000000e0: 00a6 484a b2df 464b 17fa 8b4b 35b6 404a
000000f0: 99f1 744a 34fd 5b4b c6a2 c14a 85bb 9f4a

bn2.weight f4 [64]
0.9608891 1.0022701 1.0022596 0.9832849 0.9623334 0.97551566 1.0125984 0.93480146
0.9954876 0.9954438 0.99575686 0.9986366 1.0023718 0.98342687 0.9516835 0.9675775
0.9688909 0.99448085 0.988311 0.9828434 0.9387533 0.9732244 0.95861554 0.9908048
0.9605114 1.0052298 0.93075216 1.0060165 0.97423977 0.9797957 0.97177815 0.9748474
0.9605831 0.97538376 0.98248005 0.9471454 1.0154452 0.9640623 0.9702349 0.9733311
0.99094194 0.98989666 0.9461223 0.98665774 0.9916441 0.9753286 0.98170185 0.98485965
0.99528426 0.9559046 0.9627394 0.99198735 1.0243245 0.9832223 0.9958192 0.9461388
0.970681 0.9711228 1.013368 0.9924488 0.9737121 0.9785843 1.0313987 0.96669465
00000000: d4fc 753f 634a 803f 0b4a 803f 8fb8 7b3f
00000010: 7b5b 763f 65bb 793f d39c 813f 264f 6f3f
00000020: 46d8 7e3f 68d5 7e3f ece9 7e3f a6a6 7f3f
00000030: b84d 803f ddc1 7b3f 88a1 733f 29b3 773f
00000040: 3c09 783f 4c96 7e3f f301 7d3f a09b 7b3f
00000050: 2352 703f 3c25 793f d467 753f 62a5 7d3f
00000060: 13e4 753f 5fab 803f c645 6e3f 26c5 803f
00000070: c767 793f e4d3 7a3f 74c6 783f 998f 793f
00000080: c6e8 753f c0b2 793f d083 7b3f 1f78 723f
00000090: 1cfa 813f c9cc 763f 5061 783f 3a2c 793f
000000a0: 5fae 7d3f de69 7d3f 1235 723f 9a95 7c3f
000000b0: 63dc 7d3f 23af 793f d050 7b3f c31f 7c3f
000000c0: f3ca 7e3f 2ab6 743f 1776 763f e2f2 7d3f
000000d0: 111d 833f 75b4 7b3f 02ee 7e3f 2736 723f
000000e0: 8d7e 783f 819b 783f 0bb6 813f 2011 7e3f
000000f0: 3245 793f 8084 7a3f df04 843f 4d79 773f

bn2.bias f4 [64]
0.03952024 -0.02274887 -0.016614212 0.019610351 -0.018058749 -0.013000451 -0.016272565 -0.037320215
-0.020476107 0.05202745 0.004491037 -0.011125931 -0.0013684408 -0.022482911 -0.020476485 0.03166333
0.0018502087 -0.09171423 -0.0058639687 0.015795369 -0.003795379 0.0034417112 0.040489007 -0.014945661
-0.024934158 0.040652845 -0.042383466 -0.016202744 -0.058178972 0.011348057 -0.035139576 -0.009458294
-0.046510555 -0.056848317 0.036064453 -0.0289237 -0.0015350402 -0.02176779 0.027288897 0.002976402
0.0075334264 -0.032579895 -0.018320069 -0.02737444 -0.004611196 -0.0041002 -0.041700147 -0.005859302
0.0006663285 -0.038328458 0.02155335 -0.017122537 0.021838373 -0.0062096044 0.0047544264 -0.031231657
0.0031620825 -0.061174285 -0.045840945 0.04375713 0.0021992181 -0.052884307 -0.01922446 -0.022265365
00000000: fadf 213d d75b babc 871a 88bc e3a5 a03c
00000010: f1ef 93bc d8ff 54bc 0b4e 85bc 15dd 18bd
00000020: 82bd a7bc bc1a 553d 8d29 933b 8949 36bc
00000030: 415d b3ba 152e b8bc 4dbe a7bc 68b1 013d
00000040: b482 f23a acd4 bbbd 8926 c0bb 4a65 813c
00000050: e5bb 78bb 558e 613b cdd7 253d a5de 74bc
00000060: b842 ccbc 9983 263d 499a 2dbd 9ebb 84bc
00000070: 134d 6ebd 33ed 393c 84ee 0fbd f6f6 1abc
00000080: da81 3ebd c8d9 68bd 52b8 133d 65f1 ecbc
00000090: 6733 c9ba 5d52 b2bc f78c df3c bd0f 433b
000000a0: f6da f63b 7f72 05bd f813 96bc 5d40 e0bc
000000b0: 8419 97bb f85a 86bb c6cd 2abd 63ff bfbb
000000c0: 8cac 2e3a 4dfe 1cbd a790 b03c 9044 8cbc
000000d0: 63e6 b23c f079 cbbb 05cb 9b3b 88d9 ffbc
000000e0: f13a 4f3b e391 7abd b7c3 3bbd ad3a 333d
000000f0: c220 103b 379d 58bd 9d7c 9dbc db65 b6bc

bn2.running_mean f4 [64]
-0.17958786 0.07850964 0.07758614 -0.19709377 -0.03120616 0.2298859 0.22606571 0.13888992
0.1853012 -0.51544356 0.36673865 0.5193929 -0.03452905 0.11162176 0.7220107 -0.41621467
0.6287294 0.36329252 -0.17718557 -0.15936807 0.43854818 -0.18101855 -0.19250184 0.20772997
-0.031700015 -0.1550896 0.03436595 0.19149648 0.309918 0.024672909 -0.31658983 0.23838593
0.52691704 0.56129414 -0.28251806 -0.17665072 -0.16932827 -0.6228838 -0.037677787 0.14470704
0.014132019 0.36259297 -0.25838447 0.2321832 0.27035785 -0.06446905 0.24937688 0.16135418
0.08241285 0.13744949 -0.30403277 0.024527686 0.06892171 0.14022668 -0.42842737 0.33320805
0.04594788 0.3608302 0.15179484 -0.60464823 -0.30903003 0.079808086 -0.49444103 -0.020648398
00000000: e1e5 37be aac9 a03d 7be5 9e3d f3d2 49be
00000010: 10a4 ffbc 3667 6b3e c57d 673e 2939 0e3e
00000020: 99bf 3d3e 1cf4 03bf 2bc5 bb3e eff6 043f
00000030: 556e 0dbd f399 e43d b1d5 383f 171a d5be
00000040: 69f4 203f 7a01 ba3e 2270 35be 6231 23be
00000050: 6389 e03e ed5c 39be 341f 45be 2ab7 543e
00000060: e0d7 01bd cfcf 1ebe 4fc3 0c3d a717 443e
00000070: 92ad 9e3e d71e ca3c 1018 a2be 711b 743e
00000080: 09e4 063f f9b0 0f3f 35a6 90be ede3 34be
00000090: 6464 2dbe 5075 1fbf 0654 1abd 152e 143e
000000a0: fc89 673c c9a5 b93e f84a 84be 6fc1 6d3e
000000b0: 586c 8a3e 5908 84bd a75c 7f3e 083a 253e
000000c0: 11c8 a83d 8fbf 0c3e 2faa 9bbe 49ee c83c
000000d0: d326 8d3d 9597 0f3e d55a dbbe 3f9a aa3e
000000e0: d833 3c3d bcbe b83e 1b70 1b3e 3aca 1abf
000000f0: 2f39 9ebe 6c72 a33d 6027 fdbe d426 a9bc

bn2.running_var f4 [64]
0.14058156 0.12103405 0.07209787 0.10545671 0.1967126 0.17442971 0.08998882 0.4162594
0.062071044 0.08739646 0.07398714 0.08701585 0.062892 0.055573083 0.1453915 0.18144771
0.17911938 0.076440275 0.0978196 0.17130816 0.13610877 0.20266268 0.1254617 0.08160056
0.07586582 0.047563445 0.24071206 0.08221208 0.08719351 0.15297022 0.17387775 0.3636878
0.14766115 0.15351318 0.23715964 0.2690566 0.083258644 0.22886313 0.28373137 0.1275062
0.19223192 0.1229472 0.17662428 0.075937465 0.047142085 0.17429714 0.060909424 0.097965956
0.08367079 0.13404067 0.09165968 0.11535512 0.034634694 0.21343584 0.243533 0.19714044
0.08277536 0.062321544 0.05043789 0.17062171 0.17154318 0.16440123 0.121227294 0.25903833
00000000: 9df4 0f3e b3e0 f73d 0ca8 933d b0f9 d73d
00000010: 076f 493e b49d 323e 0f4c b83d f41f d53e
00000020: 353e 7e3d eafc b23d 9286 973d 5e35 b23d
00000030: 85cd 803d 9aa0 633d 82e1 143e 6ecd 393e
00000040: 126b 373e b88c 9c3d a455 c83d 686b 2f3e
00000050: 1960 0b3e ce86 4f3e 0879 003e 321e a73d
00000060: 8a5f 9b3d e3d1 423d 397d 763e cf5e a83d
00000070: 8392 b23d 3aa4 1c3e 020d 323e 4a35 ba3e
00000080: 7c34 173e 8f32 1d3e fad9 723e c9c1 893e
00000090: 8283 aa3d 195b 6a3e 3d45 913e fc90 023e
000000a0: 72d8 443e becb fb3d ffdc 343e 1a85 9b3d
000000b0: 0f18 413d f37a 323e 297c 793d 60a2 c83d
000000c0: 975b ab3d f541 093e 12b8 bb3d 4e3f ec3d
000000d0: 1cdd 0d3d ed8e 5a3e b760 793e 2fdf 493e
000000e0: 2186 a93d e044 7f3d f697 4e3d 75b7 2e3e
000000f0: 04a9 2f3e cc58 283e 0446 f83d aca0 843e

bn3.weight f4 [64]
0.94307876 0.9919139 0.9928888 0.93177253 0.9536304 0.98547536 0.9477282 0.97990596
0.96191084 1.0027928 1.0055866 0.99945587 0.90236264 1.0078496 0.9499587 0.9690306
0.9701701 1.0019417 0.98291475 0.9580311 0.9778149 1.0013155 1.0040493 0.9892103
0.9624616 0.98485047 0.9601181 1.0430145 0.99584997 0.94601434 0.98941505 0.9759248
1.0306274 0.9677545 0.9783492 0.98303807 0.9737543 0.9485734 0.9737801 0.98167264
0.9794273 1.016618 0.9430654 0.9445878 0.9735026 1.0230858 0.9419717 1.046139
0.9694326 0.9198943 0.9893472 0.97010934 0.987119 1.000314 0.9365351 0.99662894
0.962709 0.9544627 0.9838489 0.9903641 0.96029425 0.9821518 0.9680605 0.9735085
00000000: 9c6d 713f 12ee 7d3f f62d 7e3f a588 6e3f
00000010: 1f21 743f 1d48 7c3f 519e 723f 1edb 7a3f
00000020: ca3f 763f 845b 803f 10b7 803f 57dc 7f3f
00000030: 3d01 673f 3701 813f 7e30 733f 6412 783f
00000040: 115d 783f a03f 803f 4da0 7b3f 8741 753f
00000050: 1452 7a3f 1b2b 803f b084 803f e33c 7d3f
00000060: e263 763f 291f 7c3f 4dca 753f 8081 853f
00000070: 06f0 7e3f ff2d 723f 4e4a 7d3f 35d6 793f
00000080: 99eb 833f c2be 773f 1875 7a3f 62a8 7b3f
00000090: f647 793f b5d5 723f a749 793f e64e 7b3f
000000a0: bfbb 7a3f 8a20 823f bc6c 713f 82d0 713f
000000b0: 7737 793f 7af4 823f 0f25 713f e2e7 853f
000000c0: bc2c 783f 317e 6b3f dc45 7d3f 1659 783f
000000d0: d5b3 7c3f 4a0a 803f c4c0 6f3f 1323 7f3f
000000e0: 1974 763f ab57 743f 86dd 7b3f 8088 7d3f
000000f0: d8d5 753f 4d6e 7b3f d0d2 773f da37 793f

bn3.bias f4 [64]
-0.022079429 -0.02190708 -0.029294098 -0.026811276 -0.031257946 -0.03081264 -0.00539104 -0.061031967
0.001831633 0.009706244 0.050046816 0.02606512 -0.046316974 0.030177696 -0.0015208864 0.009528099
-0.032504458 0.026701467 0.016771985 -0.015244202 -0.032548696 0.03659186 0.020755304 0.0042756856
-0.0036004407 -0.051476046 -0.021428682 0.040749762 -0.015254745 0.006978253 -0.022395257 0.0023105454
-0.018355122 -0.01581344 -0.043806408 -0.024546787 -0.018322194 -0.027116135 -0.021760998 0.0018266421
0.031356853 -0.024474125 0.014528675 -0.02583783 -0.020609068 -0.025842594 -0.036951218 0.011408773
0.02364017 0.014660017 -0.018545004 -0.012981349 -0.01684517 -0.039019004 -0.039387163 0.08714165
0.014561749 -0.029798718 -0.030217621 0.016276706 -0.019210454 -0.028806673 -0.015526516 -0.043106683
00000000: ebdf b4bc 7a76 b3bc 2dfa efbc 52a3 dbbc
00000010: 5508 00bd ca6a fcbc 52a7 b0bb a8fc 79bd
00000020: 6813 f03a f006 1f3c e4fd 4c3d 8586 d53c
00000030: deb6 3dbd 3737 f73c 7b58 c7ba be1b 1c3c
00000040: 6523 05bd 09bd da3c 6765 893c d1c2 79bc
00000050: c851 05bd 59e1 153d 0707 aa3c 0d1b 8c3b
00000060: 5ff5 6bbb 8cd8 52bd 348b afbc 39e9 263d
00000070: 0aef 79bc d4a9 e43b 4276 b7bc 856c 173b
00000080: 7b5d 96bc 308b 81bc 596e 33bd 5816 c9bc
00000090: 6d18 96bc a822 debc 1f44 b2bc f06b ef3a
000000a0: 0b70 003d f67d c8bc ae09 6e3c dba9 d3bc
000000b0: 59d4 a8bc d9b3 d3bc 295a 17bd ddeb 3a3c
000000c0: 08a9 c13c 9130 703c b1eb 97bc b9af 54bc
000000d0: e2fe 89bc 64d2 1fbd 6f54 21bd 5277 b23d
000000e0: 6794 6e3c 711c f4bc f28a f7bc ba56 853c
000000f0: 3e5f 9dbc f9fb ebbc ee62 7ebc a290 30bd

bn3.running_mean f4 [64]
-0.5009785 0.3020438 0.35699964 0.48788348 -0.38256276 -0.23430635 0.37799653 0.36176452
0.23527324 0.08109435 0.04404604 -0.20867154 -0.20264187 0.61612326 -0.23611248 -0.69825894
0.25278056 0.22679374 0.4315063 -0.46122113 0.32395893 -0.13985094 -0.16430137 0.077131204
0.54353297 0.14841352 0.36342344 -0.60768825 -0.2100564 -0.31392625 0.3734358 -0.47748655
0.16278982 0.06875747 0.3257986 0.409235 0.23666207 0.49254063 -0.25169933 -0.16690683
0.10888037 0.104244106 -0.68626994 -0.272103 -0.2673814 -0.83403516 -0.09127329 -0.41000167
-0.29000738 0.6270973 -0.021915358 -0.53152686 0.37150064 0.3617809 -0.039278295 -0.1355239
-0.14165397 0.083434716 0.13981217 0.073681295 -0.05757286 -0.13493164 0.43100855 -0.15796247
00000000: 2140 00bf 7ca5 9a3e a8c8 b63e ddcb f93e
00000010: 44df c3be 01ee 6fbe c388 c13e 3339 b93e
00000020: 78eb 703e cb14 a63d 9f69 343d fead 55be
00000030: 5a81 4fbe 41ba 1d3f 78c7 71be 19c1 32bf
00000040: 746c 813e 9e3c 683e 65ee dc3e 2d25 ecbe
00000050: f2dd a53e 1635 0fbe 9e3e 28be f7f6 9d3d
00000060: fa24 0b3f b7f9 173e a312 ba3e 7591 1bbf
00000070: 0619 57be f1ba a0be fa32 bf3e 1e79 f4be
00000080: 60b2 263e b7d0 8c3d 13cf a63e 4087 d13e
00000090: 8b57 723e 492e fc3e bcde 80be a0e9 2abe
000000a0: acfc de3d ef7d d53d 63af 2fbf 1651 8bbe
000000b0: 37e6 88be 5483 55bf 7eed babd bdeb d1be
000000c0: d97b 94be 7389 203f d687 b3bc 2512 08bf
000000d0: 5535 be3e 593b b93e 47e2 20bd c7c6 0abe
000000e0: bd0d 11be d2df aa3d ec2a 0f3e 38e6 963d
000000f0: 85d1 6bbd 852b 0abe 27ad dc3e eac0 21be

bn3.running_var f4 [64]
0.23858857 0.16587815 0.18981919 0.1494411 0.16171496 0.20023379 0.35826412 0.19101116
0.17065561 0.19030298 0.13083783 0.17544568 0.5440986 0.24677095 0.12804331 0.25418594
0.3221398 0.11644629 0.18716832 0.15255399 0.1266337 0.13097294 0.14793262 0.15554117
0.34599513 0.15472512 0.17831749 0.3712947 0.21538982 0.28795168 0.27353913 0.21903223
0.16597429 0.16265838 0.20577379 0.25436172 0.1386192 0.30066338 0.17999838 0.14712152
0.12234387 0.20001094 0.6332877 0.26076767 0.14566734 0.24219266 0.25799683 0.17006607
0.15391557 0.3772344 0.16966836 0.52439964 0.28610718 0.38418895 0.17717455 0.09900501
0.15741584 0.08737762 0.11651202 0.2207733 0.22232291 0.19504714 0.24168645 0.16381565
00000000: 9050 743e f6db 293e f65f 423e 1607 193e
00000010: 9b98 253e 160a 4d3e 656e b73e 6e98 433e
00000020: 58c0 2e3e c9de 423e 5afa 053e 08a8 333e
00000030: 0c4a 0b3f 86b1 7c3e c91d 033e a924 823e
00000040: 82ef a43e 647b ee3d 0da9 3f3e 1d37 1c3e
00000050: 44ac 013e c51d 063e a67b 173e 2f46 1f3e
00000060: 4626 b13e 4370 1e3e dc98 363e 571a be3e
00000070: 268f 5c3e 676e 933e 520d 8c3e fc49 603e
00000080: 2af5 293e eb8f 263e 5db6 523e b33b 823e
00000090: 31f2 0d3e 8df0 993e 7f51 383e 06a7 163e
000000a0: 6c8f fa3d abcf 4c3e 251f 223f 5783 853e
000000b0: d229 153e 5a01 783e 2918 843e cd25 2e3e
000000c0: 0b9c 1d3e de24 c13e 8bbd 2d3e 0e3f 063f
000000d0: a47c 923e 6ab4 c43e 3f6d 353e 24c3 ca3d
000000e0: 9e31 213e 0af3 b23d db9d ee3d 6512 623e
000000f0: 9ea8 633e 70ba 473e a77c 773e 4abf 273e

bn4.weight f4 [64]
1.0195504 0.99277395 0.9991675 0.92548716 0.91091853 0.9871133 0.982044 0.9562435
1.0031165 1.0192174 0.9155708 0.9943259 1.0413129 0.9517237 0.9022719 0.98942924
1.0504241 0.9960821 0.9534338 0.9706897 0.9615661 1.0191342 0.95121765 0.9965815
0.9804776 0.99540675 0.9957242 0.963913 0.9882709 0.98045343 1.0243648 1.0502061
0.9305003 0.9036051 0.93512034 0.94367605 0.96991485 0.9841282 0.8339434 0.99386597
0.9109257 0.97309 0.85792726 0.96088016 0.99173015 0.8990999 0.952779 1.0032094
0.9876134 0.9343071 0.96434855 1.0121038 0.9957351 1.0165085 1.0097871 0.99511504
1.0118767 0.9897187 0.93380266 0.952408 0.9993046 1.0481901 0.94186777 0.99619025
00000000: a180 823f 6f26 7e3f 71c9 7f3f baec 6c3f
00000010: f531 693f 75b3 7c3f 3c67 7b3f 60cc 743f
00000020: 1f66 803f b775 823f d962 6a3f 248c 7e3f
00000030: be49 853f 2aa4 733f 4bfb 663f 3c4b 7d3f
00000040: 4c74 863f 3dff 7e3f 3d14 743f 1f7f 783f
00000050: 3229 763f fd72 823f 0083 733f f71f 7f3f
00000060: 9400 7b3f fad2 7e3f c8e7 7e3f 01c3 763f
00000070: 52ff 7c3f fffe 7a3f 631e 833f 276d 863f
00000080: 4535 6e3f aa52 673f 0c64 6f3f c194 713f
00000090: 574c 783f d3ef 7b3f 517d 553f 006e 7e3f
000000a0: 6d32 693f 6d1c 793f 1fa1 5b3f 3efc 753f
000000b0: 07e2 7d3f 692b 663f 53e9 733f 2a69 803f
000000c0: 3bd4 7c3f c02e 6f3f 8cdf 763f 9e8c 813f
000000d0: 7fe8 7e3f f31c 823f b440 813f dcbf 7e3f
000000e0: 2d85 813f 345e 7d3f b10d 6f3f 03d1 733f
000000f0: 6dd2 7f3f 182b 863f 3f1e 713f 5306 7f3f

bn4.bias f4 [64]
0.0073335273 0.0073459814 0.028043158 -0.027484886 -0.019704122 0.037611395 -0.0012699188 0.0437226
0.0030976273 0.025068725 -0.0035797928 0.004297852 0.03526831 0.01465859 -0.02859505 -0.0031167876
0.021744233 0.036541305 0.040379453 -0.025652267 -0.0006879876 0.023613885 -0.017060915 0.018381424
0.0042844815 0.024871016 -0.023612646 0.017485822 -0.020548047 0.002364229 -0.025043955 0.02824297
-0.012484625 -0.024830975 -0.004702876 -0.03097323 0.005665963 0.0007851843 0.016571488 0.007589705
0.003473331 0.0069827363 -0.014180117 -0.028918147 0.013921365 0.0050509516 -0.02186069 0.019629464
-0.028178643 0.008486477 -0.029321669 0.014519219 0.03860117 0.008392612 0.02539139 0.0025147772
0.044537034 0.03511487 -0.029848412 -0.026046352 0.012140174 -0.011863071 0.009922343 -0.03400962
00000000: 164e f03b 8fb6 f03b c4ba e53c fc27 e1bc
00000010: 8a6a a1bc 680e 1a3d 6773 a6ba 7816 333d
00000020: 9001 4b3b ed5c cd3c f59a 6abb ffd4 8c3b
00000030: 8175 103d 952a 703c 2b40 eabc 0543 4cbb
00000040: f620 b23c 56ac 153d ed64 253d b424 d2bc
00000050: 115a 34ba e871 c13c 55c3 8bbc a494 963c
00000060: d664 8c3b 4dbe cb3c 4f6f c1bc 6d3e 8f3c
00000070: 6154 a8bc 2ef1 1a3b fb28 cdbc cd5d e73c
00000080: 508c 4cbc 546a cbbc 951a 9abb 92bb fdbc
00000090: 8ba9 b93b d4d4 4d3a eec0 873c 0fb3 f83b
000000a0: d3a0 633b 70cf e43b b953 68bc c0e5 ecbc
000000b0: 7016 643c 7482 a53b 3115 b3bc f8cd a03c
000000c0: e6d6 e6bc dd0a 0b3c ff33 f0bc 05e2 6d3c
000000d0: 431c 1e3d 2b81 093c 9b01 d03c f6ce 243b
000000e0: 776c 363d 9cd4 0f3d a884 f4bc 295f d5bc
000000f0: 95e7 463c 535d 42bc 5391 223c ac4d 0bbd

bn4.running_mean f4 [64]
-0.22944963 -0.378041 0.2255086 -0.4979305 -0.0025300558 -0.14558361 0.3230812 0.03749451
0.09372046 0.028993936 0.06844376 0.2545254 0.17293131 0.1548308 0.23832075 -0.036120724
-0.40324584 0.22557168 -0.36350647 0.022215128 0.05381272 0.1850506 0.34190077 0.28437406
0.27419588 0.07833624 -0.27406812 -0.117278144 0.06324439 0.33777693 0.23992471 -0.121412955
-0.7159306 -0.13777837 0.1319773 0.3002121 -0.079468444 0.15447932 -0.28081563 0.046519488
0.26976877 0.35464835 -0.24236901 -0.066862896 0.10785899 -0.22271402 0.08102864 -0.09860495
0.055704806 0.30583525 0.37075952 -0.23811877 0.11546921 0.44375935 0.2980076 0.38346133
0.022597603 -0.1222202 0.17073148 0.03964449 0.13675934 -0.63976175 0.49346328 0.16449027
00000000: d8f4 6abe 978e c1be baeb 663e bff0 febe
00000010: 4bcf 25bb df13 15be e66a a53e d893 193d
00000020: 83f0 bf3d b184 ed3c 3e2c 8c3d 2751 823e
00000030: e814 313e f78b 1e3e 5b0a 743e 53f3 13bd
00000040: 3d76 cebe 43fc 663e 851d babe 80fc b53c
00000050: ba6a 5c3d e87d 3d3e 9e0d af3e 7a99 913e
00000060: 6763 8c3e c06e a03d a852 8cbe 862f f0bd
00000070: 4686 813d 19f1 ac3e d3ae 753e 5ba7 f8bd
00000080: 3a47 37bf c615 0dbe 0f25 073e 66b5 993e
00000090: 5ac0 a2bd d42f 1e3e 11c7 8fbe 388b 3e3d
000000a0: 221f 8a3e 7894 b53e 952f 78be 6aef 88bd
000000b0: 2de5 dc3d 250f 64be 58f2 a53d 64f1 c9bd
000000c0: b92a 643d 7096 9c3e 31d4 bd3e 68d5 73be
000000d0: 1f7b ec3d 6d34 e33e 7494 983e 0b55 c43e
000000e0: 9c1e b93c 964e fabd 3cd4 2e3e 4362 223d
000000f0: a40a 0c3e 6dc7 23bf 38a7 fc3e 2370 283e

bn4.running_var f4 [64]
0.21029158 0.25579262 0.13304558 0.2920208 0.09198056 0.14361167 0.15193568 0.14332071
0.18204884 0.17903568 0.18073179 0.113218576 0.14906864 0.13406092 0.22483869 0.111541055
0.17762104 0.14168787 0.19343977 0.18893035 0.15778922 0.1421454 0.22686712 0.13629705
0.17400159 0.14756525 0.49366584 0.16434216 0.124231935 0.25013217 0.12848699 0.17090374
0.5030054 0.14381433 0.193933 0.14037293 0.22078237 0.17167188 0.1867042 0.13767873
0.2072803 0.12044623 0.19464032 0.11564426 0.15084934 0.13651597 0.14151049 0.12142847
0.12504338 0.18566091 0.1616162 0.27761748 0.122293144 0.14444125 0.1322518 0.1502444
0.112549275 0.11096883 0.15907225 0.13337322 0.15957575 0.549435 0.23155566 0.14830613
00000000: ad56 573e 40f7 823e 1a3d 083e c083 953e
00000010: 4e60 bc3d f00e 133e 0795 1b3e aac2 123e
00000020: 036b 3a3e 2155 373e c111 393e 24df e73d
00000030: 73a5 183e 4447 093e 1d3c 663e a36f e43d
00000040: 4ae2 353e a016 113e 1315 463e f576 413e
00000050: 7f93 213e 908e 113e db4f 683e 7491 0b3e
00000060: 792d 323e 581b 173e c5c1 fc3e 5049 283e
00000070: 506d fe3d 5311 803e 1892 033e 6401 2f3e
00000080: f6c4 003f 1044 133e 5f96 463e ecbd 0f3e
00000090: c614 623e c1ca 2f3e 632f 3f3e a7fb 0c3e
000000a0: 4941 543e 83ac f63d cb4f 473e e6d6 ec3d
000000b0: 4078 1a3e d8ca 0b3e 20e8 103e 7daf f83d
000000c0: 5f0b 003e e51d 3e3e b87e 253e e123 8e3e
000000d0: d474 fa3d 68e8 133e 046d 073e abd9 193e
000000e0: 3c80 e63d a043 e33d d6e3 223e fd92 083e
000000f0: d367 233e c6a7 0c3f ed1c 6d3e 90dd 173e

bn5.weight f4 [64]
1.0 1.0 1.0 1.0 1.0 1.0 1.0 1.0
1.0 1.0 1.0 1.0 1.0 1.0 1.0 1.0
1.0 1.0 1.0 1.0 1.0 1.0 1.0 1.0
1.0 1.0 1.0 1.0 1.0 1.0 1.0 1.0
1.0 1.0 1.0 1.0 1.0 1.0 1.0 1.0
1.0 1.0 1.0 1.0 1.0 1.0 1.0 1.0
1.0 1.0 1.0 1.0 1.0 1.0 1.0 1.0
1.0 1.0 1.0 1.0 1.0 1.0 1.0 1.0
00000000: 0000 803f 0000 803f 0000 803f 0000 803f
00000010: 0000 803f 0000 803f 0000 803f 0000 803f
00000020: 0000 803f 0000 803f 0000 803f 0000 803f
00000030: 0000 803f 0000 803f 0000 803f 0000 803f
00000040: 0000 803f 0000 803f 0000 803f 0000 803f
00000050: 0000 803f 0000 803f 0000 803f 0000 803f
00000060: 0000 803f 0000 803f 0000 803f 0000 803f
00000070: 0000 803f 0000 803f 0000 803f 0000 803f
00000080: 0000 803f 0000 803f 0000 803f 0000 803f
00000090: 0000 803f 0000 803f 0000 803f 0000 803f
000000a0: 0000 803f 0000 803f 0000 803f 0000 803f
000000b0: 0000 803f 0000 803f 0000 803f 0000 803f
000000c0: 0000 803f 0000 803f 0000 803f 0000 803f
000000d0: 0000 803f 0000 803f 0000 803f 0000 803f
000000e0: 0000 803f 0000 803f 0000 803f 0000 803f
000000f0: 0000 803f 0000 803f 0000 803f 0000 803f

bn5.bias f4 [64]
0.0 0.0 0.0 0.0 0.0 0.0 0.0 0.0
0.0 0.0 0.0 0.0 0.0 0.0 0.0 0.0
0.0 0.0 0.0 0.0 0.0 0.0 0.0 0.0
0.0 0.0 0.0 0.0 0.0 0.0 0.0 0.0
0.0 0.0 0.0 0.0 0.0 0.0 0.0 0.0
0.0 0.0 0.0 0.0 0.0 0.0 0.0 0.0
0.0 0.0 0.0 0.0 0.0 0.0 0.0 0.0
0.0 0.0 0.0 0.0 0.0 0.0 0.0 0.0
00000000: 0000 0000 0000 0000 0000 0000 0000 0000
00000010: 0000 0000 0000 0000 0000 0000 0000 0000
00000020: 0000 0000 0000 0000 0000 0000 0000 0000
00000030: 0000 0000 0000 0000 0000 0000 0000 0000
00000040: 0000 0000 0000 0000 0000 0000 0000 0000
00000050: 0000 0000 0000 0000 0000 0000 0000 0000
00000060: 0000 0000 0000 0000 0000 0000 0000 0000
00000070: 0000 0000 0000 0000 0000 0000 0000 0000
00000080: 0000 0000 0000 0000 0000 0000 0000 0000
00000090: 0000 0000 0000 0000 0000 0000 0000 0000
000000a0: 0000 0000 0000 0000 0000 0000 0000 0000
000000b0: 0000 0000 0000 0000 0000 0000 0000 0000
000000c0: 0000 0000 0000 0000 0000 0000 0000 0000
000000d0: 0000 0000 0000 0000 0000 0000 0000 0000
000000e0: 0000 0000 0000 0000 0000 0000 0000 0000
000000f0: 0000 0000 0000 0000 0000 0000 0000 0000

bn5.running_mean f4 [64]
0.0 0.0 0.0 0.0 0.0 0.0 0.0 0.0
0.0 0.0 0.0 0.0 0.0 0.0 0.0 0.0
0.0 0.0 0.0 0.0 0.0 0.0 0.0 0.0
0.0 0.0 0.0 0.0 0.0 0.0 0.0 0.0
0.0 0.0 0.0 0.0 0.0 0.0 0.0 0.0
0.0 0.0 0.0 0.0 0.0 0.0 0.0 0.0
0.0 0.0 0.0 0.0 0.0 0.0 0.0 0.0
0.0 0.0 0.0 0.0 0.0 0.0 0.0 0.0
00000000: 0000 0000 0000 0000 0000 0000 0000 0000
00000010: 0000 0000 0000 0000 0000 0000 0000 0000
00000020: 0000 0000 0000 0000 0000 0000 0000 0000
00000030: 0000 0000 0000 0000 0000 0000 0000 0000
00000040: 0000 0000 0000 0000 0000 0000 0000 0000
00000050: 0000 0000 0000 0000 0000 0000 0000 0000
00000060: 0000 0000 0000 0000 0000 0000 0000 0000
00000070: 0000 0000 0000 0000 0000 0000 0000 0000
00000080: 0000 0000 0000 0000 0000 0000 0000 0000
00000090: 0000 0000 0000 0000 0000 0000 0000 0000
000000a0: 0000 0000 0000 0000 0000 0000 0000 0000
000000b0: 0000 0000 0000 0000 0000 0000 0000 0000
000000c0: 0000 0000 0000 0000 0000 0000 0000 0000
000000d0: 0000 0000 0000 0000 0000 0000 0000 0000
000000e0: 0000 0000 0000 0000 0000 0000 0000 0000
000000f0: 0000 0000 0000 0000 0000 0000 0000 0000

bn5.running_var f4 [64]
1.0 1.0 1.0 1.0 1.0 1.0 1.0 1.0
1.0 1.0 1.0 1.0 1.0 1.0 1.0 1.0
1.0 1.0 1.0 1.0 1.0 1.0 1.0 1.0
1.0 1.0 1.0 1.0 1.0 1.0 1.0 1.0
1.0 1.0 1.0 1.0 1.0 1.0 1.0 1.0
1.0 1.0 1.0 1.0 1.0 1.0 1.0 1.0
1.0 1.0 1.0 1.0 1.0 1.0 1.0 1.0
1.0 1.0 1.0 1.0 1.0 1.0 1.0 1.0
00000000: 0000 803f 0000 803f 0000 803f 0000 803f
00000010: 0000 803f 0000 803f 0000 803f 0000 803f
00000020: 0000 803f 0000 803f 0000 803f 0000 803f
00000030: 0000 803f 0000 803f 0000 803f 0000 803f
00000040: 0000 803f 0000 803f 0000 803f 0000 803f
00000050: 0000 803f 0000 803f 0000 803f 0000 803f
00000060: 0000 803f 0000 803f 0000 803f 0000 803f
00000070: 0000 803f 0000 803f 0000 803f 0000 803f
00000080: 0000 803f 0000 803f 0000 803f 0000 803f
00000090: 0000 803f 0000 803f 0000 803f 0000 803f
000000a0: 0000 803f 0000 803f 0000 803f 0000 803f
000000b0: 0000 803f 0000 803f 0000 803f 0000 803f
000000c0: 0000 803f 0000 803f 0000 803f 0000 803f
000000d0: 0000 803f 0000 803f 0000 803f 0000 803f
000000e0: 0000 803f 0000 803f 0000 803f 0000 803f
000000f0: 0000 803f 0000 803f 0000 803f 0000 803f

conv1.0.weight f4 [64, 6, 1, 1]
-0.036276482 -0.34759855 -0.21138322 0.21459521 -0.09965317 -0.25687912 0.13152376 0.11757069
0.43354598 -0.032968 0.06265016 0.012752387 0.05245963 0.19781622 -0.14877477 0.2960379
-0.18962911 -0.19011743 0.01947345 -0.011136499 -0.0037429747 -0.14586721 0.2588495 -0.044114344
-0.16017196 0.40736863 0.21290071 0.29267848 -0.2898479 0.14694713 0.0025335464 -0.10892608
-0.023326412 -0.29811218 0.06470683 -0.28409562 0.074708395 -0.26347697 -0.27097455 0.30601928
-0.2490748 -0.22025135 0.03376004 0.05006582 -0.187011 -0.084541425 -0.28132498 -0.2038721
-0.39024213 0.20898947 -0.099758044 0.10756887 0.29042098 -0.0020904902 0.13577196 -0.116164334
0.20321056 -0.22565867 -0.24296683 -0.35131118 -0.32755566 -0.24765766 -0.15048689 0.026746878
-0.34188765 0.27309847 -0.122019164 -0.01355081 -0.24396122 0.43416458 -0.3531034 -0.0009231649
0.06076973 -0.12384778 0.40860322 -0.2650066 -0.22616917 -0.08123493 0.13200535 0.11361714
0.18492803 0.24632953 0.21600713 0.21513982 0.32608956 -0.22816566 0.19821352 -0.104243405
0.37700194 -0.2087227 0.050745416 0.04268867 0.26871565 0.026493931 -0.17794415 0.15368159
-0.36184654 -0.009767686 0.30791476 0.23781312 0.16467911 -0.2776522 -0.06354522 0.06112823
0.14129385 -0.017101469 0.13351484 -0.08683338 -0.0030752437 -0.12103026 -0.012798253 -0.3383146
0.29368922 -0.06764284 -0.1606812 -0.026094679 0.13252811 0.26671326 0.16115715 -0.14089258
0.40571776 -0.022236584 0.29530257 0.30174726 -0.11865148 -0.077433646 -0.087522276 -0.35382864
-0.15407753 -0.13685095 -0.048297595 -0.28369176 -0.0017578154 0.009988283 -0.1773733 -0.19194628
-0.23524828 0.35366625 0.21245274 0.08462515 -0.098711476 0.18612112 -0.1047369 -0.10743806
0.22740504 -0.32487646 -0.10240868 -0.34311113 -0.3924286 0.021096084 0.34006083 0.14027177
-0.101663455 -0.16253728 0.10212162 0.2524675 -0.1395167 -0.35950032 0.184239 -0.328017
-0.39668548 0.18578087 -0.44385552 -0.124087356 -0.21897502 -2.0174752e-05 -0.076456726 0.12379072
-0.21051972 -0.45477608 -0.17144877 -0.26771876 0.10178313 -0.10540059 0.22223198 0.018943762
0.30275738 0.31240934 0.22980636 0.028620835 0.34704113 0.40294203 0.1068372 -0.03882107
-0.20003688 -0.08152268 -0.3517761 0.18848474 0.06387739 -0.34261167 0.29020268 0.35305786
0.050414555 -0.10746732 0.039422043 0.016637571 -0.40832964 -0.16362663 -0.4864894 0.23878846
-0.19935596 -0.33143413 0.1714192 -0.068436295 -0.33947167 -0.20224412 -0.18385613 -0.18690553
-0.40480974 -0.38190848 -0.06297997 0.36226407 -0.24168319 -0.29384536 0.37979716 -0.3246294
-0.035705477 0.1463711 0.31516284 -0.25499445 0.25205526 0.18156779 -0.10560863 -0.03465199
-0.016083749 0.08740599 0.2416983 -0.05097974 -0.02973923 -0.031187018 -0.14824566 0.34083867
0.31620586 0.36021516 0.10606653 -0.31560385 -0.17704944 0.032271825 0.39154196 -0.039667714
-0.27875093 -0.33977878 0.12942667 0.28075975 -0.07155355 0.13080029 -0.15038104 -0.084950395
-0.06688594 -0.18552424 -0.4047796 0.052555334 -0.17851768 0.18764839 0.25563407 -0.32200867
00000000: a696 14bd 70f8 b1be d874 58be d9be 5b3e
00000010: f616 ccbd a985 83be 2aae 063e e7c8 f03d
00000020: bdf9 dd3e 7409 07bd ba4e 803d 63ef 503c
00000030: e9df 563d 5690 4a3e 6a58 18be 4892 973e
00000040: 222e 42be 25ae 42be c986 9f3c dd75 36bc
00000050: b24c 75bb 375e 15be ec87 843e 3eb1 34bd
00000060: 1e04 24be 9f92 d03e a502 5a3e f4d9 953e
00000070: f266 94be 4f79 163e db09 263b a314 dfbd
00000080: 0817 bfbc 29a2 98be 0485 843d fb74 91be
00000090: b700 993d 74e6 86be 2dbd 8abe 8fae 9c3e
000000a0: 770d 7fbe 9289 61be f847 0a3d d111 4d3d
000000b0: d07f 3fbe 0e24 adbd d409 90be d9c3 50be
000000c0: d1cd c7be 5601 563e f24d ccbd 114d dc3d
000000d0: 0fb2 943e 9b00 09bb ce07 0b3e 91e7 edbd
000000e0: 6e16 503e 1113 67be 4ccc 78be 0fdf b3be
000000f0: 60b5 a7be f899 7dbe 3c19 1abe 451c db3c
00000100: e60b afbe 90d3 8b3e 2fe5 f9bd 3704 5ebc
00000110: f8d0 79be d24a de3e f8c9 b4be 8c00 72ba
00000120: aee9 783d e8a3 fdbd 7134 d13e f2ae 87be
00000130: e498 67be 805e a6bd 692c 073e 1ab0 e83d
00000140: c65d 3d3e cf3d 7c3e f930 5d3e 9d4d 5c3e
00000150: 36f5 a63e 42a4 69be 7cf8 4a3e 917d d5bd
00000160: 6606 c13e 67bb 55be 6dda 4f3d 51da 2e3d
00000170: 1995 893e cd09 d93c fe36 36be b55e 1d3e
00000180: f343 b9be a508 20bc 01a7 9d3e 4885 733e
00000190: a4a1 283e 6e28 8ebe ff23 82bd 9861 7a3d
000001a0: 56af 103e 6118 8cbc 1db8 083e b3d5 b1bd
000001b0: 078a 49bb b7de f7bd c4af 51bc 9237 adbe
000001c0: 6f5e 963e 5488 8abd 9d89 24be 82c4 d5bc
000001d0: 73b5 073e a48e 883e 6106 253e 2546 10be
000001e0: 3dba cf3e 7f29 b6bc e631 973e 9e7e 9a3e
000001f0: 8cff f2bd 8895 9ebd e13e b3bd 0729 b5be
00000200: 80c6 1dbe a822 0cbe b3d3 45bd 0c40 91be
00000210: 7f66 e6ba e5a5 233c 59a1 35be 918d 44be
00000220: ede4 70be be13 b53e 368d 593e f34f ad3d
00000230: 3e29 cabd 8996 3e3e 4d80 d6bd 7c08 dcbd
00000240: dedc 683e 3556 a6be a4bb d1bd 43ac afbe
00000250: 67ec c8be b2d1 ac3c 741c ae3e 67a3 0f3e
00000260: ee34 d0bd 2c70 26be 2425 d13d 6c43 813e
00000270: 77dd 0ebe 6d10 b8be 26a9 3c3e d8f1 a7be
00000280: 5c1a cbbe 573d 3e3e 0841 e3be 8321 febd
00000290: fd3a 60be f33c a9b7 5895 9cbd fd85 fd3d
000002a0: 7b92 57be 69d8 e8be 4490 2fbe 6f12 89be
000002b0: ac73 d03d 44dc d7bd c890 633e f32f 9b3c
000002c0: 0403 9b3e 1ef4 9f3e 5c52 6b3e 3e76 ea3c
000002d0: 60af b13e 6b4e ce3e 76cd da3d d802 1fbd
000002e0: 78d6 4cbe 5df5 a6bd ff1b b4be 2502 413e
000002f0: 26d2 823d cc6a afbe 7295 943e 00c4 b43e
00000300: 7e7f 4e3d d417 dcbd 0279 213d 844b 883c
00000310: 9510 d1be bd8d 27be 2315 f9be f684 743e
00000320: f823 4cbe bcb1 a9be 8488 2f3e 5428 8cbd
00000330: 3bcf adbe 1519 4fbe c844 3cbe 2a64 3fbe
00000340: 3943 cfbe 8289 c3be a4fb 80bd ad7a b93e
00000350: cc7b 77be e672 96be c674 c23e d335 a6be
00000360: e83f 12bd 4ee2 153e 065d a13e a28e 82be
00000370: 630d 813e e8ec 393e 5649 d8bd 3fef 0dbd
00000380: 11c2 83bc e901 b33d c27f 773e 22d0 50bd
00000390: b09f f3bc eb7b ffbc b6cd 17be 6882 ae3e
000003a0: bce5 a13e 1f6e b83e 6939 d93d d496 a1be
000003b0: 734c 35be 762f 043d 3078 c83e 9d7a 22bd
000003c0: 71b8 8ebe 7cf7 adbe 6d88 043e bebf 8f3e
000003d0: ab8a 92bd 83f0 053e 7dfd 19be 79fa adbd
000003e0: 7ffb 88bd 11fa 3dbe 463f cfbe 4344 573d
000003f0: 57cd 36be e626 403e 78e2 823e 52de a4be

conv1.1.weight f4 [64]
1.0019621 0.9767518 1.0017891 1.0008467 0.94659257 0.9816976 1.0093589 0.996026
0.97203594 0.98743683 0.9608069 1.0022427 1.0033973 0.96559054 1.000253 0.9950212
1.0224057 0.9819972 1.0105369 1.0138634 1.0071734 0.9628739 0.9878701 1.0132107
0.99532706 0.9742786 0.9953565 0.964224 0.98936 0.9573944 1.0091616 0.9552396
1.0027539 1.0409324 0.9864503 1.0304043 0.9703106 0.9937431 0.9884639 0.98245573
0.9836057 0.9609099 1.005529 0.9971219 0.96968997 0.97144014 0.97943234 0.97819555
0.99643856 0.9769786 0.99033004 1.014971 1.0202723 0.99206465 0.9736729 0.97550184
0.96749127 0.9996876 0.98747355 0.99864894 1.0105842 0.9744308 1.0031142 1.0225581
00000000: 4b40 803f 680c 7a3f a03a 803f bf1b 803f
00000010: e453 723f 8950 7b3f ac32 813f 8ffb 7e3f
00000020: 59d7 783f a9c8 7c3f 71f7 753f 7d49 803f
00000030: 536f 803f f130 773f 4a08 803f b6b9 7e3f
00000040: 31de 823f 2b64 7b3f 4659 813f 47c6 813f
00000050: 0feb 803f e77e 763f 0ee5 7c3f e3b0 813f
00000060: c1cd 7e3f 536a 793f afcf 7e3f 62d7 763f
00000070: b246 7d3f cd17 753f 352c 813f 958a 743f
00000080: 3d5a 803f 463d 853f 0288 7c3f 4ae4 833f
00000090: 4766 783f f365 7e3f f80b 7d3f 3882 7b3f
000000a0: 95cd 7b3f 31fe 753f 2db5 803f 6143 7f3f
000000b0: 9a3d 783f 4db0 783f 14bc 7a3f 066b 7a3f
000000c0: 9916 7f3f 451b 7a3f 4586 7d3f 92ea 813f
000000d0: 4898 823f f3f7 7d3f a142 793f 7dba 793f
000000e0: 82ad 773f 87eb 7f3f 11cb 7c3f 75a7 7f3f
000000f0: d35a 813f 4c74 793f 0c66 803f 2fe3 823f

conv1.1.bias f4 [64]
-0.012839504 0.06804143 -0.03465925 -0.021024676 0.029384632 -0.07522006 -0.013473938 0.011019272
-0.013529688 -0.037796836 -0.0063050683 0.019768506 0.033674307 -0.018900154 -0.042528592 0.0013370761
-0.07422317 -0.020754635 -0.021800177 -0.0006121978 0.023192635 -0.039825417 -0.012836657 0.023784153
0.022052754 0.01090786 0.037371732 0.008985832 0.006098778 0.018485557 0.0014622882 -0.047808263
-0.02477748 -0.017305152 -0.05030944 0.013925148 0.040050317 0.002439873 -0.018435583 -0.037182014
0.036844872 -0.0015755338 0.00888649 0.0694487 0.0027910653 0.028532548 -0.029321449 -0.009001602
-0.013656241 0.012546897 -0.0387536 0.0008904569 0.034982223 -0.022809638 0.0025264118 0.0035639293
0.058255676 -0.006757987 0.00095263956 0.009631895 -0.008343677 -0.012446337 0.059978 -0.010890355
00000000: c85c 52bc 4e59 8b3d dcf6 0dbd f13b acbc
00000010: 0ab8 f03c fa0c 9abd cbc1 5cbc 2d8a 343c
00000020: a0ab 5dbc dbd0 1abd bf9a cebb 90f1 a13c
00000030: 12ee 093d 7fd4 9abc 7632 2ebd d440 af3a
00000040: 5102 98bd a005 aabc 4996 b2bc e67b 20ba
00000050: 7bfe bd3c fa1f 23bd d850 52bc fcd6 c23c
00000060: faa7 b43c e1b6 323c 1a13 193d 5039 133c
00000070: 42d8 c73b 066f 973c 40aa bf3a 99d2 43bd
00000080: 24fa cabc 89c3 8dbc 4511 4ebd 4e26 643c
00000090: cd0b 243d 47e6 1f3b 3806 97bc 2b4c 18bd
000000a0: a6ea 163d 2482 ceba a498 113c 1f3b 8e3d
000000b0: 4eea 363b 17bd e93c 8933 f0bc 757b 13bc
000000c0: 6dbe 5fbc 8091 4d3c 18bc 1ebd 8d6d 693a
000000d0: 8549 0f3d 47db babc 2892 253b d090 693b
000000e0: 819d 6e3d 1b72 ddbb 8fba 793a 19cf 1d3c
000000f0: ebb3 08bc b9eb 4bbc 7eab 753d 766d 32bc

conv1.1.running_mean f4 [64]
-5199.77 228.54372 -3822.6433 -892.34534 3043.5486 -5899.2314 -4437.6943 -4252.2466
65.14359 -7323.512 5551.6797 76.08936 -1815.1942 4505.7017 -4238.312 3091.2742
-5594.5117 -1765.4877 -1436.8706 -2769.858 -1522.1354 -5857.374 7145.624 -2156.2393
254.38329 5164.745 3619.143 2535.911 -2211.4434 723.32434 -1725.9075 7158.6187
-3421.0908 -1466.9249 -7956.561 -6673.978 3661.0867 -965.6657 7561.6816 -705.417
2761.767 957.9609 -2931.213 -1304.5247 6557.1084 3073.5254 -5646.111 6579.588
-2533.6467 3070.6853 -6636.83 -983.9345 -1283.6202 -8055.63 7891.461 -4724.032
1777.4877 -4941.9883 8121.3213 -2016.3136 -3425.959 6157.5996 -1547.577 -1949.3004
00000000: 297e a2c5 318b 6443 4bea 6ec5 1a16 5fc4
00000010: c738 3e45 da59 b8c5 8ead 8ac5 f9e1 84c5
00000020: 8549 8242 19dc e4c5 707d ad45 c12d 9842
00000030: 37e6 e2c4 9dcd 8c45 7f72 84c5 6334 4145
00000040: 18d4 aec5 9baf dcc4 dc9b b3c4 ba1d 2dc5
00000050: 5544 bec4 fe0a b7c5 fe4c df45 d4c3 06c5
00000060: 1f62 7e43 f665 a145 4a32 6245 937e 1e45
00000070: 1837 0ac5 c2d4 3444 0abd d7c4 f3b4 df45
00000080: 74d1 55c5 995d b7c4 7da4 f8c5 d38f d0c5
00000090: 63d1 6445 9b6a 71c4 744d ec45 b05a 30c4
000000a0: 469c 2c45 7f7d 6f44 6833 37c5 ca10 a3c4
000000b0: dee8 cc45 6818 4045 e370 b0c5 b49c cd45
000000c0: 595a 1ec5 f7ea 3f45 a466 cfc5 cffb 75c4
000000d0: d973 a0c4 0abd fbc5 b09b f645 42a0 93c5
000000e0: 9b2f de44 e86f 9ac5 92ca fd45 090a fcc4
000000f0: 581f 56c5 cc6c c045 7772 c1c4 9da9 f3c4

conv1.1.running_var f4 [64]
9.249294e+06 512614.9 8.2272735e+06 3.2123478e+06 8.431278e+06 1.2089117e+07 1.0529778e+07 8.39331e+06
4.1256835e+06 1.904165e+07 1.2492542e+07 1.0450049e+07 6.133455e+06 9.62741e+06 1.0648046e+07 3.6759828e+06
1.2358928e+07 1.5166175e+06 7.103237e+06 6.0950705e+06 4.3680655e+06 9.889945e+06 1.7399346e+07 2.8049908e+06
1.1260514e+07 8.783244e+06 1.4019238e+07 2.3105732e+06 4.283783e+06 6.2160025e+06 3.128319e+06 2.0601582e+07
9.656426e+06 5.054822e+06 2.4993476e+07 1.856067e+07 7.987118e+06 2.9520175e+06 2.4149374e+07 6.596454e+06
5.0338345e+06 8.232693e+06 6.019573e+06 3.328723e+06 2.0740346e+07 1.0882223e+07 1.631457e+07 1.5376433e+07
2.427948e+06 6.731337e+06 1.6589389e+07 3.9297038e+06 1.4037916e+06 1.9808168e+07 2.1607838e+07 1.2133153e+07
3.287424e+06 1.3033394e+07 1.8347054e+07 3.1573892e+06 4.0131582e+06 1.4417204e+07 6.345059e+06 5.2341145e+06
00000000: 0e22 0d4b dd4c fa48 9313 fb4a ef10 444a
00000010: aea6 004b 1d77 384b f2ab 204b 5e12 004b
00000020: cecf 7b4a b946 914b fe9e 3e4b 8174 1f4b
00000030: 9e2d bb4a 12e7 124b ee79 224b 3b5d 604a
00000040: 1095 3c4b 4c22 b949 0ac6 d84a bd01 ba4a
00000050: 834d 854a 99e8 164b 19bf 844b fb33 2b4a
00000060: 62d2 2b4b 8c05 064b a6ea 554b b506 0d4a
00000070: 0ebb 824a 85b2 bd4a fcef 3e4a 772d 9d4b
00000080: 6a58 134b cc42 9a4a 62af be4b 4f9b 8d4b
00000090: 5cbf f34a 462d 344a bf3e b84b cc4e c94a
000000a0: d59e 994a ea3d fb4a eab3 b74a 4c2b 4b4a
000000b0: 7d3c 9e4b af0c 264b caf0 784b 31a0 6a4b
000000c0: b030 144a 926c cd4a 4d22 7d4b 9fd9 6f4a
000000d0: 7d5c ab49 d41f 974b cfda a44b 2123 394b
000000e0: 00a6 484a b2df 464b 17fa 8b4b 35b6 404a
000000f0: 99f1 744a 34fd 5b4b c6a2 c14a 85bb 9f4a

conv2.0.weight f4 [64, 128, 1, 1]
-0.026302133 -0.032774016 -0.058672845 0.06792479 0.022527067 0.13990396 -0.09325381 -0.09936266
-0.019240579 -0.0109081725 0.035849594 -0.09303758 0.04656415 -0.024916781 0.135976 -0.007729198
-0.052343722 0.13379143 0.1332322 -0.014466934 -0.10969025 -0.059450466 0.04430142 -0.09418971
-0.025632381 -0.079323724 -0.08621661 -0.11777318 -0.024236893 -0.046102952 -0.06524169 0.036943324
-0.11256147 0.06433793 0.020902114 0.12952228 0.0058321552 0.13979167 -0.016420469 0.010287385
-0.073095545 0.003204916 -0.011729655 -0.069835864 0.044478826 0.054975763 0.0144204255 0.047316212
-0.1242398 -0.024363881 -0.00492764 -0.10154412 -0.10451604 0.078485034 -0.054991078 0.030967547
-0.068806015 0.055623814 -0.0019157161 -0.013298378 -0.05066912 0.049536124 0.0754518 0.032270636
8.99365e-05 0.021291636 0.06757006 -0.08018674 0.0022636442 -0.034458928 -0.024120882 -0.075016454
-0.07055904 0.07599092 -0.061798178 0.032939684 -0.031624757 -0.06336832 -0.008163484 0.00640248
0.03609827 0.013767355 -0.07597692 -0.047516394 -0.039160296 0.013879866 -0.07827371 0.031196713
0.04413637 -0.041296978 0.012368926 -0.04701396 0.0028390097 0.027880749 -0.042029783 -0.039075226
0.054135624 -0.024105841 0.0018818711 0.010088456 0.04626526 -0.09204472 -0.07018209 -0.065560445
0.009506728 0.03071828 0.05752323 0.040919602 0.06433696 0.042070106 0.020989977 -0.025099445
-0.04645296 0.0063728187 0.029239988 -0.01194293 -0.057754632 -0.015199645 0.028239183 0.013620262
0.034928333 -0.027705194 -0.034646586 0.026321046 0.05975638 -0.0345355 -0.04280582 -0.034135822
0.15125217 -0.0148030175 0.040057883 -0.051948667 -0.07307721 0.00606201 0.046494648 -0.10497096
0.039335836 -0.026587522 0.028368933 -0.09508403 -0.067693636 0.0467308 0.115328416 -0.027637823
0.12932397 0.13895132 0.028903022 0.026504109 0.12711829 0.113931544 0.01834091 0.15441106
0.03835982 -0.022469684 -0.07289837 -0.12069279 -0.06933513 -0.051639955 -0.04447216 -0.070697404
-0.07325752 -0.100922376 -0.11356699 0.14551125 -0.1283872 0.11423664 -0.044200722 0.061114013
0.06259679 0.012706513 -0.14890197 0.10712306 -0.056774188 0.02598589 0.05371271 -0.0027375207
0.008738699 0.04261881 -3.9541548e-05 -0.10735995 0.16073048 -0.007226757 -0.053868815 -0.045391995
0.01139186 -0.13927047 0.03639231 -0.08571031 0.14665376 -0.008448476 0.0661228 0.103291735
-0.017689357 -0.09122275 0.01774121 0.010364019 0.038884293 0.08062189 -0.030789308 -0.07059667
-0.03843051 0.089601584 -0.017920908 -0.0104926545 -0.039029982 -0.028410714 0.034762885 -0.03590479
-0.0037110867 0.027680896 -0.017864333 0.06620011 0.050531242 0.035140477 0.07168158 -0.035984214
0.021072257 0.037522055 -0.060503893 -0.04528967 0.04756201 0.037445933 0.023519559 -0.05056672
-0.028017547 -0.05585618 -0.0665176 -0.06323121 -0.07801242 0.07450241 0.0075837015 0.014195123
0.06123311 0.07344456 -0.069149 0.037442677 -0.056222767 0.04424327 0.063671775 0.033902764
0.0250233 0.080827214 -0.00919218 -0.036144923 0.06772152 -0.06515985 -5.4727774e-05 0.058872547
0.052886065 -0.056906004 -0.02746041 0.024037065 0.023900518 0.023097374 0.002153755 0.018127749
00000000: 9277 d7bc 0c3e 06bd f052 70bd 271c 8b3d
00000010: af8a b83c fc42 0f3e dbfb bebd a67e cbbd
00000020: 6b9e 9dbc 31b8 32bc 06d7 123d 7d8a bebd
00000030: 0dba 3e3d 471e ccbc 4b3d 0b3e 3645 fdbb
00000040: 5f66 56bd 9f00 093e 066e 083e b806 6dbc
00000050: 48a5 e0bd 5582 73bd 6875 353d 89e6 c0bd
00000060: 00fb d1bc 7a74 a2bd 5692 b0bd 1133 f1bd
00000070: 738c c6bc 73d6 3cbd 6f9d 85bd e251 173d
00000080: a186 e6bd 9bc3 833d e93a ab3c 7da1 043e
00000090: aa1b bf3b 8c25 0f3e 3884 86bc 6c8c 283c
000000a0: 1eb3 95bd 9109 523b bd2d 40bc 1b06 8fbd
000000b0: 6e2f 363d 442e 613d a643 6c3c a5ce 413d
000000c0: 7071 febd c396 c7bc 0a78 a1bb 5df6 cfbd
000000d0: 810c d6bd c3bc a03d 533e 61bd a7af fd3c
000000e0: 2bea 8cbd ccd5 633d c418 fbba 71e1 59bc
000000f0: 6c8a 4fbd 64e6 4a3d 7986 9a3d 372e 043d
00000100: 4a9c bc38 cc6b ae3c 2c62 8a3d f238 a4bd
00000110: a659 143b ce24 0dbd 2899 c5bc 3aa2 99bd
00000120: 4281 90bd 21a1 9b3d 1620 7dbd c3eb 063d
00000130: f688 01bd 40c7 81bd 22c0 05bc e5cb d13b
00000140: c8db 133d 7990 613c ca99 9bbd 8da0 42bd
00000150: 8c66 20bd 6168 633c f84d a0bd 4090 ff3c
00000160: 57c8 343d 0527 29bd 09a7 4a3c b691 40bd
00000170: ae0e 3a3b 2b66 e43c 6c27 2cbd 580d 20bd
00000180: 51bd 5d3d 9d79 c5bc 1ea9 f63a 0d4a 253c
00000190: a480 3d3d f181 bcbd a1bb 8fbd 8e44 86bd
000001a0: 1bc2 1b3c e7a4 fb3c 7a9d 6b3d 509b 273d
000001b0: 19c3 833d b451 2c3d 2cf3 ab3c 5a9d cdbc
000001c0: 7645 3ebd 14d3 d03b b388 ef3c 47ac 43bc
000001d0: 1f90 6cbd ef07 79bc dc55 e73c 8527 5f3c
000001e0: 0311 0f3d 01f6 e2bc 94e9 0dbd 3c9f d73c
000001f0: 1bc3 743d 1975 0dbd 2855 2fbd 01d2 0bbd
00000200: d9e1 1a3e 5b88 72bc bc13 243d 20c8 54bd
00000210: 81a9 95bd d3a3 c63b 2c71 3e3d 04fb d6bd
00000220: 9d1e 213d 13ce d9bc f765 e83c 6abb c2bd
00000230: f6a2 8abd cc68 3f3d 4e31 ec3d b768 e2bc
00000240: 816d 043e 4149 0e3e 08c6 ec3c 251f d93c
00000250: 4c2b 023e f154 e93d ad3f 963c ef1d 1e3e
00000260: 301f 1d3d 5812 b8bc be4b 95bd c82d f7bd
00000270: 94ff 8dbd 6b84 53bd 7128 36bd cdc9 90bd
00000280: 0a08 96bd 64b0 cebd cf95 e8bd e700 153e
00000290: ef77 03be e6f4 e93d d10b 35bd b052 7a3d
000002a0: bf32 803d fa2e 503c c279 18be 5663 db3d
000002b0: 0d8c 68bd 5ce0 d43c dc01 5c3d fa67 33bb
000002c0: c32c 0f3c 1091 2e3d 6ad9 25b8 89df dbbd
000002d0: 8896 243e 6ece ecbb 8ca5 5cbd f5ec 39bd
000002e0: eda4 3a3c eb9c 0ebe 1a10 153d e388 afbd
000002f0: 672c 163e 7a6b 0abc 646b 873d 9e8a d33d
00000300: 45e9 90bc fed2 babd 0456 913c d9cd 293c
00000310: 2345 1f3d 171d a53d dc39 fcbc fd94 90bd
00000320: 4f69 1dbd 0981 b73d dece 92bc 62e9 2bbc
00000330: e7dd 1fbd 96bd e8bc 8763 0e3d e710 13bd
00000340: b435 73bb 0cc3 e23c 3958 92bc ec93 873d
00000350: d9f9 4e3d 76ef 0f3d cbcd 923d 2f64 13bd
00000360: ba9f ac3c bab0 193d eed2 77bd a981 39bd
00000370: 62d0 423d e860 193d 17ac c03c 0d1f 4fbd
00000380: 0e85 e5bc 73c9 64bd 613a 88bd 5d7f 81bd
00000390: fac4 9fbd b894 983d b380 f83b a992 683c
000003a0: 92cf 7a3d 1a6a 963d fe9d 8dbd 7e5d 193d
000003b0: d849 66bd 6e38 353d 5966 823d a0dd 0a3d
000003c0: aafd cc3c bd88 a53d cc9a 16bc b30c 14bd
000003d0: 95b1 8a3d 8772 85bd 808b 65b8 5724 713d
000003e0: 0f9f 583d 4516 69bd a7f4 e0bc 61e9 c43c
000003f0: 05cb c33c b436 bd3c 0326 0d3b a580 943c

conv2.1.weight f4 [64]
0.9608891 1.0022701 1.0022596 0.9832849 0.9623334 0.97551566 1.0125984 0.93480146
0.9954876 0.9954438 0.99575686 0.9986366 1.0023718 0.98342687 0.9516835 0.9675775
0.9688909 0.99448085 0.988311 0.9828434 0.9387533 0.9732244 0.95861554 0.9908048
0.9605114 1.0052298 0.93075216 1.0060165 0.97423977 0.9797957 0.97177815 0.9748474
0.9605831 0.97538376 0.98248005 0.9471454 1.0154452 0.9640623 0.9702349 0.9733311
0.99094194 0.98989666 0.9461223 0.98665774 0.9916441 0.9753286 0.98170185 0.98485965
0.99528426 0.9559046 0.9627394 0.99198735 1.0243245 0.9832223 0.9958192 0.9461388
0.970681 0.9711228 1.013368 0.9924488 0.9737121 0.9785843 1.0313987 0.96669465
00000000: d4fc 753f 634a 803f 0b4a 803f 8fb8 7b3f
00000010: 7b5b 763f 65bb 793f d39c 813f 264f 6f3f
00000020: 46d8 7e3f 68d5 7e3f ece9 7e3f a6a6 7f3f
00000030: b84d 803f ddc1 7b3f 88a1 733f 29b3 773f
00000040: 3c09 783f 4c96 7e3f f301 7d3f a09b 7b3f
00000050: 2352 703f 3c25 793f d467 753f 62a5 7d3f
00000060: 13e4 753f 5fab 803f c645 6e3f 26c5 803f
00000070: c767 793f e4d3 7a3f 74c6 783f 998f 793f
00000080: c6e8 753f c0b2 793f d083 7b3f 1f78 723f
00000090: 1cfa 813f c9cc 763f 5061 783f 3a2c 793f
000000a0: 5fae 7d3f de69 7d3f 1235 723f 9a95 7c3f
000000b0: 63dc 7d3f 23af 793f d050 7b3f c31f 7c3f
000000c0: f3ca 7e3f 2ab6 743f 1776 763f e2f2 7d3f
000000d0: 111d 833f 75b4 7b3f 02ee 7e3f 2736 723f
000000e0: 8d7e 783f 819b 783f 0bb6 813f 2011 7e3f
000000f0: 3245 793f 8084 7a3f df04 843f 4d79 773f
