src/pipelineC/checkpoints/dgcnn_seg_epoch40.pth (torch, 692288 bytes, 59 tensors)

bn1.weight f4 [64]
00000000: db20 803f 7862 7a3f cd86 7f3f 0367 803f
00000010: e1f3 713f 5902 7b3f 6bf6 803f da75 7e3f
00000020: 1340 783f d8a1 7b3f 8888 753f 1537 803f
00000030: 1942 803f 9eb1 763f 470c 803f f49b 7e3f
00000040: 18eb 823f a395 7b3f f94e 813f 1330 823f
00000050: d6cf 803f 0d5d 763f d9a0 7c3f a492 813f
00000060: ba09 7f3f 1e69 793f 90ca 7e3f 8388 763f
00000070: 74e8 7c3f c8b0 743f 9433 813f 3a95 733f
00000080: d022 803f 3353 853f 9fe2 7b3f f4ad 833f
00000090: c418 783f d74b 7e3f a1da 7c3f 2b44 7b3f
000000a0: c199 7b3f e730 753f 415a 803f 9a75 7e3f
000000b0: 23fa 773f ae71 783f eefc 793f 9624 7a3f
000000c0: b4ff 7e3f 0de5 793f 71ad 7c3f 36d3 813f
000000d0: 0fd7 823f 56a4 7d3f 841f 793f 040a 793f
000000e0: c26e 773f 0ed2 7f3f 3b1c 7c3f e237 7f3f
000000f0: 8b84 813f c231 793f a41c 803f caeb 823f
1.0010027 0.978065 0.99815065 1.0031437 0.94512755 0.9805046 1.0075201 0.9939858
0.9697277 0.9829383 0.95911455 1.001681 1.0020171 0.9636477 1.0003747 0.99456716
1.0227995 0.982752 1.0102226 1.0170921 1.0063426 0.96235734 0.98682934 1.0122876
0.99624217 0.9742602 0.99527836 0.9630205 0.98792195 0.95582247 1.0093865 0.95149577
1.0010624 1.0416015 0.9839267 1.0287461 0.9691279 0.9933447 0.987711 0.9815089
0.98281485 0.95777744 1.0027543 0.99398196 0.96866053 0.9704846 0.97651565 0.97712076
0.9960892 0.9761513 0.9870215 1.0142581 1.0221881 0.9907888 0.97313714 0.9728091
0.9665338 0.99929893 0.98480576 0.99694645 1.0118574 0.9734155 1.000874 1.0228207

bn1.bias f4 [64]
00000000: 21ea 63bc 7741 9a3d ba23 25bd 85d6 d0bc
00000010: ebb7 0e3d 1612 9ebd d2c8 8fbc 8b27 173c
00000020: c694 35bc c31c 3dbd b983 e8bb 61e5 b43c
00000030: 4277 023d 479d 9bbc 0850 30bd 4733 d13a
00000040: d191 9bbd 827e aabc fc53 dabc 0b1a 78bb
00000050: b426 c03c 9baa 26bd 6f25 4bbc 1f86 c53c
00000060: 5368 b53c 2de8 543c 24f5 203d 81d1 4c3c
00000070: b5a9 eb3b 24fa b03c 5293 903b 06f8 50bd
00000080: da8f f4bc 72ea 9ebc 71ed 62bd be09 833c
00000090: cc52 2a3d b71c 183b 7a2a 82bc 1c58 22bd
000000a0: 15e4 203d 39d7 a23b 782f 133c 01ca 933d
000000b0: 0ced 8d3b 5143 f43c 9caf febc 002d a4bb
000000c0: 8c87 37bc 8d07 303c d3e6 2cbd ca10 1cba
000000d0: 2f61 133d 94f2 c7bc 76d6 8b3b 166d 893b
000000e0: 39de 803d 72ff 99bb 27a5 d43a 3795 183c
000000f0: 41c4 f9bb 03a3 31bc 1210 623d 483d 30bc
-0.013910801 0.07532018 -0.040317275 -0.025492916 0.034843367 -0.07718293 -0.017551813 0.009225736
-0.011082834 -0.046170007 -0.0070957807 0.022082033 0.031852014 -0.018995894 -0.043045074 0.0015960716
-0.07596172 -0.020812277 -0.026651375 -0.003785732 0.023455955 -0.040690046 -0.012399062 0.024111805
0.022144472 0.012994808 0.039296284 0.0125011215 0.0071918615 0.021603651 0.004412093 -0.051017784
-0.02985375 -0.019398902 -0.055402223 0.015995856 0.041582868 0.0023210475 -0.015889395 -0.03963481
0.039280016 0.004969504 0.008983485 0.072162636 0.0043312367 0.029817255 -0.031089596 -0.005010247
-0.0112017505 0.010743988 -0.04221232 -0.00059534295 0.035981353 -0.024407662 0.004267509 0.0041939123
0.062923856 -0.004699641 0.0016223536 0.009312919 -0.0076222722 -0.010842088 0.055191107 -0.010756798

bn1.running_mean f4 [64]
00000000: 1d8b a3c5 3ecb 2543 e5e8 76c5 2f38 3bc4
00000010: 8434 2e45 e789 aec5 87c9 8dc5 85d9 80c5
00000020: 1c44 8cc2 b880 d9c5 6d15 ac45 8855 20c3
00000030: 7690 c2c4 3b0e 8345 5b3a 82c5 ba7a 4145
00000040: f889 b0c5 e5f7 d8c4 8df8 92c4 647b 38c5
00000050: 6c29 d4c4 d5e0 b0c5 438b df45 8689 0cc5
00000060: fb50 f343 a91a 9f45 70c8 6645 4fb8 1a45
00000070: 9277 fec4 dfa7 9543 5870 cec4 50f4 e145
00000080: 90e0 51c5 9f7d 9ac4 1d9a eec5 7679 c8c5
00000090: acb7 6545 98e4 83c4 f1bc e145 77f9 51c4
000000a0: a874 1b45 dcca 6844 c590 25c5 d62d 9fc4
000000b0: 4c53 cf45 1981 3145 345e a7c5 388a ce45
000000c0: f44b 14c5 d4ba 4145 e70b c8c5 a37f 62c4
000000d0: 13ec a3c4 b85e f4c5 ce03 f345 6b12 8dc5
000000e0: 62f2 b344 90a8 90c5 0b3a f845 00d7 e7c4
000000f0: 5a4d 53c5 96c6 be45 7484 e2c4 36f1 eec4
-5233.389 165.79391 -3950.556 -748.87787 2787.2822 -5585.238 -4537.191 -4123.19
-70.133026 -6960.09 5506.678 -160.3341 -1556.5144 4193.779 -4167.2944 3095.6704
-5649.246 -1735.7467 -1175.7672 -2951.712 -1697.2944 -5660.104 7153.4077 -2248.5952
486.63266 5091.3325 3692.5273 2475.5193 -2035.7366 299.3115 -1651.5107 7230.539
-3358.0352 -1235.9257 -7635.264 -6415.1826 3675.4795 -1055.1436 7223.6177 -839.8979
2487.291 931.1697 -2649.048 -1273.4324 6634.412 2840.0686 -5355.7754 6609.2773
-2372.747 3099.6768 -6401.488 -905.9943 -1311.3773 -7819.84 7776.4756 -4514.3022
1439.5745 -4629.0703 7943.2554 -1854.7188 -3380.8345 6104.823 -1812.1392 -1911.5378

bn1.running_var f4 [64]
00000000: a656 ff4a 0fc4 f648 0642 f34a 1e58 584a
00000010: 1676 054b 18ab 254b 64ab 1a4b 5fb8 d24a
00000020: 735a 5a4a d6bd 6c4b 37c8 384b e782 2f4b
00000030: 813e 984a 8754 e94a cfe6 234b 10a3 5a4a
00000040: 49cb 2b4b 02e8 b649 7869 ef4a 164b a74a
00000050: 21cc 864a e4ac ff4a 66a4 714b 18a7 254a
00000060: 8726 0e4b 49df eb4a a5cc 3b4b 165d 024a
00000070: af46 7f4a 6822 9b4a 0b5e 224a bf24 924b
00000080: 294a 024b e8a5 a34a ebb1 9a4b 1fcd 8d4b
00000090: cef2 ea4a 7982 214a 3dda 954b 2c5a bb4a
000000a0: 9b24 924a fc20 db4a e97b a44a 2dad 4c4a
000000b0: 5161 8e4b 8ff0 044b 47c6 7d4b 629f 554b
000000c0: 9d79 eb49 c682 c04a 38a4 504b 188d 564a
000000d0: 3741 9e49 6ce8 814b ac6c 8e4b efdb 3d4b
000000e0: 8112 4a4a cd80 254b 918e 744b 16c3 344a
000000f0: a553 5f4a 0442 454b 678e ad4a d4dc 9e4a
8.366931e+06 505376.47 7.971075e+06 3.5445835e+06 8.746518e+06 1.085724e+07 1.013642e+07 6.9048795e+06
3.5775008e+06 1.5515094e+07 1.2109879e+07 1.1502311e+07 4.9887365e+06 7.6457635e+06 1.0741455e+07 3.582148e+06
1.1258697e+07 1.4983682e+06 7.845052e+06 5.481867e+06 4.4170405e+06 8.37797e+06 1.5836262e+07 2.714054e+06
9.315975e+06 7.7290605e+06 1.2307621e+07 2.1358775e+06 4.1824438e+06 5.083444e+06 2.6602268e+06 1.9155326e+07
8.538665e+06 5.36242e+06 2.0276182e+07 1.8586174e+07 7.698791e+06 2.6461742e+06 1.9641466e+07 6.139158e+06
4.7888135e+06 7.180414e+06 5.3898125e+06 3.3534192e+06 1.866205e+07 8.712335e+06 1.6631367e+07 1.399997e+07
1.9290116e+06 6.308195e+06 1.3673528e+07 3.515206e+06 1.2964229e+06 1.7027288e+07 1.8667864e+07 1.2442607e+07
3.3107522e+06 1.0846413e+07 1.6027281e+07 2.9616055e+06 3.6589852e+06 1.2927492e+07 5.6870915e+06 5.20561e+06

bn2.weight f4 [64]
00000000: 5a50 763f 6e73 803f 03f5 7f3f 86f9 7a3f
00000010: 4de1 753f 057d 793f 29a7 813f 12c6 6d3f
00000020: 22ad 7e3f 99a0 7f3f bb70 7e3f c552 7f3f
00000030: 4b23 803f 562f 7b3f b9e2 733f 8f01 773f
00000040: 0d5a 773f 9d9b 7e3f 045f 7d3f 7259 7c3f
00000050: 67f9 6e3f 9685 773f ffea 743f 7892 7d3f
00000060: 385a 753f ef12 803f 9a53 6d3f 3ba7 803f
00000070: 5d63 783f 06e1 793f 8507 783f 23c2 783f
00000080: 6bb8 743f 337c 793f 5880 7a3f 488d 713f
00000090: 4d13 823f cfc6 763f 1ac2 763f 9d49 783f
000000a0: e238 7d3f 75de 7c3f 37de 703f 990f 7b3f
000000b0: c878 7d3f 5e93 793f 6518 7b3f fc1a 7b3f
000000c0: 0749 7e3f f234 743f b4a9 743f e8ce 7d3f
000000d0: 3316 833f 5768 7b3f d918 7f3f acc0 713f
000000e0: 91c1 783f 6959 783f 34b0 813f a34c 7d3f
000000f0: 55fc 783f 5c2d 793f 65e7 833f 5304 773f
0.96216357 1.0035226 0.99983233 0.9803699 0.96046907 0.9745639 1.0129138 0.92880356
0.9948293 0.9985443 0.99390763 0.9973567 1.001077 0.98119104 0.95267826 0.96486753
0.9662178 0.994562 0.9897311 0.9857398 0.9334931 0.9668821 0.95671076 0.9905162
0.9584079 1.0005778 0.9270569 1.0051035 0.97026616 0.97608984 0.96886474 0.9717123
0.955939 0.9745514 0.9785209 0.94356203 1.016214 0.9639711 0.96389925 0.96987325
0.9891492 0.9877694 0.9408907 0.98070675 0.9901242 0.9749049 0.980841 0.9808805
0.9933018 0.9539329 0.95571446 0.9914384 1.024115 0.98206085 0.9964729 0.9443462
0.9717036 0.9701143 1.0131898 0.98945063 0.9726003 0.9733484 1.0304991 0.96490973

bn2.bias f4 [64]
00000000: 3d62 1d3d be8b b1bc 50f3 8abc d621 8d3c
00000010: 3794 75bc 1599 46bc 9607 93bc dad7 21bd
00000020: 8a63 c1bc c4e2 623d d906 f43a 2fc5 58bc
00000030: 7ea8 063b a931 f3bc 4a2f afbc 8f46 083d
00000040: 03f4 b739 b3a6 cbbd c873 37bb 934e 763c
00000050: e53d 3fbb 91a9 0f3b e594 253d 5639 5cbc
00000060: e172 d3bc 082a 363d 302a 33bd 29c5 88bc
00000070: 49e5 85bd 9942 763b 4e65 06bd 3935 56bc
00000080: 9a71 50bd 0de3 72bd c1ba 0d3d 653b f8bc
00000090: 8805 c3bb 850e c8bc 2fae c63c 4e2e c23b
000000a0: 5593 cd3b 6dad 19bd 8fcf 93bc b8ba eabc
000000b0: 8ee5 f7bb e28f 8fbb 2a68 2ebd 8842 05bc
000000c0: a129 a5bb ce41 21bd 901d a03c 22df 8abc
000000d0: 8f98 bc3c f272 43bc 79ed 363b 8977 01bd
000000e0: e6d6 5c3b 5b80 7dbd 691a 3ebd 7244 323d
000000f0: 67c8 ab3b ed75 5ebd 2e0c adbc 8e5d bebc
0.038423765 -0.02167308 -0.016961724 0.017228048 -0.01498895 -0.012121459 -0.017947953 -0.039512493
-0.023607034 0.05539204 0.0018617763 -0.013230606 0.0020547207 -0.029686766 -0.021384854 0.033270415
0.00035086283 -0.09943905 -0.0027992595 0.015033382 -0.002918118 0.0021921138 0.0404252 -0.013441404
-0.025811614 0.044473678 -0.043741405 -0.016695576 -0.06537873 0.0037576316 -0.032811455 -0.013074213
-0.05088959 -0.059298564 0.03460193 -0.030301759 -0.005951587 -0.024420986 0.02425298 0.00592593
0.006273667 -0.037518907 -0.018043308 -0.028653488 -0.007565207 -0.004381166 -0.042579807 -0.008133538
-0.005040363 -0.039369397 0.019545346 -0.016952101 0.023021964 -0.011929261 0.002791254 -0.03160814
0.0033697425 -0.061889987 -0.046411905 0.043522306 0.0052423957 -0.05431168 -0.021123972 -0.02323797

bn2.running_mean f4 [64]
00000000: 0ff0 2fbe 0269 c73d 7610 a53d 33fd 2cbe
00000010: fa3c 26bd 65cf 623e 4fdc 843e 9318 023e
00000020: b6aa 4f3e 3b44 09bf 33eb cb3e 6929 083f
00000030: e1b2 ffbc be85 f23d 3f62 3d3f edc8 f0be
00000040: 2a88 1e3f 1c34 dd3e 4e53 34be e65f 22be
00000050: 55da e73e 751e 41be 5ce8 57be c074 633e
00000060: 79ea d8bc 0e11 2cbe 29a0 183d c047 3f3e
00000070: 182c 9e3e cbba 30bb 5689 a9be a047 673e
00000080: 7ad6 0a3f 98c5 0f3f d000 97be 7d88 2bbe
00000090: bda6 23be ab25 22bf 331a 09bd a8a7 243e
000000a0: 494c a53c 4fa6 c13e c25b 81be 0e44 463e
000000b0: f8f7 9e3e dc76 8abd 2cc4 843e 5d16 1c3e
000000c0: 2f41 c53d 2af0 113e d5c5 a3be 8809 e73c
000000d0: 5dd5 903d 3911 173e fb5f dabe 2d8b b13e
000000e0: 4b6f 123d a0df a63e dd7c 253e 2a35 22bf
000000f0: 1fc5 afbe ada1 4e3d d3f1 00bf f21b 30bc
-0.17181419 0.097368255 0.0805978 -0.16893463 -0.040585496 0.22149427 0.25949332 0.12704687
0.20279965 -0.53619736 0.3982788 0.53188187 -0.031213226 0.118419155 0.73978037 -0.47028294
0.6192652 0.4320382 -0.17609903 -0.15856895 0.45283762 -0.18859275 -0.21084732 0.22212505
-0.026478993 -0.16803381 0.037262116 0.18679714 0.30893016 -0.0026966806 -0.33112592 0.22585917
0.54233515 0.5616088 -0.29492807 -0.16751285 -0.15981574 -0.63338727 -0.03347225 0.16079581
0.020177977 0.37822196 -0.25265318 0.19361898 0.3104856 -0.06760952 0.25930917 0.15242906
0.096315734 0.14251772 -0.3198687 0.028202787 0.07071946 0.14752664 -0.42651352 0.34676495
0.03575067 0.32592487 0.16160913 -0.6336237 -0.3433008 0.050447155 -0.50368994 -0.01074885

bn2.running_var f4 [64]
00000000: 8519 da3d 56a2 e33d 9c0e ac3d f7a3 e23d
00000010: 26f8 363e 20ee 353e 8dec be3d f635 c53e
00000020: e469 7f3d c43b cf3d 908e 9d3d 6c62 c13d
00000030: 86e1 863d 818a 5f3d faaa 083e c96a 223e
00000040: 9d60 283e 5793 a33d a68d df3d 64c3 1b3e
00000050: 3339 073e df35 523e 5c16 ca3d 2660 c13d
00000060: 59c6 9b3d eed4 4b3d 3b30 7a3e 87ba ad3d
00000070: 872f 993d f987 1d3e c520 2e3e 699f da3e
00000080: 8340 fb3d bfaf 0c3e 8790 763e 3492 873e
00000090: fbd3 bc3d bcfd 4b3e c65c 8e3e 41aa f03d
000000a0: a91c 523e a451 083e 151b 583e 5a59 993d
000000b0: 4dcd 3d3d 0abe 353e c6f2 7c3d a741 c53d
000000c0: 47f6 8f3d 2292 153e 8b6a c03d d83a e93d
000000d0: 8aa3 1c3d a5d8 503e 7834 6c3e ae2e 393e
000000e0: a140 9d3d bee6 6c3d 1f9a 4a3d bceb 383e
000000f0: 5ded 2b3e 1680 303e 4b05 eb3d dc1f 7e3e
0.10649399 0.111149475 0.08401224 0.1106643 0.17868099 0.17766619 0.09322462 0.3851773
0.062356845 0.10118821 0.07693207 0.094426006 0.06585984 0.054575447 0.13346472 0.15861048
0.16443105 0.07987087 0.10915689 0.15211254 0.13205414 0.20528363 0.09867546 0.09442167
0.07606191 0.049763612 0.24432461 0.08482843 0.07479768 0.153839 0.17004688 0.42699745
0.12268164 0.13738917 0.2407857 0.26478732 0.092201196 0.1992101 0.27805156 0.11751223
0.20518745 0.13312393 0.21104081 0.074877456 0.04633837 0.17748275 0.061754964 0.09631663
0.070293956 0.14606526 0.093953215 0.11388177 0.0382419 0.20395143 0.2306689 0.18084213
0.076783426 0.05783724 0.049463388 0.18058676 0.16789766 0.17236361 0.11475619 0.24816841

bn3.weight f4 [64]
00000000: b9a5 703f a87b 7d3f b9a4 7d3f 71b1 6e3f
00000010: ee18 733f c51f 7c3f 2187 713f 9cb0 7a3f
00000020: 482d 743f facb 803f 7270 803f ef41 7f3f
00000030: 0e19 643f ed09 813f 8df7 713f 18c4 763f
00000040: 5be6 763f 461f 803f 4675 7b3f b559 743f
00000050: a65e 793f 5dfa 7f3f 2107 803f 5e5d 7c3f
00000060: 7a2d 753f 1eb5 7a3f 49df 743f f203 853f
00000070: d589 7e3f 6d4e 703f 209c 7c3f 8649 793f
00000080: 6b23 843f edad 763f 4c13 7a3f 0e19 7b3f
00000090: e5c1 783f b2b9 723f 0ae4 773f 868c 7a3f
000000a0: de46 793f e6cd 813f 2727 703f 5b6b 703f
000000b0: e47d 783f a710 833f 150a 703f 5367 863f
000000c0: 69c8 773f 9125 6a3f f09f 7c3f 0719 773f
000000d0: bbc4 7b3f 9014 803f 3781 6e3f c9af 7e3f
000000e0: c6f6 753f e112 733f 6f43 7b3f 9749 7d3f
000000f0: 25d5 743f a813 7b3f 4c07 773f ea0d 793f
0.9400287 0.9901681 0.9907947 0.93239504 0.94959915 0.98485976 0.94346815 0.97925735
0.95381594 1.0062249 1.0034316 0.9970998 0.8910073 1.0081154 0.9451836 0.96392965
0.96445245 1.0009544 0.9822582 0.9544938 0.9741005 0.999914 1.0002176 0.9857997
0.95772517 0.9793261 0.95653206 1.0391829 0.99429065 0.9386967 0.9867573 0.9737781
1.0323309 0.9635914 0.97685695 0.98085105 0.9717086 0.948146 0.96832335 0.9787067
0.9737376 1.014096 0.9380974 0.9391381 0.97067094 1.0239457 0.93765384 1.0500282
0.96790177 0.9146357 0.98681545 0.96522564 0.9834706 1.0006275 0.93165916 0.99486977
0.9607967 0.9495068 0.9814977 0.98940414 0.9563773 0.9807687 0.9649551 0.97286856

bn3.bias f4 [64]
00000000: 4ece b5bc 81d7 bcbc 6f34 f2bc ed7f c7bc
00000010: 8143 18bd 4331 05bd 3091 1cbc 155f 85bd
00000020: 70bd 04bb d472 ff3b 1101 5c3d 3758 bb3c
00000030: 63c2 38bd e849 ec3c 0d3f 4aba f29c e23b
00000040: 0247 1bbd 501a ed3c 90d8 653c 0f9e 81bc
00000050: d49b 0abd 97a0 1b3d cb4f b33c 11c2 083b
00000060: 5a73 7c39 1722 6cbd c099 b4bc 67f2 223d
00000070: 6c7f 9fbc fbbb 3e3b 9983 cebc cce5 533a
00000080: c916 aebc 1d6e 77bc d241 42bd 01d4 dabc
00000090: f0d7 9abc 10f1 ddbc a567 bbbc 46c0 8e3a
000000a0: 7254 f53c 49b6 cdbc 0aec 913c 6d01 05bd
000000b0: dce8 c0bc 6737 f0bc babb 1bbd f810 2b3c
000000c0: d4d3 c53c 26ac 383c d294 91bc c36e 67bc
000000d0: d1c6 a1bc d618 29bd 73b1 27bd d16f ae3d
000000e0: f938 913c 929b febc 9d59 fabc ec43 893c
000000f0: a8b1 a5bc 2990 f3bc c04a 84bc ed38 36bd
-0.0221931 -0.023051979 -0.029566018 -0.024352992 -0.03717375 -0.032517683 -0.0095561 -0.06512276
-0.0020254515 0.007795671 0.053711955 0.022869213 -0.045107257 0.028843835 -0.0007715084 0.006915682
-0.037909515 0.02894321 0.014028683 -0.015822439 -0.033840016 0.037994947 0.021888634 0.0020867626
0.00024075565 -0.057649698 -0.02204597 0.039781954 -0.01946994 0.0029103744 -0.025209235 0.00080832536
-0.0212511 -0.015101937 -0.047426052 -0.02671242 -0.018901795 -0.027092487 -0.02287657 0.0010891042
0.029947493 -0.025111334 0.017812748 -0.032472063 -0.023548536 -0.029323293 -0.038020827 0.010441057
0.02414886 0.011271512 -0.017771158 -0.014125529 -0.019748123 -0.04128345 -0.040940713 0.08517421
0.017727362 -0.031080041 -0.030560309 0.01675602 -0.020226315 -0.029731827 -0.016148925 -0.044487882

bn3.running_mean f4 [64]
00000000: 2835 f5be b197 9b3e f232 be3e 0cd6 e93e
00000010: 0408 d3be 72f3 74be e67e c03e e232 cd3e
00000020: adcf 823e 25a1 933d 9f11 3e3c 48d6 55be
00000030: c469 93be 0275 263f 23be 6abe 947e 40bf
00000040: 018c 993e 52f5 3a3e e361 ee3e 1ca9 eebe
00000050: 07b0 a33e 796e 1fbe 3d8b 37be 4ab9 c43d
00000060: efce 0d3f 9feb 293e a7d4 c03e 78d2 23bf
00000070: d8bb 49be f5bc b8be 3c96 c83e ef23 e1be
00000080: e746 243e 70e8 813d 317a 9f3e 3fe6 cb3e
00000090: 0012 9a3e 2e9c 0b3f 5f4b 50be cf00 33be
000000a0: 32fb a63d 65c0 d93d 1541 33bf 8d42 7ebe
000000b0: b3d3 aabe 6350 63bf 2838 c1bd b58c c2be
000000c0: 93f0 95be f78c 1d3f 81fa fabc bc79 15bf
000000d0: 6884 cc3e 0aab cf3e 38e8 aabd b0dd 0bbe
000000e0: f25e 19be dc93 b03d 12d4 093e ada2 8b3d
000000f0: d5b5 e1bd 19d0 0cbe c3d0 da3e 3535 2abe
-0.47892118 0.3038917 0.37148243 0.45671117 -0.41217053 -0.23920992 0.37596816 0.40077883
0.2554907 0.0720847 0.011600881 -0.20882523 -0.2879163 0.6502229 -0.22924094 -0.7519314
0.29989627 0.18257645 0.46559057 -0.46613395 0.31970236 -0.15569486 -0.17924209 0.096056536
0.5539388 0.16593789 0.3766224 -0.63993025 -0.19700563 -0.36081663 0.3917712 -0.43972728
0.16042672 0.06343162 0.31147912 0.398241 0.30091858 0.54535186 -0.20341252 -0.17480777
0.081533805 0.106323995 -0.7002118 -0.24830075 -0.3336464 -0.88794535 -0.09434539 -0.37997976
-0.29285106 0.6154322 -0.030637028 -0.58388877 0.39944768 0.4056018 -0.083450735 -0.13658786
-0.14977625 0.08621952 0.13459805 0.06818137 -0.1102101 -0.13751258 0.42737398 -0.1662186

bn3.running_var f4 [64]
00000000: 5813 4f3e 2916 1d3e 1403 493e dcf7 1e3e
00000010: bdd2 1e3e 67be 533e 998b c63e 87e4 5e3e
00000020: 021e 323e efd1 633e 263b 113e 3693 2e3e
00000030: 642e 093f 3f80 853e d460 fe3d 68c8 913e
00000040: 3b4c 9d3e 1615 da3d bfa7 463e 8c75 153e
00000050: 2a20 023e 6b2e 0e3e 2f6f 243e 0527 1b3e
00000060: ebe9 ad3e 1c0d 243e 6d11 4d3e 6346 ca3e
00000070: d557 663e ac8a 903e 7b4d 923e ef2a 423e
00000080: 3ca0 253e b97f 2a3e 0119 4f3e a18a 803e
00000090: 0bda 143e 9b06 a93e 15be 343e 6af1 183e
000000a0: c0fc 153e 2eca 513e 114c 243f d3f4 8c3e
000000b0: f78c 313e b70c 883e 52bc 583e adfd 353e
000000c0: 0fad 103e 120a ba3e 748d 283e ea39 083f
000000d0: 1638 8e3e 43ab f03e a04f 2c3e ac9b d13d
000000e0: efb7 2a3e a0c8 bf3d 2a8b fd3d 3b2a 743e
000000f0: a55a 6c3e 9a71 433e c49f 773e 50ff 293e
0.20222223 0.15340485 0.1963008 0.15524238 0.15510078 0.20678101 0.3877838 0.21766864
0.1739426 0.22248052 0.1418272 0.17048344 0.5358641 0.26074407 0.12420812 0.2847321
0.30722222 0.10648553 0.19399928 0.14595622 0.12707582 0.13884895 0.16058038 0.15151604
0.33967528 0.16020626 0.20026179 0.39506826 0.22494443 0.28230798 0.28574738 0.1896169
0.16174406 0.16650285 0.20224382 0.25105765 0.14536302 0.33012852 0.17650636 0.14935842
0.14647198 0.20487282 0.6417857 0.27530536 0.1733893 0.265722 0.21165588 0.17772551
0.14128517 0.36335808 0.1646021 0.5321337 0.27777165 0.47005662 0.1682725 0.1023477
0.16671728 0.09364438 0.12380059 0.23844235 0.23081453 0.19086304 0.2418204 0.166013

bn4.weight f4 [64]
00000000: df1c 823f 4bf6 7c3f 68d7 7e3f bfa5 6b3f
00000010: 01e7 673f 2796 7c3f 1348 7b3f 66b7 733f
00000020: 58dd 7f3f 35ee 813f dfee 683f a2f0 7d3f
00000030: 05d4 843f 96a1 703f a5ba 653f a834 7c3f
00000040: 737f 863f 5686 7d3f 3272 723f 1d29 783f
00000050: 8bd5 743f 42ef 813f 8316 723f d65c 7e3f
00000060: 106c 7a3f 525b 7d3f 9fd2 7e3f 15cd 753f
00000070: 66c1 7c3f 73d2 793f a94c 833f 30fb 853f
00000080: f8d9 6c3f 5433 673f ca63 6e3f 4bc0 703f
00000090: 4e5d 773f ee41 7b3f 4034 523f a37b 7d3f
000000a0: 4169 673f c0bf 783f 2485 583f a978 743f
000000b0: 16dc 7c3f 7db7 633f 9294 733f db02 803f
000000c0: 7f08 7c3f ad97 6d3f 49a1 763f 9f28 813f
000000d0: eeb7 7e3f 1d4e 813f aa95 803f 2715 7e3f
000000e0: 994b 813f 0fd3 7c3f 0508 6d3f d67f 723f
000000f0: f094 7e3f e52b 863f 8ede 703f 60c3 7e3f
1.0165061 0.98813313 0.99547434 0.92049783 0.9058686 0.98666614 0.9815685 0.9520172
0.9994712 1.015082 0.9098949 0.991953 1.0377203 0.9399656 0.8973792 0.9851785
1.0507644 0.99033105 0.947055 0.96937734 0.9563834 1.0151141 0.945656 0.99360406
0.9782114 0.9896747 0.9954013 0.96016055 0.987326 0.97586745 1.025777 1.0467281
0.92520094 0.90312696 0.93121016 0.94043416 0.96626747 0.98147476 0.8211098 0.9901678
0.9039498 0.9716759 0.84578156 0.9549661 0.98773324 0.88951856 0.95148575 1.0000871
0.98450464 0.92809564 0.9633985 1.0090522 0.99499404 1.0101963 1.0045674 0.99251026
1.0101196 0.9875955 0.9259036 0.9472631 0.9944601 1.0482146 0.9408959 0.9951687

bn4.bias f4 [64]
00000000: c0a4 b93b df17 063c cc9b ef3c d666 e2bc
00000010: 8a27 babc 1639 193d db01 a4bb d425 2a3d
00000020: 866d 203b 91b6 bd3c 8ae3 b5bb 7423 e73a
00000030: 06c9 083d f49e 2e3c 4eab f7bc 2b85 9aba
00000040: 9f00 a93c d8c0 053d d07c 283d 4d4b e9bc
00000050: 2044 b5ba 1596 aa3c 3c72 8fbc f572 723c
00000060: 6630 ef39 58d1 c63c 794e b8bc 2dd1 9a3c
00000070: d4f4 c1bc d001 6d3a fa7c e6bc 16ad d43c
00000080: e7a9 6cbc 40c5 bfbc d59d e6bb b13e 10bd
00000090: 701a e43b 6f22 a2b9 5b3e b03c 128d 9b3b
000000a0: ee5b 663b b181 023c 22d0 dbbb 2b01 19bd
000000b0: 6ae0 4b3c 6494 b63b 4525 b1bc d150 a23c
000000c0: ccc0 f9bc 7e17 073c 172c ffbc 5e75 6b3c
000000d0: 829d 2e3d be55 e83b 930e ab3c 319f d03a
000000e0: 5541 3e3d 0b79 fc3c 9c4b f5bc a9c1 e3bc
000000f0: 5dc1 313c 2451 60bc 6b03 083c bbaf 1abd
0.0056653917 0.008184402 0.029249094 -0.027636927 -0.022723932 0.037407957 -0.005005104 0.041539982
0.0024479344 0.023158344 -0.0055508064 0.0017634467 0.033394836 0.010658015 -0.030233052 -0.0011788955
0.020630179 0.032654613 0.041134655 -0.028478289 -0.0013829507 0.020823518 -0.017510526 0.014797916
0.00045621692 0.024269745 -0.022498356 0.01889857 -0.023676313 0.00090411026 -0.028135765 0.02596144
-0.014444805 -0.023409486 -0.007037858 -0.035216037 0.0069611594 -0.00030924703 0.021514108 0.0047470415
0.003515001 0.007965491 -0.006708161 -0.03735463 0.012443641 0.0055718888 -0.021624217 0.019813927
-0.03048744 0.008245347 -0.031148953 0.014371244 0.04263068 0.0070902994 0.020880973 0.0015916583
0.046449024 0.030819437 -0.02994328 -0.027802305 0.010849324 -0.01369122 0.008301596 -0.037765246

bn4.running_mean f4 [64]
00000000: 4aff 37be 5fa5 b0be abe9 2d3e 504e f4be
00000010: ac0e e43c d759 d1bd 40b7 ab3e 0ed5 403d
00000020: fcba c13d 605b a7bb eb6c abba e7d0 723e
00000030: e64b 163e 8582 0d3e 5fcc 8b3e 2e53 56bd
00000040: 83fa c3be 99c2 5d3e 6272 bfbe 6505 5dbc
00000050: cfa9 f43c 6d5f 0b3e 70a6 ac3e 37f1 913e
00000060: 92fc a23e fa45 193d 065f 8cbe c4a6 d4bd
00000070: 2c62 873d 4862 9f3e a22e 733e 5388 03be
00000080: 7102 36bf de1e 96bd 9870 003e f474 943e
00000090: 3d88 24bd 9777 2a3e 3d68 a0be 78cb 523d
000000a0: 9f42 6d3e e4c9 b83e cb8f 82be 482a 95bd
000000b0: bfc6 803d 22aa 84be f984 583d 6ebd 08be
000000c0: 3b01 c63d ef7f b33e 45da a73e 6772 6abe
000000d0: f572 ea3d 30f2 d63e 90f8 993e 80ad b53e
000000e0: 6669 4f3c 0d66 07be 14c9 f53d 2b10 373d
000000f0: 2b0f 073e 2266 1fbf 777e ff3e 6052 433e
-0.17968479 -0.34501168 0.16983669 -0.47715998 0.027839027 -0.10222214 0.33538246 0.047078185
0.094594926 -0.0051073283 -0.0013078725 0.23712502 0.1467739 0.1381932 0.2730436 -0.05232542
-0.38277063 0.21656264 -0.37391955 -0.013490056 0.029866127 0.13610621 0.33720732 0.28504345
0.3183332 0.03742025 -0.27416247 -0.103833705 0.06610522 0.3112967 0.23748258 -0.12844972
-0.71097475 -0.07330106 0.12542951 0.28995478 -0.04016899 0.16647182 -0.31329527 0.051463574
0.23169945 0.3609153 -0.2550033 -0.07283455 0.06287908 -0.2591105 0.052861188 -0.13353512
0.096682034 0.35058543 0.32783714 -0.22895204 0.114477076 0.4198165 0.3007245 0.35483932
0.012659406 -0.13222523 0.12001243 0.044693153 0.1318938 -0.6226522 0.49901173 0.19074392

bn4.running_var f4 [64]
00000000: ba70 5c3e 42a7 823e 7cd9 073e 45ae 993e
00000010: 4aad b13d 7358 163e cf44 203e a564 073e
00000020: 6d44 2f3e c1cb 2b3e 0a27 323e 68c7 fa3d
00000030: 952e 1b3e 6b71 0e3e 8def 723e 9edf f03d
00000040: e818 3a3e 06d9 0d3e a73d 4a3e 8936 373e
00000050: 0b63 1f3e 78b4 093e 8f20 593e d139 003e
00000060: e91a 4e3e afc2 1a3e d37d 093f d55b 293e
00000070: a8ec fc3d a31b 623e de53 063e b7c7 2f3e
00000080: 73d4 0d3f eaa4 253e 688b 4b3e 7162 f13d
00000090: e8cb 523e 1912 393e f43d 4d3e 45ef 113e
000000a0: 1d6d 2f3e 57e8 f83d 7f4e 443e d579 fc3d
000000b0: 129b 113e 9d5d 0f3e b6f8 0b3e e477 fa3d
000000c0: 7a1b 013e edbb 573e 7617 2a3e e1e3 993e
000000d0: 40fa 013e cab7 153e 222a 033e c93f 143e
000000e0: 2164 de3d b60d f53d d896 2a3e 4e28 023e
000000f0: 5db0 223e dc3c 0a3f 9de2 5e3e 6573 193e
0.21527377 0.25518233 0.13266557 0.3001577 0.086756304 0.14682178 0.15651248 0.13221987
0.17115946 0.16776945 0.17397705 0.12245065 0.15154488 0.13910453 0.23724194 0.117614016
0.18173563 0.13852319 0.19750081 0.17891897 0.15565126 0.1344775 0.21203826 0.12522055
0.20127453 0.15113328 0.5370762 0.16538937 0.12349826 0.22080855 0.1311793 0.17166029
0.55402297 0.16176191 0.19877398 0.11786354 0.20585597 0.1807331 0.20043164 0.1425143
0.17131467 0.1215369 0.19170569 0.12327925 0.14219311 0.14000554 0.13669094 0.122298986
0.12608138 0.21067782 0.16610512 0.3005667 0.12693119 0.14620891 0.12809041 0.14477457
0.10858942 0.11965506 0.16659105 0.12710688 0.1588759 0.53999114 0.21766134 0.14985426

bn5.weight f4 [64]
00000000: 0000 803f 0000 803f 0000 803f 0000 803f
00000010: 0000 803f 0000 803f 0000 803f 0000 803f
00000020: 0000 803f 0000 803f 0000 803f 0000 803f
00000030: 0000 803f 0000 803f 0000 803f 0000 803f
00000040: 0000 803f 0000 803f 0000 803f 0000 803f
00000050: 0000 803f 0000 803f 0000 803f 0000 803f
00000060: 0000 803f 0000 803f 0000 803f 0000 803f
00000070: 0000 803f 0000 803f 0000 803f 0000 803f
00000080: 0000 803f 0000 803f 0000 803f 0000 803f
00000090: 0000 803f 0000 803f 0000 803f 0000 803f
000000a0: 0000 803f 0000 803f 0000 803f 0000 803f
000000b0: 0000 803f 0000 803f 0000 803f 0000 803f
000000c0: 0000 803f 0000 803f 0000 803f 0000 803f
000000d0: 0000 803f 0000 803f 0000 803f 0000 803f
000000e0: 0000 803f 0000 803f 0000 803f 0000 803f
000000f0: 0000 803f 0000 803f 0000 803f 0000 803f
1.0 1.0 1.0 1.0 1.0 1.0 1.0 1.0
1.0 1.0 1.0 1.0 1.0 1.0 1.0 1.0
1.0 1.0 1.0 1.0 1.0 1.0 1.0 1.0
1.0 1.0 1.0 1.0 1.0 1.0 1.0 1.0
1.0 1.0 1.0 1.0 1.0 1.0 1.0 1.0
1.0 1.0 1.0 1.0 1.0 1.0 1.0 1.0
1.0 1.0 1.0 1.0 1.0 1.0 1.0 1.0
1.0 1.0 1.0 1.0 1.0 1.0 1.0 1.0

bn5.bias f4 [64]
00000000: 0000 0000 0000 0000 0000 0000 0000 0000
00000010: 0000 0000 0000 0000 0000 0000 0000 0000
00000020: 0000 0000 0000 0000 0000 0000 0000 0000
00000030: 0000 0000 0000 0000 0000 0000 0000 0000
00000040: 0000 0000 0000 0000 0000 0000 0000 0000
00000050: 0000 0000 0000 0000 0000 0000 0000 0000
00000060: 0000 0000 0000 0000 0000 0000 0000 0000
00000070: 0000 0000 0000 0000 0000 0000 0000 0000
00000080: 0000 0000 0000 0000 0000 0000 0000 0000
00000090: 0000 0000 0000 0000 0000 0000 0000 0000
000000a0: 0000 0000 0000 0000 0000 0000 0000 0000
000000b0: 0000 0000 0000 0000 0000 0000 0000 0000
000000c0: 0000 0000 0000 0000 0000 0000 0000 0000
000000d0: 0000 0000 0000 0000 0000 0000 0000 0000
000000e0: 0000 0000 0000 0000 0000 0000 0000 0000
000000f0: 0000 0000 0000 0000 0000 0000 0000 0000
0.0 0.0 0.0 0.0 0.0 0.0 0.0 0.0
0.0 0.0 0.0 0.0 0.0 0.0 0.0 0.0
0.0 0.0 0.0 0.0 0.0 0.0 0.0 0.0
0.0 0.0 0.0 0.0 0.0 0.0 0.0 0.0
0.0 0.0 0.0 0.0 0.0 0.0 0.0 0.0
0.0 0.0 0.0 0.0 0.0 0.0 0.0 0.0
0.0 0.0 0.0 0.0 0.0 0.0 0.0 0.0
0.0 0.0 0.0 0.0 0.0 0.0 0.0 0.0

bn5.running_mean f4 [64]
00000000: 0000 0000 0000 0000 0000 0000 0000 0000
00000010: 0000 0000 0000 0000 0000 0000 0000 0000
00000020: 0000 0000 0000 0000 0000 0000 0000 0000
00000030: 0000 0000 0000 0000 0000 0000 0000 0000
00000040: 0000 0000 0000 0000 0000 0000 0000 0000
00000050: 0000 0000 0000 0000 0000 0000 0000 0000
00000060: 0000 0000 0000 0000 0000 0000 0000 0000
00000070: 0000 0000 0000 0000 0000 0000 0000 0000
00000080: 0000 0000 0000 0000 0000 0000 0000 0000
00000090: 0000 0000 0000 0000 0000 0000 0000 0000
000000a0: 0000 0000 0000 0000 0000 0000 0000 0000
000000b0: 0000 0000 0000 0000 0000 0000 0000 0000
000000c0: 0000 0000 0000 0000 0000 0000 0000 0000
000000d0: 0000 0000 0000 0000 0000 0000 0000 0000
000000e0: 0000 0000 0000 0000 0000 0000 0000 0000
000000f0: 0000 0000 0000 0000 0000 0000 0000 0000
0.0 0.0 0.0 0.0 0.0 0.0 0.0 0.0
0.0 0.0 0.0 0.0 0.0 0.0 0.0 0.0
0.0 0.0 0.0 0.0 0.0 0.0 0.0 0.0
0.0 0.0 0.0 0.0 0.0 0.0 0.0 0.0
0.0 0.0 0.0 0.0 0.0 0.0 0.0 0.0
0.0 0.0 0.0 0.0 0.0 0.0 0.0 0.0
0.0 0.0 0.0 0.0 0.0 0.0 0.0 0.0
0.0 0.0 0.0 0.0 0.0 0.0 0.0 0.0

bn5.running_var f4 [64]
00000000: 0000 803f 0000 803f 0000 803f 0000 803f
00000010: 0000 803f 0000 803f 0000 803f 0000 803f
00000020: 0000 803f 0000 803f 0000 803f 0000 803f
00000030: 0000 803f 0000 803f 0000 803f 0000 803f
00000040: 0000 803f 0000 803f 0000 803f 0000 803f
00000050: 0000 803f 0000 803f 0000 803f 0000 803f
00000060: 0000 803f 0000 803f 0000 803f 0000 803f
00000070: 0000 803f 0000 803f 0000 803f 0000 803f
00000080: 0000 803f 0000 803f 0000 803f 0000 803f
00000090: 0000 803f 0000 803f 0000 803f 0000 803f
000000a0: 0000 803f 0000 803f 0000 803f 0000 803f
000000b0: 0000 803f 0000 803f 0000 803f 0000 803f
000000c0: 0000 803f 0000 803f 0000 803f 0000 803f
000000d0: 0000 803f 0000 803f 0000 803f 0000 803f
000000e0: 0000 803f 0000 803f 0000 803f 0000 803f
000000f0: 0000 803f 0000 803f 0000 803f 0000 803f
1.0 1.0 1.0 1.0 1.0 1.0 1.0 1.0
1.0 1.0 1.0 1.0 1.0 1.0 1.0 1.0
1.0 1.0 1.0 1.0 1.0 1.0 1.0 1.0
1.0 1.0 1.0 1.0 1.0 1.0 1.0 1.0
1.0 1.0 1.0 1.0 1.0 1.0 1.0 1.0
1.0 1.0 1.0 1.0 1.0 1.0 1.0 1.0
1.0 1.0 1.0 1.0 1.0 1.0 1.0 1.0
1.0 1.0 1.0 1.0 1.0 1.0 1.0 1.0

conv1.0.weight f4 [64, 6, 1, 1]
00000000: 4e1d 0cbd 4546 b4be 4fa2 5abe 250b 5b3e
00000010: 9f61 cabd 1959 83be a9ab 053e aa66 f03d
00000020: 29ec e13e 7182 f4bc 07d4 753d 6e84 173c
00000030: 7b0f 5d3d 08ae 483e 65e1 18be fda7 963e
00000040: cc18 42be 3e00 44be 0998 683c 80ac f6bb
00000050: 358d 06bb e53c 14be 7c22 873e ad6e 26bd
00000060: aa2a 2ebe aa3e d33e 4083 583e da22 963e
00000070: 4f0b 93be fc6a 133e 5afe 303b 7d04 dcbd
00000080: e024 bfbc 3650 9abe 270c 863d f9bf 8fbe
00000090: babb a03d d280 89be e88b 87be 80f0 9b3e
000000a0: 2a55 80be b376 61be 4da1 f73c baeb 483d
000000b0: 3712 41be 9a2f 9dbd 9098 90be 62f7 50be
000000c0: 8ab2 c6be 8bc0 5f3e c547 cabd f23b df3d
000000d0: d805 933e aa4d 8ebb 48af 0c3e 836c e9bd
000000e0: 6e93 4e3e 75f9 6cbe 2faf 7cbe 69e8 b0be
000000f0: 1075 a7be 7134 7dbe f1aa 1bbe ff76 dd3c
00000100: e1f8 adbe 7377 8c3e 348c f6bd af93 92bc
00000110: d743 77be dfae de3e 4d6f b4be 5dba b1ba
00000120: 6de4 763d e208 f7bd 9311 d23e cc4c 87be
00000130: ecce 6bbe 1900 9fbd f9ef 043e 148f e23d
00000140: dec6 383e f3f8 7f3e 9eb3 603e fa43 573e
00000150: b488 a63e f629 6dbe 5e04 4a3e 5418 d7bd
00000160: 9688 c03e 931a 56be 6922 403d 4beb 303d
00000170: 335e 893e 9446 d13c f6f7 34be c515 1f3e
00000180: b8ba b9be ccc7 77bc 25aa 9c3e 7154 723e
00000190: 45bc 2b3e 2dbc 8dbe 992c 72bd a309 813d
000001a0: cd10 123e 81dc 87bc 367e 093e 0690 b0bd
000001b0: 5854 7bbb e6ed f1bd fd4a 8ebc 00f3 afbe
000001c0: 4b6f 953e 6e1c 84bd 5781 23be de86 13bd
000001d0: 7bfb 033e 4936 863e a87d 273e 25c3 12be
000001e0: cf13 d03e db23 bfbc 265d 973e 7681 9a3e
000001f0: 58e2 e9bd eda1 a0bd dc4e aabd 0319 b5be
00000200: f25f 20be baa7 0dbe 4b97 3fbd e8a1 90be
00000210: f048 1f3b e477 2d3c 8e47 34be 9570 45be
00000220: 8ac4 71be e532 b43e 9356 5c3e 2994 ac3d
00000230: 7e5c d8bd 3454 3d3e 2ccd cebd 42a0 debd
00000240: 179d 663e 4569 a8be d77b ddbd 1ab0 b0be
00000250: c5a0 c6be 350e af3c 2c00 af3e e31e 103e
00000260: f77f d0bd 62ae 26be 597f d13d d77f 7f3e
00000270: 28b9 11be 49df b7be 88d7 363e 28f6 a9be
00000280: 4e36 cbbe ef6a 393e d9cd e5be c3bc fcbd
00000290: 34fc 59be bb4d bf38 a69a 9dbd 4918 fa3d
000002a0: 296c 53be 9aac eabe 0485 30be 3ea6 88be
000002b0: fbee ca3d 801f d8bd 0922 623e 09e4 8c3c
000002c0: 68ad 993e 50a6 a03e 6d0d 6d3e b57d 983c
000002d0: 7cb3 b13e f6c6 d03e 6dfa d23d 1bce 2cbd
000002e0: 3dce 48be c9fd a5bd 14a6 b1be 62d6 333e
000002f0: a43f 7f3d 7a0a b1be 7d79 943e b212 b43e
00000300: 141f 553d 7a09 d5bd d3a2 1b3d cd86 8f3c
00000310: 2117 d1be 5e92 27be d169 f9be e688 753e
00000320: e1f2 4dbe ed4e aabe e10c 2e3e fc40 8abd
00000330: 7a20 adbe 458f 48be 15a9 3cbe ed7d 3fbe
00000340: d3e5 d0be ff1e c2be 8fbd 7dbd a610 bb3e
00000350: fdef 74be def7 93be d019 c43e 3bdc a5be
00000360: 4f03 24bd 5677 123e d2cf 9f3e 139b 82be
00000370: 68cc 823e a645 363e 0d76 d2bd 410a 20bd
00000380: ab2b 31bc f261 b93d 49e6 733e 170a 57bd
00000390: 09f5 fdbc 5b13 0bbd ae52 15be bb99 ae3e
000003a0: 9103 a23e cc0c b83e 8ca8 cf3d 06a0 9fbe
000003b0: 5fa4 36be 6333 0c3d 459c c63e 4e27 34bd
000003c0: 7e3c 8ebe 4bda adbe c2c5 073e 78b6 903e
000003d0: 82ee 92bd 8da0 023e 3038 18be fdcf a2bd
000003e0: 8d70 88bd 6cb0 40be b6a5 cfbe 36e2 3a3d
000003f0: bbfc 39be fd81 463e 6c4b 853e 2068 a5be
-0.034207635 -0.3520986 -0.21350978 0.2139097 -0.09881901 -0.25653914 0.13053764 0.117383316
0.44125488 -0.029847356 0.06001666 0.009247882 0.05396984 0.19597638 -0.14929731 0.2942504
-0.18954772 -0.19140717 0.014196404 -0.007527888 -0.0020530943 -0.14476354 0.26393497 -0.040632892
-0.17008463 0.41258746 0.21143818 0.29323465 -0.28719565 0.1439628 0.0027007074 -0.107430436
-0.023333013 -0.3013932 0.065452866 -0.2807615 0.07848306 -0.26856095 -0.26473927 0.30456924
-0.25064975 -0.22017936 0.030228281 0.04905293 -0.18854605 -0.07675095 -0.28241396 -0.20406869
-0.3880809 0.21850793 -0.0987697 0.109001055 0.28715396 -0.0043427544 0.1373874 -0.1139765
0.20173427 -0.23142035 -0.24676202 -0.34552315 -0.327065 -0.24727036 -0.15201928 0.02703428
-0.33978942 0.27434883 -0.120384604 -0.017892687 -0.24146973 0.4349279 -0.35241166 -0.0013559569
0.060276438 -0.12062241 0.41029033 -0.2642578 -0.23028153 -0.077636905 0.12982167 0.11062446
0.18044612 0.2499731 0.21943519 0.21022025 0.3252617 -0.23160538 0.19728228 -0.10502687
0.37604207 -0.20908575 0.046907816 0.043193143 0.2682968 0.02554635 -0.17672715 0.15535648
-0.36275268 -0.015123319 0.3059856 0.23665024 0.16771038 -0.2768263 -0.059124563 0.06300666
0.14264221 -0.016584637 0.13427052 -0.0862122 -0.0038349833 -0.11812954 -0.017369742 -0.34365082
0.29186472 -0.06450735 -0.15967308 -0.03601729 0.12888901 0.2621329 0.16356528 -0.14332254
0.40640113 -0.023332527 0.29563254 0.30176896 -0.11420125 -0.07843385 -0.083158225 -0.35370645
-0.156616 -0.13833514 -0.046775144 -0.28248525 0.0024304949 0.010587666 -0.17605421 -0.19281228
-0.2361013 0.3519508 0.215174 0.08426697 -0.105645165 0.18489152 -0.10097727 -0.108704105
0.22520863 -0.32892814 -0.10814636 -0.34509355 -0.38794532 0.02136908 0.3417982 0.14074282
-0.10180657 -0.1627746 0.10229368 0.24951111 -0.14230788 -0.3591254 0.17855656 -0.33195615
-0.3968987 0.18107198 -0.44883612 -0.12340691 -0.21287614 9.122068e-05 -0.076955125 0.12211663
-0.20646729 -0.4583481 -0.17238241 -0.26689333 0.09908863 -0.10552883 0.22083296 0.01719858
0.3001511 0.31376886 0.23149653 0.01861463 0.34707248 0.40776795 0.10301671 -0.042188745
-0.19609924 -0.08105046 -0.3469702 0.1756225 0.06231655 -0.34578305 0.28998938 0.35170513
0.05203159 -0.10402198 0.03799708 0.017520333 -0.40837958 -0.16364428 -0.48713544 0.23978004
-0.20112182 -0.3326334 0.169971 -0.06750676 -0.3381384 -0.19585903 -0.18423875 -0.1870038
-0.40800342 -0.37914273 -0.061948355 0.3653614 -0.23919673 -0.28900045 0.38300943 -0.32394585
-0.040042218 0.14303336 0.31213242 -0.25508937 0.25546575 0.17800006 -0.10276423 -0.03907228
-0.010813634 0.09051885 0.23818316 -0.052499857 -0.03100063 -0.033954006 -0.14582321 0.34101662
0.31643346 0.35947263 0.1013957 -0.31176776 -0.1783614 0.034228694 0.387911 -0.043982796
-0.27780527 -0.33955607 0.13259032 0.28264213 -0.07174398 0.12756558 -0.14865184 -0.07949827
-0.06662092 -0.188173 -0.40556115 0.045625888 -0.18162815 0.19385524 0.26034105 -0.32306004

conv1.1.weight f4 [64]
00000000: db20 803f 7862 7a3f cd86 7f3f 0367 803f
00000010: e1f3 713f 5902 7b3f 6bf6 803f da75 7e3f
00000020: 1340 783f d8a1 7b3f 8888 753f 1537 803f
00000030: 1942 803f 9eb1 763f 470c 803f f49b 7e3f
00000040: 18eb 823f a395 7b3f f94e 813f 1330 823f
00000050: d6cf 803f 0d5d 763f d9a0 7c3f a492 813f
00000060: ba09 7f3f 1e69 793f 90ca 7e3f 8388 763f
00000070: 74e8 7c3f c8b0 743f 9433 813f 3a95 733f
00000080: d022 803f 3353 853f 9fe2 7b3f f4ad 833f
00000090: c418 783f d74b 7e3f a1da 7c3f 2b44 7b3f
000000a0: c199 7b3f e730 753f 415a 803f 9a75 7e3f
000000b0: 23fa 773f ae71 783f eefc 793f 9624 7a3f
000000c0: b4ff 7e3f 0de5 793f 71ad 7c3f 36d3 813f
000000d0: 0fd7 823f 56a4 7d3f 841f 793f 040a 793f
000000e0: c26e 773f 0ed2 7f3f 3b1c 7c3f e237 7f3f
000000f0: 8b84 813f c231 793f a41c 803f caeb 823f
1.0010027 0.978065 0.99815065 1.0031437 0.94512755 0.9805046 1.0075201 0.9939858
0.9697277 0.9829383 0.95911455 1.001681 1.0020171 0.9636477 1.0003747 0.99456716
1.0227995 0.982752 1.0102226 1.0170921 1.0063426 0.96235734 0.98682934 1.0122876
0.99624217 0.9742602 0.99527836 0.9630205 0.98792195 0.95582247 1.0093865 0.95149577
1.0010624 1.0416015 0.9839267 1.0287461 0.9691279 0.9933447 0.987711 0.9815089
0.98281485 0.95777744 1.0027543 0.99398196 0.96866053 0.9704846 0.97651565 0.97712076
0.9960892 0.9761513 0.9870215 1.0142581 1.0221881 0.9907888 0.97313714 0.9728091
0.9665338 0.99929893 0.98480576 0.99694645 1.0118574 0.9734155 1.000874 1.0228207

conv1.1.bias f4 [64]
00000000: 21ea 63bc 7741 9a3d ba23 25bd 85d6 d0bc
00000010: ebb7 0e3d 1612 9ebd d2c8 8fbc 8b27 173c
00000020: c694 35bc c31c 3dbd b983 e8bb 61e5 b43c
00000030: 4277 023d 479d 9bbc 0850 30bd 4733 d13a
00000040: d191 9bbd 827e aabc fc53 dabc 0b1a 78bb
00000050: b426 c03c 9baa 26bd 6f25 4bbc 1f86 c53c
00000060: 5368 b53c 2de8 543c 24f5 203d 81d1 4c3c
00000070: b5a9 eb3b 24fa b03c 5293 903b 06f8 50bd
00000080: da8f f4bc 72ea 9ebc 71ed 62bd be09 833c
00000090: cc52 2a3d b71c 183b 7a2a 82bc 1c58 22bd
000000a0: 15e4 203d 39d7 a23b 782f 133c 01ca 933d
000000b0: 0ced 8d3b 5143 f43c 9caf febc 002d a4bb
000000c0: 8c87 37bc 8d07 303c d3e6 2cbd ca10 1cba
000000d0: 2f61 133d 94f2 c7bc 76d6 8b3b 166d 893b
000000e0: 39de 803d 72ff 99bb 27a5 d43a 3795 183c
000000f0: 41c4 f9bb 03a3 31bc 1210 623d 483d 30bc
-0.013910801 0.07532018 -0.040317275 -0.025492916 0.034843367 -0.07718293 -0.017551813 0.009225736
-0.011082834 -0.046170007 -0.0070957807 0.022082033 0.031852014 -0.018995894 -0.043045074 0.0015960716
-0.07596172 -0.020812277 -0.026651375 -0.003785732 0.023455955 -0.040690046 -0.012399062 0.024111805
0.022144472 0.012994808 0.039296284 0.0125011215 0.0071918615 0.021603651 0.004412093 -0.051017784
-0.02985375 -0.019398902 -0.055402223 0.015995856 0.041582868 0.0023210475 -0.015889395 -0.03963481
0.039280016 0.004969504 0.008983485 0.072162636 0.0043312367 0.029817255 -0.031089596 -0.005010247
-0.0112017505 0.010743988 -0.04221232 -0.00059534295 0.035981353 -0.024407662 0.004267509 0.0041939123
0.062923856 -0.004699641 0.0016223536 0.009312919 -0.0076222722 -0.010842088 0.055191107 -0.010756798

conv1.1.running_mean f4 [64]
00000000: 1d8b a3c5 3ecb 2543 e5e8 76c5 2f38 3bc4
00000010: 8434 2e45 e789 aec5 87c9 8dc5 85d9 80c5
00000020: 1c44 8cc2 b880 d9c5 6d15 ac45 8855 20c3
00000030: 7690 c2c4 3b0e 8345 5b3a 82c5 ba7a 4145
00000040: f889 b0c5 e5f7 d8c4 8df8 92c4 647b 38c5
00000050: 6c29 d4c4 d5e0 b0c5 438b df45 8689 0cc5
00000060: fb50 f343 a91a 9f45 70c8 6645 4fb8 1a45
00000070: 9277 fec4 dfa7 9543 5870 cec4 50f4 e145
00000080: 90e0 51c5 9f7d 9ac4 1d9a eec5 7679 c8c5
00000090: acb7 6545 98e4 83c4 f1bc e145 77f9 51c4
000000a0: a874 1b45 dcca 6844 c590 25c5 d62d 9fc4
000000b0: 4c53 cf45 1981 3145 345e a7c5 388a ce45
000000c0: f44b 14c5 d4ba 4145 e70b c8c5 a37f 62c4
000000d0: 13ec a3c4 b85e f4c5 ce03 f345 6b12 8dc5
000000e0: 62f2 b344 90a8 90c5 0b3a f845 00d7 e7c4
000000f0: 5a4d 53c5 96c6 be45 7484 e2c4 36f1 eec4
-5233.389 165.79391 -3950.556 -748.87787 2787.2822 -5585.238 -4537.191 -4123.19
-70.133026 -6960.09 5506.678 -160.3341 -1556.5144 4193.779 -4167.2944 3095.6704
-5649.246 -1735.7467 -1175.7672 -2951.712 -1697.2944 -5660.104 7153.4077 -2248.5952
486.63266 5091.3325 3692.5273 2475.5193 -2035.7366 299.3115 -1651.5107 7230.539
-3358.0352 -1235.9257 -7635.264 -6415.1826 3675.4795 -1055.1436 7223.6177 -839.8979
2487.291 931.1697 -2649.048 -1273.4324 6634.412 2840.0686 -5355.7754 6609.2773
-2372.747 3099.6768 -6401.488 -905.9943 -1311.3773 -7819.84 7776.4756 -4514.3022
1439.5745 -4629.0703 7943.2554 -1854.7188 -3380.8345 6104.823 -1812.1392 -1911.5378

conv1.1.running_var f4 [64]
00000000: a656 ff4a 0fc4 f648 0642 f34a 1e58 584a
00000010: 1676 054b 18ab 254b 64ab 1a4b 5fb8 d24a
00000020: 735a 5a4a d6bd 6c4b 37c8 384b e782 2f4b
00000030: 813e 984a 8754 e94a cfe6 234b 10a3 5a4a
00000040: 49cb 2b4b 02e8 b649 7869 ef4a 164b a74a
00000050: 21cc 864a e4ac ff4a 66a4 714b 18a7 254a
00000060: 8726 0e4b 49df eb4a a5cc 3b4b 165d 024a
00000070: af46 7f4a 6822 9b4a 0b5e 224a bf24 924b
00000080: 294a 024b e8a5 a34a ebb1 9a4b 1fcd 8d4b
00000090: cef2 ea4a 7982 214a 3dda 954b 2c5a bb4a
000000a0: 9b24 924a fc20 db4a e97b a44a 2dad 4c4a
000000b0: 5161 8e4b 8ff0 044b 47c6 7d4b 629f 554b
000000c0: 9d79 eb49 c682 c04a 38a4 504b 188d 564a
000000d0: 3741 9e49 6ce8 814b ac6c 8e4b efdb 3d4b
000000e0: 8112 4a4a cd80 254b 918e 744b 16c3 344a
000000f0: a553 5f4a 0442 454b 678e ad4a d4dc 9e4a
8.366931e+06 505376.47 7.971075e+06 3.5445835e+06 8.746518e+06 1.085724e+07 1.013642e+07 6.9048795e+06
3.5775008e+06 1.5515094e+07 1.2109879e+07 1.1502311e+07 4.9887365e+06 7.6457635e+06 1.0741455e+07 3.582148e+06
1.1258697e+07 1.4983682e+06 7.845052e+06 5.481867e+06 4.4170405e+06 8.37797e+06 1.5836262e+07 2.714054e+06
9.315975e+06 7.7290605e+06 1.2307621e+07 2.1358775e+06 4.1824438e+06 5.083444e+06 2.6602268e+06 1.9155326e+07
8.538665e+06 5.36242e+06 2.0276182e+07 1.8586174e+07 7.698791e+06 2.6461742e+06 1.9641466e+07 6.139158e+06
4.7888135e+06 7.180414e+06 5.3898125e+06 3.3534192e+06 1.866205e+07 8.712335e+06 1.6631367e+07 1.399997e+07
1.9290116e+06 6.308195e+06 1.3673528e+07 3.515206e+06 1.2964229e+06 1.7027288e+07 1.8667864e+07 1.2442607e+07
3.3107522e+06 1.0846413e+07 1.6027281e+07 2.9616055e+06 3.6589852e+06 1.2927492e+07 5.6870915e+06 5.20561e+06

conv2.0.weight f4 [64, 128, 1, 1]
00000000: a33b d2bc bdff 17bd a6f3 6bbd 5b27 923d
00000010: fe00 9f3c 7f9b 123e 6efe b8bd 0b0b c4bd
00000020: ef12 e4bc f75d cabb fafe 0a3d 929b c1bd
00000030: 589e 483d b33f e4bc 7294 083e 84ae 21bc
00000040: 8bd7 57bd 8bcd 063e 410c 0c3e 17c9 6abc
00000050: f714 e1bd 8e71 6bbd 03bd 233d 5d57 bcbd
00000060: b319 e3bc 073f a7bd dd8c b4bd 92e0 f2bd
00000070: 9fd5 e5bc 3b47 4ebd 114e 81bd 483c 0c3d
00000080: 0488 d8bd abe8 6c3d f3fd d33c 5eda 043e
00000090: 4391 933b abce 0b3e 516e 9dbc ce6d ef3b
000000a0: cc3d a0bd 2128 e539 037a 07bc fc80 9cbd
000000b0: 9d10 293d b4ba 4f3d 3ef9 943c cb7a 393d
000000c0: 863e f9bd 8e17 d8bc 11e7 eaba 1fbc cabd
000000d0: 265e e0bd c7fe a73d e009 72bd e29b fe3c
000000e0: e67b 9bbd 288a 6c3d 3297 b0bb d015 80bc
000000f0: cba9 62bd 9490 383d d975 963d ede8 cf3c
00000100: 59a5 4139 3915 f33c de05 893d df5e a7bd
00000110: b862 1a3b bd95 15bd 1585 c5bc 5f3f 9dbd
00000120: c331 87bd 5053 983d a8f0 7fbd 3b9e 053d
00000130: c4fe febc 8389 70bd eadd 14bc 5ada c73b
00000140: 11f5 0c3d 8f32 4a3c f0d5 9ebd 4b57 50bd
00000150: cfe0 19bd 4f14 423c d466 9fbd 6ba1 f83c
00000160: 6188 333d a192 23bd 8a71 2f3c 8a64 40bd
00000170: 0836 843a 29bc 033d 32d8 36bd 4d40 13bd
00000180: a167 573d acfb bebc 6cb3 9c39 62c9 0d3c
00000190: 78b1 483d f4e4 c2bd 5aa7 87bd 5899 89bd
000001a0: bd40 273c b4be ed3c 9d50 633d 5942 263d
000001b0: c692 833d 9ba8 403d ff1d a43c bb59 bebc
000001c0: 2634 46bd 0c7f 3c3c 3ba4 e33c a488 6cbc
000001d0: 3391 6bbd 35c7 8bbc e7fe 013d 7cfa 463c
000001e0: 4b94 123d c65e f5bc bd46 07bd e399 d13c
000001f0: f65e 6f3d 5406 ffbc 60db 30bd bcf9 0fbd
00000200: a8e9 203e 8830 84bc 74d1 2f3d 7f2d 56bd
00000210: 402d 9bbd 1be3 443c 13ac 403d 79a4 ccbd
00000220: 1720 153d 3a43 a2bc 97e1 c53c aad5 cdbd
00000230: 7dc2 8bbd 0c7e 363d adba f13d b4f3 01bd
00000240: 5fc5 093e 8ff1 103e cd9b e73c 9663 fb3c
00000250: 9990 023e aaad f73d 8f6a 803c e7bc 213e
00000260: eeb7 1c3d 2477 b6bc 876e 97bd d4db 01be
00000270: 956f 86bd a3f1 5bbd f7f0 2dbd e68c 95bd
00000280: e3e2 96bd b660 cfbd 97e9 dbbd a14f 1a3e
00000290: 3a4b 05be 8531 e93d 6ad7 3dbd 1b74 6f3d
000002a0: a186 7b3d 9df3 2c3c 2ff5 15be a5a0 d63d
000002b0: f00b 71bd 0179 bf3c 9988 6b3d 1597 bbbb
000002c0: 6b79 5c3c 25c4 1f3d cc35 d13b a75a e0bd
000002d0: 26b2 213e b31a 76ba 99a8 59bd 14e6 2abd
000002e0: 087b 443b 1af0 0abe 5b00 093d e70f aabd
000002f0: 3c8e 203e ba6c 43bc 8e28 8e3d 34b7 db3d
00000300: 5233 8dbc f552 bebd 95d9 993c d4e6 1d3c
00000310: 4e61 1f3d c783 a83d cc4a f7bc 9898 8bbd
00000320: 2819 28bd 809b bb3d 3509 90bc b9fd 2cbc
00000330: 34f2 0cbd 751a f4bc 29fe 0e3d 82af 11bd
00000340: 1972 2ebb 889f e33c 8055 96bc 8e5d 8b3d
00000350: cf20 4e3d a991 153d 75e1 923d 4218 0fbd
00000360: ca8b af3c 2b63 1a3d 66b8 77bd 8968 37bd
00000370: 6595 443d 0ed5 0c3d bed1 ed3c e55c 4fbd
00000380: 8dec d4bc f21c 63bd d705 84bd 4365 80bd
00000390: 8ba7 9fbd 0f9b 963d 511c d43b a341 513c
000003a0: 4258 773d 1fa7 973d ee32 88bd 225a 183d
000003b0: 47eb 66bd 72da 2a3d 34b8 823d b5e3 093d
000003c0: 22f6 df3c 1c8c a43d f441 eabb d3c9 0ebd
000003d0: 26cb 8f3d 8124 82bd b818 32b8 6291 733d
000003e0: 64c9 573d 1042 5abd 08ce e1bc 37bb d83c
000003f0: 63c2 ca3c 62fa bd3c 8276 183b 61a3 963c
-0.025663203 -0.037109125 -0.057605408 0.07136413 0.019409653 0.1431713 -0.090329036 -0.09572419
-0.02784106 -0.0061757523 0.03393457 -0.09453501 0.048979133 -0.027862405 0.13337877 -0.009868268
-0.052695792 0.13164346 0.1367655 -0.01433017 -0.10990327 -0.05748134 0.039975177 -0.09196351
-0.027722215 -0.081663184 -0.0881593 -0.1185924 -0.028055964 -0.0503609 -0.06313718 0.034237176
-0.10572818 0.057839077 0.025877928 0.12973925 0.0045034005 0.13653056 -0.019217642 0.007306791
-0.07824287 0.00043708182 -0.008268836 -0.07641789 0.04127561 0.050715163 0.018185254 0.04528312
-0.121701285 -0.02637842 -0.0017921646 -0.098991625 -0.109554574 0.08202892 -0.05909145 0.03108019
-0.07591991 0.057748944 -0.0053891176 -0.015635401 -0.05533771 0.045059755 0.073466964 0.025379622
0.00018467511 0.029673206 0.06690572 -0.08172392 0.0023557376 -0.036519755 -0.02411131 -0.07678103
-0.06601288 0.074377656 -0.062485367 0.032621603 -0.031127341 -0.05872489 -0.009086112 0.0060990276
0.0344134 0.012341156 -0.07755649 -0.0508645 -0.03756791 0.011845662 -0.07783285 0.030350408
0.043831233 -0.039934758 0.010708222 -0.04697088 0.0010086903 0.032161865 -0.044639774 -0.035949994
0.052589063 -0.023313366 0.00029888318 0.00865397 0.048997372 -0.095163256 -0.06623717 -0.06718701
0.010208306 0.029021598 0.0554968 0.040590618 0.06424479 0.047035795 0.020033835 -0.023236146
-0.048389576 0.0115049 0.027788272 -0.014436875 -0.05751152 -0.017062763 0.031737234 0.012144681
0.035785954 -0.029952418 -0.033026446 0.025586074 0.05844017 -0.031130947 -0.043177962 -0.035150275
0.15714133 -0.016136423 0.04292436 -0.052289482 -0.0757699 0.012017037 0.047039103 -0.09992308
0.036407556 -0.019807447 0.024155421 -0.10050519 -0.06824205 0.0445538 0.11803184 -0.031726554
0.13454197 0.14154647 0.028272534 0.030687135 0.12750472 0.12093671 0.015675811 0.15794717
0.038261347 -0.022273608 -0.07394128 -0.12681514 -0.06564251 -0.05369724 -0.04246613 -0.07302265
-0.07367494 -0.10125868 -0.10737913 0.15069439 -0.13016978 0.11386398 -0.046348013 0.058460336
0.06140769 0.010556129 -0.14644311 0.10479859 -0.058849275 0.023373129 0.057503317 -0.0057247975
0.013456683 0.039005417 0.006384587 -0.109547906 0.15790614 -0.0009388134 -0.053139303 -0.041723326
0.002998056 -0.13568154 0.033447605 -0.083038144 0.15679258 -0.011927778 0.06941329 0.107283026
-0.017236385 -0.092931665 0.018780509 0.009637553 0.038911156 0.082282595 -0.030187033 -0.06816214
-0.041039616 0.09160519 -0.017582515 -0.010558539 -0.03441067 -0.029797772 0.034910355 -0.035567768
-0.00266183 0.027786031 -0.018351316 0.068049535 0.050324257 0.036515865 0.07171909 -0.034935243
0.021428961 0.03769223 -0.06047859 -0.044777427 0.047994036 0.034382872 0.029030677 -0.0506257
-0.025991702 -0.055447526 -0.06446426 -0.06269314 -0.07795628 0.07353794 0.006473102 0.012771997
0.060386904 0.07404923 -0.06650339 0.037195332 -0.05637672 0.041712232 0.0638279 0.033664424
0.027339045 0.08034536 -0.0071489755 -0.034860443 0.07021169 -0.06354619 -4.246153e-05 0.05946482
0.052682295 -0.05328566 -0.027564064 0.026456458 0.024750894 0.02319068 0.0023263996 0.018388452

conv2.1.weight f4 [64]
00000000: 5a50 763f 6e73 803f 03f5 7f3f 86f9 7a3f
00000010: 4de1 753f 057d 793f 29a7 813f 12c6 6d3f
00000020: 22ad 7e3f 99a0 7f3f bb70 7e3f c552 7f3f
00000030: 4b23 803f 562f 7b3f b9e2 733f 8f01 773f
00000040: 0d5a 773f 9d9b 7e3f 045f 7d3f 7259 7c3f
00000050: 67f9 6e3f 9685 773f ffea 743f 7892 7d3f
00000060: 385a 753f ef12 803f 9a53 6d3f 3ba7 803f
00000070: 5d63 783f 06e1 793f 8507 783f 23c2 783f
00000080: 6bb8 743f 337c 793f 5880 7a3f 488d 713f
00000090: 4d13 823f cfc6 763f 1ac2 763f 9d49 783f
000000a0: e238 7d3f 75de 7c3f 37de 703f 990f 7b3f
000000b0: c878 7d3f 5e93 793f 6518 7b3f fc1a 7b3f
000000c0: 0749 7e3f f234 743f b4a9 743f e8ce 7d3f
000000d0: 3316 833f 5768 7b3f d918 7f3f acc0 713f
000000e0: 91c1 783f 6959 783f 34b0 813f a34c 7d3f
000000f0: 55fc 783f 5c2d 793f 65e7 833f 5304 773f
0.96216357 1.0035226 0.99983233 0.9803699 0.96046907 0.9745639 1.0129138 0.92880356
0.9948293 0.9985443 0.99390763 0.9973567 1.001077 0.98119104 0.95267826 0.96486753
0.9662178 0.994562 0.9897311 0.9857398 0.9334931 0.9668821 0.95671076 0.9905162
0.9584079 1.0005778 0.9270569 1.0051035 0.97026616 0.97608984 0.96886474 0.9717123
0.955939 0.9745514 0.9785209 0.94356203 1.016214 0.9639711 0.96389925 0.96987325
0.9891492 0.9877694 0.9408907 0.98070675 0.9901242 0.9749049 0.980841 0.9808805
0.9933018 0.9539329 0.95571446 0.9914384 1.024115 0.98206085 0.9964729 0.9443462
0.9717036 0.9701143 1.0131898 0.98945063 0.9726003 0.9733484 1.0304991 0.96490973
