src/pipelineC/checkpoints/dgcnn_seg_epoch20.pth (torch, 692288 bytes, 59 tensors)

bn1.weight f4 [64]
000000 4e 19 80 3f 95 87 79 3f 3a 68 80 3f ff 86 80 3f
       1.0007722 0.97472507 1.0031807 1.0041198
000010 ee 06 73 3f 90 d5 7a 3f f9 65 81 3f 9e 18 80 3f
       0.9493245 0.9798212 1.0109245 1.0007513
000020 64 86 79 3f 3f a9 7c 3f 71 4d 77 3f 6f 61 80 3f
       0.9747069 0.9869575 0.9660254 1.0029734
000030 a8 d1 80 3f 1f 1c 79 3f 1b 15 80 3f 9c ec 7e 3f
       1.0063982 0.97308534 1.0006441 0.9957979
000040 34 cd 82 3f 74 cb 7b 3f e0 9d 81 3f b5 5d 82 3f
       1.0218873 0.9835732 1.0126305 1.0184847
000050 ff 0c 81 3f 25 77 77 3f ec 20 7d 3f 04 f5 81 3f
       1.0082091 0.96666175 0.9887836 1.0152898
000060 6e d2 7f 3f 86 f3 7a 3f e1 64 80 3f 66 a1 78 3f
       0.99930465 0.9802784 1.0030786 0.97121274
000070 23 06 7d 3f 5e c0 77 3f a5 08 81 3f 06 68 75 3f
       0.9883749 0.96777904 1.0080763 0.9586185
000080 ac 64 80 3f 04 11 85 3f 06 a5 7c 3f 44 82 83 3f
       1.0030723 1.0395818 0.98689306 1.0274129
000090 9f aa 78 3f 1a 69 7f 3f 9a 61 7d 3f 48 11 7f 3f
       0.9713535 0.9976975 0.98977053 0.99635744
0000a0 75 53 7c 3f 04 a2 76 3f 44 da 80 3f bb 37 80 3f
       0.98564845 0.96340966 1.0066609 1.0017008
0000b0 96 86 79 3f 64 99 79 3f 2e b3 7c 3f d9 da 7b 3f
       0.97470987 0.9749968 0.98710907 0.9838081
0000c0 d9 f3 7e 3f f6 75 7b 3f 97 10 7e 3f 42 cf 81 3f
       0.9959083 0.9822687 0.99244064 1.0141375
0000d0 d5 00 82 3f 5c 1f 7e 3f a5 b8 7a 3f 50 a9 7a 3f
       1.0156504 0.992666 0.97937995 0.979146
0000e0 53 6e 79 3f fa 81 7f 3f 28 85 7d 3f fa b1 7f 3f
       0.97433966 0.99807703 0.99031305 0.99880946
0000f0 b9 1b 81 3f 76 8e 7a 3f cd 10 81 3f bb 78 82 3f
       1.0086585 0.9787363 1.0083252 1.0193094

bn1.bias f4 [64]
000000 d6 79 59 bc 2c c8 8a 3d 78 65 e5 bc f3 16 5d bc
       -0.013273677 0.06776461 -0.028002486 -0.013494241
000010 18 ad 9e 3c f4 88 82 bd 4b d7 4c bc 7f f8 31 3c
       0.019369647 -0.06373778 -0.012502502 0.010862469
000020 d2 5d 31 bc dc 76 f2 bc 56 e1 cb bb 32 cc 7f 3c
       -0.010825591 -0.029597692 -0.0062219305 0.015612649
000030 54 fc 04 3d bb 7d 7e bc bf 43 19 bd c2 e7 b6 3a
       0.0324672 -0.015532906 -0.037418123 0.0013954567
000040 a5 29 95 bd 29 0e 7c bc fc ba 70 bb 0c a5 29 3b
       -0.07283334 -0.015384235 -0.0036732545 0.002588573
000050 72 df 01 3d 6a 4c 13 bd 36 a6 41 bc af 04 b6 3c
       0.031707235 -0.035961546 -0.011819413 0.02221903
000060 6d 9c ac 3c aa 84 58 3c 1b b2 f3 3c 87 dd 15 3c
       0.021070683 0.013215223 0.029748013 0.0091470545
000070 c4 bb cd bb 8e c3 97 3c 98 cb 3a bb 06 59 32 bd
       -0.006278487 0.018525865 -0.00285027 -0.04354193
000080 fc 0f b6 bc dc 61 27 bc 8d e0 3f bd 4c b0 61 3c
       -0.022224419 -0.010216203 -0.046845008 0.013774943
000090 b0 d7 ed 3c fc 38 6b 3b 66 3e 85 bc ad 85 3a bc
       0.029033512 0.003589212 -0.016265105 -0.01138441
0000a0 3d ba d6 3c 57 e9 a8 ba 32 5e 14 3c 30 65 6a 3d
       0.026211852 -0.0012886924 0.009055661 0.057225406
0000b0 6f 2e 81 3b 86 2f cf 3c 05 59 92 bc a5 b9 42 bc
       0.003942303 0.025291216 -0.017864713 -0.011885081
0000c0 ec 84 a4 bc 26 e8 60 3c 25 bb 1b bd 47 c0 e9 b9
       -0.020082913 0.0137272235 -0.03802027 -0.0004458448
0000d0 10 62 0a 3d 88 cf 94 bc 67 c7 a7 3a 93 b7 85 3b
       0.033784926 -0.018165365 0.0012800515 0.0040807216
0000e0 f7 da 50 3d 6e 68 03 bc 7b f9 41 bb f1 1d 30 3c
       0.05099007 -0.008020503 -0.0029598165 0.010749326
0000f0 f8 3f 00 bc 42 d4 3f bc 29 66 6c 3d 35 51 19 bc
       -0.007827751 -0.011708321 0.057714615 -0.00935774

bn1.running_mean f4 [64]
000000 65 61 a0 c5 96 db e8 42 d8 3c 6a c5 37 69 53 c4
       -5132.1743 116.42888 -3747.8027 -845.644
000010 9f d4 54 45 5b d6 af c5 91 e8 85 c5 d2 d5 73 c5
       3405.2888 -5626.7944 -4285.071 -3901.3638
000020 b3 4f 6e c2 43 c9 d8 c5 dd d3 a9 45 92 da 6f 43
       -59.57783 -6937.1577 5434.483 239.85379
000030 02 05 c3 c4 9f 79 84 45 b7 dc 85 c5 24 4e 3e 45
       -1560.1565 4239.2026 -4283.5894 3044.8838
000040 10 3a ac c5 71 2f d4 c4 8a 19 af c4 15 a6 31 c5
       -5511.258 -1697.4825 -1400.7981 -2842.3801
000050 c0 34 c2 c4 01 4a ae c5 01 a1 df 45 7e a4 03 c5
       -1553.6484 -5577.2505 7156.1255 -2106.2808
000060 1a 2e 21 44 56 9b 9a 45 2e dc 79 45 4d 54 13 45
       644.72034 4947.417 3997.7612 2357.2688
000070 48 c7 02 c5 70 02 12 44 31 76 c2 c4 2c a0 d5 45
       -2092.455 584.0381 -1555.6935 6836.0215
000080 86 cf 44 c5 8e 24 b3 c4 21 15 ed c5 ed 6b cb c5
       -3148.9702 -1433.1423 -7586.641 -6509.4907
000090 7d 80 6c 45 72 ef 76 c4 99 5b dd 45 68 0c 6c c4
       3784.0305 -987.74133 7083.4497 -944.19385
0000a0 11 1d 35 45 d0 8c 97 44 4e d3 29 c5 c1 2b a5 c4
       2897.8167 1212.4004 -2717.2065 -1321.3673
0000b0 d0 81 cd 45 ed 51 32 45 b4 d9 b0 c5 81 71 cb 45
       6576.2266 2853.1204 -5659.213 6510.188
0000c0 11 4e 1f c5 8c 20 36 45 4a 02 c5 c5 11 28 35 c4
       -2548.8792 2914.0342 -6304.286 -724.62604
0000d0 7e e5 9a c4 17 f3 f0 c5 b0 90 e9 45 7e bf 8e c5
       -1239.1716 -7710.386 7474.086 -4567.9365
0000e0 59 91 f5 44 44 bd 91 c5 2b 8f eb 45 5d 9d ec c4
       1964.5421 -4663.658 7537.896 -1892.9176
0000f0 01 e6 56 c5 4c 5c bd 45 f4 db d6 c4 ff ec f9 c4
       -3438.3752 6059.537 -1718.8735 -1999.4061

bn1.running_var f4 [64]
000000 e1 7d ef 4a e4 cc e9 48 02 69 da 4a f4 fd 47 4a
       7.8476645e+06 478823.12 7.156865e+06 3.276669e+06
000010 17 ee 12 4b ea 26 37 4b 28 22 0a 4b f2 9a cd 4a
       9.629207e+06 1.200305e+07 9.052712e+06 6.737273e+06
000020 46 6c 51 4a c2 51 7c 4b de a7 33 4b 5d e2 28 4b
       3.4311855e+06 1.6536002e+07 1.1773918e+07 1.1067997e+07
000030 74 64 a5 4a 4c 9e fd 4a 87 d7 20 4b 8e ba 54 4a
       5.419578e+06 8.310566e+06 1.0540935e+07 3.4853475e+06
000040 8d 8f 21 4b 4f 7a ac 49 94 c9 eb 4a 58 b2 9e 4a
       1.0588045e+07 1.4129379e+06 7.726282e+06 5.200172e+06
000050 37 1a 82 4a 78 03 07 4b 66 b8 6b 4b aa 4d 1a 4a
       4.2631955e+06 8.848248e+06 1.5448166e+07 2.5281065e+06
000060 66 45 0e 4b bd 9c dc 4a 39 b6 35 4b 23 4f f8 49
       9.323878e+06 7.2290225e+06 1.1908665e+07 2.0341484e+06
000070 c1 8b 91 4a f9 36 a4 4a 3c 7e 26 4a ed 24 82 4b
       4.7692485e+06 5.3809885e+06 2.727823e+06 1.7058266e+07
000080 d6 c8 eb 4a 74 85 af 4a 57 a8 9e 4b d8 32 93 4b
       7.726187e+06 5.751482e+06 2.0795566e+07 1.9293616e+07
000090 b3 87 d9 4a da 45 18 4a d4 de 9f 4b 54 d1 a6 4a
       7.1280255e+06 2.4948385e+06 2.0954536e+07 5.466282e+06
0000a0 48 fe ad 4a 24 71 cd 4a 1f d2 bd 4a 76 2e 4d 4a
       5.701412e+06 6.731922e+06 6.2200475e+06 3.3616935e+06
0000b0 21 9f 87 4b 4c 76 0c 4b 76 02 86 4b 0d c7 47 4b
       1.7776194e+07 9.205324e+06 1.7564908e+07 1.3092621e+07
0000c0 89 1a 09 4a d5 4a aa 4a 6a 36 58 4b 22 40 4b 4a
       2.2463062e+06 5.5801385e+06 1.4169706e+07 3.3300565e+06
0000d0 e2 c3 9c 49 2e 81 8b 4b 6c a6 85 4b 6c 7e 44 4b
       1.2842202e+06 1.8285148e+07 1.7517784e+07 1.287742e+07
0000e0 42 5a 6b 4a b3 b5 3a 4b b8 f3 6c 4b 4e 07 4e 4a
       3.8560165e+06 1.2236211e+07 1.5528888e+07 3.3755715e+06
0000f0 08 dc 60 4a 86 e1 39 4b 8e 76 af 4a 30 cb 9a 4a
       3.684098e+06 1.2181894e+07 5.749575e+06 5.07228e+06

bn2.weight f4 [64]
000000 66 75 7a 3f ca 72 80 3f 25 56 80 3f 56 b8 7d 3f
       0.97835386 1.0035031 1.0026289 0.991094
000010 0e 5c 78 3f 97 11 7a 3f aa e1 81 3f f4 19 72 3f
       0.97015464 0.9768309 1.0146992 0.9457085
000020 53 9b 7f 3f 06 d4 80 3f a9 45 80 3f 3f 1d 80 3f
       0.9984638 1.0064704 1.0021259 1.0008925
000030 a2 a8 80 3f 68 8e 7c 3f e8 fc 73 3f 8a 71 7a 3f
       1.0051463 0.98654795 0.9530778 0.97829497
000040 44 f9 78 3f fa 0f 80 3f aa 8e 7c 3f 74 2c 7b 3f
       0.9725535 1.0004876 0.9865519 0.98114705
000050 b7 78 72 3f 60 54 7a 3f b2 43 77 3f 09 09 7e 3f
       0.94715446 0.97784996 0.9658767 0.99232537
000060 32 8d 77 3f 24 c4 80 3f 45 38 72 3f 61 23 81 3f
       0.9669982 1.0059857 0.9461711 1.0088922
000070 a1 2f 7b 3f 11 da 7c 3f 43 83 79 3f 45 58 7a 3f
       0.9811955 0.9877024 0.97465914 0.9779094
000080 a1 b3 76 3f 10 68 7a 3f b1 d1 7b 3f 77 2c 74 3f
       0.9636784 0.97815037 0.9836684 0.9538035
000090 a4 49 81 3f 6b c4 77 3f c4 45 7b 3f ca 5c 7a 3f
       1.0100598 0.96784085 0.9815333 0.97797835
0000a0 42 63 7e 3f 39 0f 7e 3f 7e 34 76 3f c1 cf 7d 3f
       0.99370205 0.9924198 0.96173847 0.9914513
0000b0 4e fd 7d 3f 0c 96 7a 3f a3 db 7b 3f 5d 0c 7e 3f
       0.9921464 0.97885203 0.98382014 0.99237615
0000c0 5e 0b 7f 3f e3 70 75 3f 07 83 76 3f c8 f0 7e 3f
       0.9962672 0.95875376 0.9629368 0.99586153
0000d0 2c 0c 83 3f 2d 2b 7d 3f 93 d3 7f 3f b4 da 73 3f
       1.023809 0.98894006 0.9993221 0.9525559
0000e0 1f 34 7a 3f a1 fd 79 3f ea d0 81 3f bb 02 7e 3f
       0.9773578 0.9765263 1.014188 0.99222916
0000f0 fa 03 7b 3f a9 8e 7a 3f 58 a3 83 3f 32 43 79 3f
       0.9805294 0.9787393 1.0284224 0.97368157

bn2.bias f4 [64]
000000 c3 36 2b 3d 76 ca 8e bc 43 71 8e bc 5c b9 ac 3c
       0.04180027 -0.017430525 -0.017387992 0.02108448
000010 94 bb 2e bc 69 dd 7d bc 5a 05 23 bc 93 77 02 bd
       -0.010664839 -0.015494683 -0.009950006 -0.031852316
000020 73 29 21 bc 7f 74 54 3d d8 11 f8 3b 5b 5b 23 bc
       -0.009836542 0.05186891 0.0075704865 -0.009970511
000030 ec 0a 3f ba 68 06 82 bb 72 b0 55 bc c5 24 1d 3d
       -0.0007287699 -0.003968049 -0.013042556 0.038365144
000040 89 20 b0 3b 3d 7d 9c bd 0c fe 00 bc 00 28 9e 3c
       0.0053749722 -0.07641075 -0.0078730695 0.019306183
000050 8e f3 1a bc 2a dc 06 3b ad ee 38 3d 36 8c 91 bc
       -0.009457482 0.0020578005 0.045149494 -0.017767053
000060 75 9d 9e bc d8 14 24 3d c7 50 e8 bc 32 4d fb bb
       -0.01936219 0.04005894 -0.02835883 -0.0076691145
000070 81 87 25 bd b6 ce 58 3c 17 9b c9 bc eb 78 6e bc
       -0.04041243 0.0132328775 -0.024610085 -0.014555196
000080 47 0d 0b bd fc fb 4a bd be 13 14 3d 0f dc e6 bc
       -0.03394821 -0.049556717 0.03615164 -0.028181104
000090 6b 18 2e b9 66 c3 88 bc a1 2c 18 3d 9c 26 c8 3b
       -0.0001660303 -0.016694736 0.037151936 0.006108118
0000a0 37 af 33 3c 63 2d b8 bc 8b 62 98 bc d0 4c 9e bc
       0.010967067 -0.02248258 -0.018601676 -0.019323736
0000b0 ae 65 c2 bb 52 12 57 bb c3 6a eb bc e8 df ee ba
       -0.0059325313 -0.0032817316 -0.028737431 -0.0018224688
0000c0 84 9a bf ba 21 88 1b bd 81 31 9c 3c 12 6d 5a bc
       -0.0014618193 -0.03797162 0.019066574 -0.013331668
0000d0 b4 1c d9 3c d7 c1 f7 bb 77 c8 4e 3c e0 12 f8 bc
       0.026502945 -0.0075609493 0.012621037 -0.030282438
0000e0 b0 60 80 bb 02 dc 5a bd bd f8 14 bd dc 0e 3d 3d
       -0.003917776 -0.053432472 -0.036370028 0.04615675
0000f0 45 2f 6b ba 8f bb 35 bd c8 61 d7 bb 87 29 94 bc
       -0.0008971582 -0.044368323 -0.0065729357 -0.018086208

bn2.running_mean f4 [64]
000000 a9 4e 10 be f1 81 a6 3d ae ad 99 3d b4 db 0a be
       -0.14092506 0.08130253 0.0750383 -0.13560373
000010 9f 66 7c bd 70 42 99 3e 04 97 64 3e e1 95 4e 3e
       -0.061621305 0.299335 0.22323233 0.20174362
000020 0b 52 2a 3e d4 19 f6 be a6 fd c5 3e 04 39 00 3f
       0.1663286 -0.4806658 0.3867008 0.50087
000030 33 dd 31 bd ab de a1 3d fd 4d 32 3f 6c 94 e2 be
       -0.043423843 0.07903799 0.6965025 -0.44253862
000040 60 e5 1d 3f 26 fd b5 3e 5b e0 35 be cf a0 2a be
       0.61678123 0.355447 -0.17761366 -0.16662906
000050 cd 11 e7 3e 09 93 07 be d5 99 6b be 2d c4 5c 3e
       0.45130768 -0.13239683 -0.23007901 0.2155921
000060 d7 9b 06 bd f0 1b 2c be ff 88 9f bc cb b2 2a 3e
       -0.032863464 -0.16807532 -0.019474505 0.16669767
000070 eb 01 87 3e ee 0c 8c bc 37 2c 98 be eb 3a 5b 3e
       0.2636865 -0.01709601 -0.29721233 0.21409194
000080 50 1f e0 3e 62 6a 04 3f 5e 1f a0 be bf 15 25 be
       0.4377389 0.5172483 -0.3127393 -0.16121577
000090 5e 78 45 be 62 8b 15 bf e6 6f 02 bd b9 bf 12 3e
       -0.19284198 -0.58415806 -0.031844996 0.14330949
0000a0 cd fd 4f 3d fd b3 a9 3e e6 ea 42 be 73 3e 42 3e
       0.050779153 0.33145133 -0.19034919 0.18969135
0000b0 e8 5f 8a 3e 23 c6 98 bd a2 47 66 3e 66 a0 f3 3d
       0.27026296 -0.074596666 0.22488263 0.11895828
0000c0 d6 d3 6f 3d 33 13 07 3e a3 8b 8f be a2 7f 22 bb
       0.058551632 0.13190918 -0.28036222 -0.0024795313
0000d0 c7 c0 22 3d af 4f b7 3d 7a 7c ee be 95 41 ae 3e
       0.039734628 0.08950745 -0.46579343 0.3403441
0000e0 cf 46 af bc 44 c5 ae 3e c3 f2 1e 3e 06 cb 0a bf
       -0.021396069 0.34134877 0.15522294 -0.5421604
0000f0 3f b6 94 be a0 85 15 3d a9 97 05 bf 31 75 5f bb
       -0.29045293 0.036504388 -0.5218454 -0.003409695

bn2.running_var f4 [64]
000000 1b ba a5 3d cf 06 fd 3d 1a db 9c 3d 3e bd e6 3d
       0.080921374 0.12354814 0.07658978 0.11266564
000010 be 16 1f 3e 9c 31 26 3e 4c c4 b0 3d df a4 c0 3e
       0.15536019 0.16229862 0.08631191 0.37625787
000020 4e 8e 6a 3d f8 ae c4 3d bf 30 85 3d a8 71 c1 3d
       0.05726462 0.09603685 0.06503438 0.09445506
000030 f3 ba 56 3d b0 22 61 3d 66 54 09 3e 61 b5 07 3e
       0.052424382 0.05496472 0.13411102 0.13252784
000040 0a a7 2f 3e e3 c8 a4 3d 08 7f 98 3d 87 3c 5f 3e
       0.17153564 0.080461286 0.07446104 0.21800433
000050 ef 11 09 3e 1e 01 41 3e 5e c9 e8 3d fb 4e 9a 3d
       0.13385747 0.18848082 0.11366533 0.075345956
000060 0b b5 8b 3d 4a 39 3f 3d c0 50 88 3e 02 bb a2 3d
       0.068216406 0.046685494 0.26624107 0.07945825
000070 7c fb b0 3d 9e 4c 10 3e 8c dd 1f 3e f7 a9 bc 3e
       0.08641717 0.14091727 0.15611857 0.36848423
000080 1a 38 1a 3e 8d 0e 48 3e 0b 7c 7a 3e 71 86 82 3e
       0.15060464 0.195368 0.24461381 0.25493196
000090 57 89 ab 3d 69 c4 2d 3e 85 d5 8c 3e 77 f2 0e 3e
       0.08375805 0.16969456 0.27506652 0.1395968
0000a0 9d dd 39 3e f9 b8 ef 3d ca da 33 3e 86 24 b5 3d
       0.18150945 0.117052026 0.1756393 0.08844857
0000b0 b9 34 40 3d d1 d1 32 3e b8 23 5f 3d 3d e6 bf 3d
       0.04692528 0.17462851 0.054477423 0.09370086
0000c0 78 e3 99 3d 46 84 08 3e 47 17 bc 3d e7 f7 dc 3d
       0.07514089 0.13331708 0.09184127 0.10789471
0000d0 9f e6 17 3d db a3 5d 3e 83 bc 2d 3e 4a 21 42 3e
       0.03708517 0.21644537 0.16966443 0.18958011
0000e0 bd e6 ae 3d e8 55 a4 3d 74 05 35 3d ea f5 28 3e
       0.085401036 0.08024198 0.044194654 0.16500059
0000f0 16 bc 1d 3e a4 93 2b 3e e5 37 f4 3d d9 7b 77 3e
       0.1540378 0.16755539 0.119247235 0.24168338

bn3.weight f4 [64]
000000 ce 46 73 3f fc 7e 7e 3f ee e7 7e 3f 95 82 70 3f
       0.95029914 0.9941251 0.99572647 0.9394925
000010 31 23 77 3f da 81 7d 3f c4 09 75 3f 7a c1 7b 3f
       0.9653807 0.9902626 0.95718026 0.98342097
000020 82 24 7a 3f c1 04 80 3f c1 31 81 3f e7 dc 80 3f
       0.97711957 1.0001451 1.0093309 1.0067414
000030 35 ee 6b 3f af 05 81 3f 9c 48 75 3f 3b 56 7a 3f
       0.9216035 1.007986 0.9581392 0.9778783
000040 0c 40 78 3f 4f 32 81 3f a0 22 7c 3f 52 1b 78 3f
       0.9697273 1.0093478 0.98490334 0.9691669
000050 0d 1c 7b 3f c5 7b 80 3f 62 89 80 3f f0 9e 7f 3f
       0.9808968 1.0037771 1.0041926 0.99851894
000060 5f 3a 78 3f 15 e1 7b 3f 36 54 77 3f a2 db 84 3f
       0.9696407 0.9839032 0.9661287 1.0379527
000070 87 b1 7f 3f f2 aa 75 3f 37 2d 7e 3f ca e2 7b 3f
       0.9988026 0.95963967 0.9928774 0.9839293
000080 63 1f 84 3f 3e 8f 79 3f 2a c3 7c 3f d3 ac 7c 3f
       1.0322078 0.97484195 0.98735297 0.9870121
000090 9e bd 79 3f 4d 1f 73 3f af c5 7a 3f 72 d6 7c 3f
       0.9755496 0.94969636 0.9795789 0.9876472
0000a0 fa 1e 7c 3f ac 79 82 3f e0 66 73 3f cc 3a 76 3f
       0.98484766 1.0193381 0.9507885 0.96183467
0000b0 1d 61 7b 3f 3e 57 82 3f 1c 49 73 3f e7 3c 84 3f
       0.9819506 1.0182874 0.9503343 1.0331086
0000c0 2b 87 7a 3f 1e 46 6f 3f 35 c7 7e 3f 8b c9 7a 3f
       0.978625 0.93466365 0.99522716 0.9796378
0000d0 55 71 7d 3f b2 0c 80 3f a2 66 73 3f 51 c1 7e 3f
       0.99001056 1.0003874 0.9507848 0.9951373
0000e0 d1 4f 79 3f e5 3d 78 3f 62 e4 7c 3f 19 ad 7f 3f
       0.97387415 0.96969444 0.98785985 0.998735
0000f0 a2 e2 77 3f 0a 18 7d 3f 98 b1 79 3f 90 e9 7a 3f
       0.9683019 0.98864806 0.9753661 0.9801264

bn3.bias f4 [64]
000000 87 af 9f bc 6d d0 56 bc 62 cd b6 bc 32 e4 c6 bc
       -0.019492878 -0.013111216 -0.022314731 -0.024278734
000010 61 34 96 bc cf 4d ee bc 63 79 c5 bb 42 c7 4d bd
       -0.018335523 -0.029089836 -0.0060264333 -0.050238855
000020 0f d9 b9 3b 8c b3 ee 3b c4 6b 2e 3d b2 38 d0 3c
       0.0056716274 0.0072845872 0.042583242 0.02541766
000030 a5 36 1b bd 69 72 07 3d 38 f6 1d bc 4d 64 96 3c
       -0.03789391 0.033068094 -0.009641223 0.018358374
000040 5f 80 ff bc 8c e8 e0 3c 49 90 8c 3c 54 d5 01 bc
       -0.031189142 0.027454637 0.017158644 -0.007924397
000050 ca 1c fc bc 7e 31 e8 3c 7b c5 86 3c 97 ba 2b 3b
       -0.030775446 0.028343912 0.016451588 0.0026203746
000060 87 f0 2e 3b df 13 27 bd 32 75 7f bc 5f 30 28 3d
       0.0026693658 -0.040790435 -0.015591906 0.041061755
000070 9f 53 40 bc a2 0a 22 3c 5c 44 65 bc b8 63 02 3c
       -0.011738687 0.00989023 -0.013993349 0.007958345
000080 1b d5 2e bc 31 33 80 bc fc cb 03 bd 0e 63 96 bc
       -0.0106709255 -0.01564941 -0.032176957 -0.01835778
000090 6b 03 9a bc 96 e2 f1 bc b1 b9 67 bc 5b ad 83 3c
       -0.018800458 -0.02952699 -0.014143393 0.016073873
0000a0 37 be 01 3d ee 4e 98 bc a5 64 ce bb d5 ce 16 bc
       0.031675544 -0.018592324 -0.006298619 -0.009204586
0000b0 db d7 92 bc d5 b2 00 bc 56 d1 10 bd ce a6 63 3c
       -0.017925194 -0.007855137 -0.03535589 0.01389475
0000c0 f2 04 9d 3c 29 da 97 3c 11 6d 6a bc 17 da b1 bb
       0.019167397 0.018536644 -0.01430823 -0.0054276097
0000d0 e8 51 2e bc 0a ee 14 bd 99 24 03 bd bb e3 9c 3d
       -0.010639645 -0.036359824 -0.032017324 0.07660624
0000e0 29 c4 1e 3c 34 69 c9 bc 63 35 d5 bc 21 60 91 3c
       0.009690323 -0.024586298 -0.026026433 0.017746033
0000f0 e8 a0 30 bc 63 54 bb bc 58 e6 1d bc 1e 5e 1d bd
       -0.010780551 -0.022867387 -0.009637438 -0.038419835

bn3.running_mean f4 [64]
000000 87 77 07 bf 3c 1b 95 3e 48 fd bb 3e 6b 8f 0b 3f
       -0.5291676 0.2912234 0.36716676 0.54515713
000010 1e 36 b6 be 80 0e 32 be 83 9a b2 3e 79 11 68 3e
       -0.35588163 -0.17388344 0.34883508 0.22662915
000020 ac a5 79 3e f3 4e 1f 3e 6a ab b7 3d c1 8b 83 be
       0.24379605 0.1555746 0.089682415 -0.2569256
000030 c4 44 97 bd 2f 98 1a 3f 17 de 28 be 70 d0 2d bf
       -0.07386163 0.60388464 -0.1649097 -0.67896175
000040 a2 94 85 3e 71 7c 60 3e 23 09 e0 3e 35 ec ea be
       0.2608996 0.2192247 0.4375697 -0.45883337
000050 c1 4f 73 3e 8e 8e 72 bd c7 f8 f8 bd ec 2a 1e 3e
       0.23760892 -0.059217982 -0.121568255 0.15446061
000060 fd e8 f2 3e 86 08 64 3d da 55 ba 3e a8 58 28 bf
       0.4744338 0.05567219 0.36393625 -0.6576028
000070 84 9c 73 be 84 f5 67 be 8f 0f b4 3e 8d 89 ee be
       -0.23790175 -0.2265225 0.3516812 -0.46589318
000080 9c ed 15 3e 2c 2a 2d 3d b5 44 5f 3e 0c f7 ce 3e
       0.14641422 0.042276546 0.21803553 0.40422857
000090 fc ba 4e 3e 5b b2 fc 3e ee 5d b9 be f3 b7 31 be
       0.20188516 0.49354824 -0.36204475 -0.17355327
0000a0 a8 a0 cc 3d 06 42 30 3e 84 34 1e bf 87 9d a1 be
       0.0999158 0.17212686 -0.6179888 -0.31565496
0000b0 1c 2e 06 be 4c c2 5c bf f3 b5 f4 bc fe 39 cd be
       -0.13103527 -0.86233974 -0.029871916 -0.40083307
0000c0 a7 58 91 be 21 62 25 3f 04 9c 6e bc 60 96 c9 be
       -0.2838795 0.6460286 -0.014563564 -0.3937254
0000d0 f1 c5 d3 3e 25 bb b8 3e 1b 87 76 bc 0e d7 09 be
       0.41361955 0.3608028 -0.01504686 -0.13460943
0000e0 48 12 8e bd 7b f3 c1 3d dd a0 b5 3d b7 30 c7 3d
       -0.069370806 0.09470268 0.08868573 0.097260885
0000f0 7e 1b a5 bd df c2 1d be ec e1 c7 3e 72 6f 0f be
       -0.08061884 -0.15406369 0.39039552 -0.14007357

bn3.running_var f4 [64]
000000 cd f7 73 3e 5a 67 07 3e 25 22 14 3e bf f8 58 3e
       0.23824997 0.13223019 0.1446615 0.21188639
000010 b8 29 1b 3e ac b5 40 3e 24 e2 be 3e 05 70 21 3e
       0.15152633 0.18819302 0.37281907 0.15765388
000020 e4 6c 2e 3e 05 89 4b 3e 11 32 06 3e 4b d6 4b 3e
       0.17033726 0.19876488 0.13105036 0.19905965
000030 14 0a ee 3e e4 22 8a 3e 35 5d f1 3d 0d 94 8b 3e
       0.46492064 0.26979744 0.11785356 0.2726139
000040 ca d3 8f 3e 60 19 ee 3d 55 31 3b 3e 2a 31 11 3e
       0.2809127 0.11625934 0.18280537 0.14178911
000050 f0 f5 df 3d 9d e8 03 3e 69 fe 07 3e e5 10 14 3e
       0.10935581 0.12881704 0.13280644 0.1445957
000060 6e 98 91 3e 3c 45 08 3e 8e 29 27 3e 2f 2d be 3e
       0.28436607 0.13307661 0.16324446 0.37143847
000070 62 b4 83 3e e5 33 86 3e 38 dd 68 3e 8e d6 4d 3e
       0.2572356 0.26211467 0.22740638 0.20101377
000080 8b 3b 12 3e 9b ad 30 3e 83 28 24 3e a3 89 7d 3e
       0.14280526 0.17253725 0.16031079 0.24759535
000090 cb cd 19 3e 72 9e 9d 3e 5b a5 2f 3e c7 eb 0a 3e
       0.1501991 0.30784947 0.17152922 0.13566504
0000a0 d5 28 08 3e 03 41 55 3e d4 97 1a 3f f5 4b 83 3e
       0.13296826 0.20825581 0.6038792 0.25643888
0000b0 b4 53 ec 3d 12 e9 78 3e 70 ad 70 3e 59 4a 34 3e
       0.115394026 0.2430766 0.23503661 0.17606486
0000c0 9f 3f 0e 3e ca 6b b6 3e 0c e1 1d 3e 73 cf d2 3e
       0.13891457 0.35629112 0.1541788 0.41173896
0000d0 cb e5 75 3e 1e cc e1 3e 3a d0 36 3e fb ae e1 3d
       0.2401344 0.44101042 0.1785287 0.11019703
0000e0 7f c0 03 3e 92 65 bf 3d 6f e3 ee 3d be e8 75 3e
       0.128664 0.09345545 0.11664473 0.24014565
0000f0 fd ea 48 3e 4d 6a 40 3e 34 b4 4a 3e 91 ed 1f 3e
       0.19620891 0.1879055 0.19795305 0.15617968

bn4.weight f4 [64]
000000 f4 24 82 3f 86 1e 80 3f e9 96 80 3f c7 d0 6f 3f
       1.0167527 1.0009315 1.0046054 0.93677944
000010 a9 56 6c 3f b9 ea 7b 3f 4c 09 7c 3f fe 3a 78 3f
       0.9231973 0.98405033 0.98451686 0.96965015
000020 79 16 81 3f c6 02 83 3f 98 2f 6d 3f 71 94 7f 3f
       1.0084983 1.0235221 0.9265075 0.9983588
000030 85 29 85 3f 02 49 76 3f c4 43 6a 3f b8 f7 7d 3f
       1.0403296 0.9620515 0.9150965 0.99206114
000040 78 f7 85 3f 6f 59 80 3f e4 a8 77 3f c0 8f 78 3f
       1.0466146 1.0027293 0.9674208 0.97094345
000050 79 f8 78 3f f0 bb 82 3f 09 e2 76 3f dc c0 7f 3f
       0.9725414 1.0213604 0.9643865 0.99903655
000060 85 be 7b 3f 94 4f 80 3f ff 21 7f 3f d5 1c 79 3f
       0.98337585 1.0024285 0.9966125 0.9730962
000070 e9 dd 7d 3f c2 a6 7c 3f ad d7 82 3f 55 e4 86 3f
       0.99166733 0.9869195 1.0222069 1.0538431
000080 9a 33 72 3f 79 41 69 3f 28 c3 72 3f 27 ad 72 3f
       0.9460999 0.9111553 0.94829035 0.9479546
000090 b0 c5 79 3f 22 c8 7c 3f d9 e7 5c 3f c9 be 7e 3f
       0.9756727 0.9874288 0.8629127 0.99509865
0000a0 84 39 6d 3f cf 9c 7b 3f 10 ee 63 3f 9a 48 78 3f
       0.92665887 0.98286146 0.8903513 0.9698578
0000b0 10 17 7f 3f ac e2 6a 3f 9c 72 75 3f 21 18 81 3f
       0.99644566 0.91752124 0.95878005 1.0085489
0000c0 28 e5 7e 3f be 5d 72 3f b3 41 79 3f 39 5c 81 3f
       0.99568415 0.9467429 0.97365874 1.0106269
0000d0 3d 86 7f 3f 6c de 82 3f ab 28 82 3f be e0 7e 3f
       0.99814206 1.0224128 1.0168661 0.9956168
0000e0 f6 ef 81 3f 36 55 7f 3f f0 5d 72 3f da e1 75 3f
       1.0151355 0.99739397 0.9467459 0.9604775
0000f0 c8 65 80 3f 74 e9 85 3f b8 f9 71 3f dc fe 7e 3f
       1.0031061 1.0461869 0.94521666 0.99607635

bn4.bias f4 [64]
000000 97 31 11 3c 91 3d ec 3b 38 6e f3 3c 76 fa dd bc
       0.008861921 0.0072094877 0.029715642 -0.027096968
000010 20 80 8d bc 32 b6 01 3d d7 50 39 bb be fe 2c 3d
       -0.017273009 0.031667896 -0.0028276944 0.04223513
000020 2c a4 74 3b 70 86 ee 3c 60 d1 82 3a 06 93 ac 3b
       0.00373293 0.02911684 0.0009980612 0.00526655
000030 15 98 37 3d ea 50 ab 3c ed 29 bb bc 4f 99 8a bb
       0.04482277 0.020912606 -0.02284714 -0.0042297016
000040 28 b6 d4 3c 2a 70 23 3d e4 2d 09 3d 40 45 84 bc
       0.025965765 0.03990189 0.03349103 -0.016146302
000050 71 a9 87 3b 69 8d fd 3c e4 50 7d bc b6 2d b8 3c
       0.004140072 0.030951219 -0.01546118 0.022482734
000060 80 c4 d5 3b c9 1f cd 3c d4 43 82 bc 48 59 2a 3c
       0.0065236688 0.02503957 -0.015901484 0.010397263
000070 9d fe 8f bc 65 05 b9 3b 28 fe ca bc f4 ae f0 3c
       -0.017577464 0.005646395 -0.024779394 0.0293803
000080 ac 31 07 bc 06 93 a9 bc ad af 50 3b ab bd a3 bc
       -0.008251589 -0.020699989 0.0031842992 -0.019987902
000090 be 7d 1e 3b 5d f3 20 3b 52 49 e0 3b 1e 34 27 3c
       0.0024183835 0.0024559118 0.006844678 0.010205297
0000a0 e0 3a 03 3c e6 8a 56 3c 04 38 b8 bc 84 6f 45 bc
       0.008009642 0.013094639 -0.022487648 -0.012050513
0000b0 7b 71 84 3c 95 8b 93 3b 56 1b b6 bc f7 00 c7 3c
       0.016167393 0.0045027235 -0.022229832 0.024292452
0000c0 38 61 a7 bc 77 88 15 3c e3 ac d5 bc c0 3e 62 3c
       -0.0204321 0.009126774 -0.026083415 0.013808906
0000d0 be 85 f7 3c 3e fc 41 3c 94 81 03 3d c8 99 a2 3b
       0.03021514 0.011839924 0.032105997 0.00496218
0000e0 12 b3 20 3d 98 1d 0f 3d 10 ad fd bc 81 23 c5 bc
       0.039233275 0.034940332 -0.030966312 -0.024064781
0000f0 46 c7 6a 3c be 95 d2 bb c4 0c 66 3c 8e 51 cf bc
       0.014329737 -0.006426542 0.0140411295 -0.025307443

bn4.running_mean f4 [64]
000000 d3 e5 a3 be cf 4a e7 be f1 dc 48 3e 28 05 15 bf
       -0.3201128 -0.45174262 0.19615532 -0.5821099
000010 2f b6 76 bd d3 84 53 be 5f 9a 97 3e b3 ba f1 3c
       -0.060232338 -0.20656137 0.29609963 0.02950797
000020 a4 50 df 3d 07 e5 8c bc be be 76 3d e6 3a 91 3e
       0.10904053 -0.017199052 0.0602405 0.28365248
000030 51 30 f7 3d 0a 91 d6 3d 7b 1c 45 3e f5 a6 82 bd
       0.120697625 0.10476883 0.19249146 -0.06379501
000040 12 04 f9 be 4b 98 59 3e 59 f7 91 be e1 69 25 bd
       -0.48635918 0.21249501 -0.28509024 -0.040384177
000050 f0 43 f9 3c e3 99 09 3e 81 b1 a1 3e 12 6a 88 3e
       0.030427903 0.1343761 0.31580737 0.26643425
000060 09 c0 66 3e 98 28 76 3d 6e d7 aa be d9 77 9d bd
       0.22534193 0.060097307 -0.33367485 -0.07688875
000070 ee b5 28 3d be 6c a2 3e 92 8d a0 3e a2 7f f8 bd
       0.041189127 0.3172359 0.3135801 -0.12133719
000080 a3 d8 34 bf a1 82 67 be b7 ed 2b 3e b6 05 3b 3e
       -0.7064306 -0.22608425 0.167899 0.18263897
000090 38 12 09 be 4c 33 31 3e 05 33 6c be 2b dd a4 3d
       -0.13385856 0.17304724 -0.23066337 0.08049997
0000a0 e0 70 7b 3e af 4d b9 3e 91 97 98 be ee ae 11 be
       0.24554777 0.3619208 -0.29803136 -0.14226887
0000b0 fe 8c b7 3d 64 9a 2c be 8d 28 f7 3d b7 ef ef bd
       0.08962439 -0.1685577 0.12068281 -0.11715644
0000c0 f0 19 25 3c db bd 89 3e 63 e6 d0 3e ec 1a 98 be
       0.010076985 0.2690266 0.4080077 -0.2970804
0000d0 1b c9 30 3e 7d 06 d8 3e 01 19 8b 3e f2 4f b0 3e
       0.17264216 0.4219245 0.27167514 0.34435993
0000e0 ab 95 2d 3d 48 22 05 be 70 59 4c 3e bb 9e 0f bd
       0.042379063 -0.13001359 0.19955993 -0.035063487
0000f0 b9 b7 19 3e ba b9 31 bf 29 0a d8 3e 1b 5b d2 3d
       0.15011491 -0.6942402 0.42195252 0.10271283

bn4.running_var f4 [64]
000000 7e 92 8b 3e 67 ff 8f 3e 64 41 19 3e 9d f8 a8 3e
       0.27260202 0.28124544 0.14966351 0.33002177
000010 95 8e d5 3d 12 bb 2b 3e e8 4d 14 3e 2a a2 12 3e
       0.10427586 0.1677058 0.14482844 0.14319673
000020 20 27 30 3e 89 41 3f 3e a3 b2 3c 3e c5 37 16 3e
       0.17202425 0.18677343 0.1842752 0.14669712
000030 b4 dd 1f 3e 85 c0 11 3e ee 01 89 3e 43 22 e4 3d
       0.15611917 0.14233597 0.26759285 0.111393474
000040 c8 2b 4f 3e 35 24 25 3e 92 fc 21 3e e4 23 43 3e
       0.20231545 0.16127093 0.15819004 0.1905666
000050 88 4c 1e 3e 99 0f 10 3e f2 9d 59 3e 1f a0 0e 3e
       0.15458882 0.1406845 0.21251658 0.13928269
000060 18 52 1e 3e e1 59 25 3e fd 96 fa 3e e5 b4 48 3e
       0.15461004 0.16147567 0.4894332 0.19600256
000070 76 94 16 3e 6b 1f 75 3e 83 e4 29 3e 45 c4 33 3e
       0.14705071 0.23937766 0.16591077 0.1755534
000080 a5 de 2b 3f 46 ec 1b 3e 71 6f 46 3e b5 7b d4 3d
       0.67136604 0.1522685 0.19378449 0.10375158
000090 34 01 75 3e 7b 59 46 3e 08 dd 1b 3e cd 81 21 3e
       0.2392624 0.19370072 0.15221035 0.15772171
0000a0 09 80 77 3e d0 e8 e9 3d a4 76 75 3e 4f d7 05 3e
       0.24169935 0.114213586 0.23971039 0.13070415
0000b0 5b e6 18 3e 16 9e 11 3e b0 7b 00 3e de 9a 0b 3e
       0.14931624 0.14220461 0.12547183 0.13633296
0000c0 e5 f8 12 3e 22 61 4e 3e c3 d7 4f 3e 1b 40 ad 3e
       0.14352758 0.2015424 0.2029715 0.3383797
0000d0 67 a2 f5 3d 6a de 3a 3e e4 9f 1d 3e 5a cf 2a 3e
       0.119938664 0.18248907 0.15393025 0.16680661
0000e0 08 58 eb 3d 0c 22 08 3e ce 8c 28 3e aa 0e 1a 3e
       0.114914 0.13294238 0.16459963 0.15044656
0000f0 ed 8a 2d 3e bb c0 07 3f 00 d4 8c 3e 4c 3f 1f 3e
       0.16947527 0.5302846 0.27505493 0.1555149

bn5.weight f4 [64]
000000 00 00 80 3f 00 00 80 3f 00 00 80 3f 00 00 80 3f
       1.0 1.0 1.0 1.0
000010 00 00 80 3f 00 00 80 3f 00 00 80 3f 00 00 80 3f
       1.0 1.0 1.0 1.0
000020 00 00 80 3f 00 00 80 3f 00 00 80 3f 00 00 80 3f
       1.0 1.0 1.0 1.0
000030 00 00 80 3f 00 00 80 3f 00 00 80 3f 00 00 80 3f
       1.0 1.0 1.0 1.0
000040 00 00 80 3f 00 00 80 3f 00 00 80 3f 00 00 80 3f
       1.0 1.0 1.0 1.0
000050 00 00 80 3f 00 00 80 3f 00 00 80 3f 00 00 80 3f
       1.0 1.0 1.0 1.0
000060 00 00 80 3f 00 00 80 3f 00 00 80 3f 00 00 80 3f
       1.0 1.0 1.0 1.0
000070 00 00 80 3f 00 00 80 3f 00 00 80 3f 00 00 80 3f
       1.0 1.0 1.0 1.0
000080 00 00 80 3f 00 00 80 3f 00 00 80 3f 00 00 80 3f
       1.0 1.0 1.0 1.0
000090 00 00 80 3f 00 00 80 3f 00 00 80 3f 00 00 80 3f
       1.0 1.0 1.0 1.0
0000a0 00 00 80 3f 00 00 80 3f 00 00 80 3f 00 00 80 3f
       1.0 1.0 1.0 1.0
0000b0 00 00 80 3f 00 00 80 3f 00 00 80 3f 00 00 80 3f
       1.0 1.0 1.0 1.0
0000c0 00 00 80 3f 00 00 80 3f 00 00 80 3f 00 00 80 3f
       1.0 1.0 1.0 1.0
0000d0 00 00 80 3f 00 00 80 3f 00 00 80 3f 00 00 80 3f
       1.0 1.0 1.0 1.0
0000e0 00 00 80 3f 00 00 80 3f 00 00 80 3f 00 00 80 3f
       1.0 1.0 1.0 1.0
0000f0 00 00 80 3f 00 00 80 3f 00 00 80 3f 00 00 80 3f
       1.0 1.0 1.0 1.0

bn5.bias f4 [64]
000000 00 00 00 00 00 00 00 00 00 00 00 00 00 00 00 00
       0.0 0.0 0.0 0.0
000010 00 00 00 00 00 00 00 00 00 00 00 00 00 00 00 00
       0.0 0.0 0.0 0.0
000020 00 00 00 00 00 00 00 00 00 00 00 00 00 00 00 00
       0.0 0.0 0.0 0.0
000030 00 00 00 00 00 00 00 00 00 00 00 00 00 00 00 00
       0.0 0.0 0.0 0.0
000040 00 00 00 00 00 00 00 00 00 00 00 00 00 00 00 00
       0.0 0.0 0.0 0.0
000050 00 00 00 00 00 00 00 00 00 00 00 00 00 00 00 00
       0.0 0.0 0.0 0.0
000060 00 00 00 00 00 00 00 00 00 00 00 00 00 00 00 00
       0.0 0.0 0.0 0.0
000070 00 00 00 00 00 00 00 00 00 00 00 00 00 00 00 00
       0.0 0.0 0.0 0.0
000080 00 00 00 00 00 00 00 00 00 00 00 00 00 00 00 00
       0.0 0.0 0.0 0.0
000090 00 00 00 00 00 00 00 00 00 00 00 00 00 00 00 00
       0.0 0.0 0.0 0.0
0000a0 00 00 00 00 00 00 00 00 00 00 00 00 00 00 00 00
       0.0 0.0 0.0 0.0
0000b0 00 00 00 00 00 00 00 00 00 00 00 00 00 00 00 00
       0.0 0.0 0.0 0.0
0000c0 00 00 00 00 00 00 00 00 00 00 00 00 00 00 00 00
       0.0 0.0 0.0 0.0
0000d0 00 00 00 00 00 00 00 00 00 00 00 00 00 00 00 00
       0.0 0.0 0.0 0.0
0000e0 00 00 00 00 00 00 00 00 00 00 00 00 00 00 00 00
       0.0 0.0 0.0 0.0
0000f0 00 00 00 00 00 00 00 00 00 00 00 00 00 00 00 00
       0.0 0.0 0.0 0.0

bn5.running_mean f4 [64]
000000 00 00 00 00 00 00 00 00 00 00 00 00 00 00 00 00
       0.0 0.0 0.0 0.0
000010 00 00 00 00 00 00 00 00 00 00 00 00 00 00 00 00
       0.0 0.0 0.0 0.0
000020 00 00 00 00 00 00 00 00 00 00 00 00 00 00 00 00
       0.0 0.0 0.0 0.0
000030 00 00 00 00 00 00 00 00 00 00 00 00 00 00 00 00
       0.0 0.0 0.0 0.0
000040 00 00 00 00 00 00 00 00 00 00 00 00 00 00 00 00
       0.0 0.0 0.0 0.0
000050 00 00 00 00 00 00 00 00 00 00 00 00 00 00 00 00
       0.0 0.0 0.0 0.0
000060 00 00 00 00 00 00 00 00 00 00 00 00 00 00 00 00
       0.0 0.0 0.0 0.0
000070 00 00 00 00 00 00 00 00 00 00 00 00 00 00 00 00
       0.0 0.0 0.0 0.0
000080 00 00 00 00 00 00 00 00 00 00 00 00 00 00 00 00
       0.0 0.0 0.0 0.0
000090 00 00 00 00 00 00 00 00 00 00 00 00 00 00 00 00
       0.0 0.0 0.0 0.0
0000a0 00 00 00 00 00 00 00 00 00 00 00 00 00 00 00 00
       0.0 0.0 0.0 0.0
0000b0 00 00 00 00 00 00 00 00 00 00 00 00 00 00 00 00
       0.0 0.0 0.0 0.0
0000c0 00 00 00 00 00 00 00 00 00 00 00 00 00 00 00 00
       0.0 0.0 0.0 0.0
0000d0 00 00 00 00 00 00 00 00 00 00 00 00 00 00 00 00
       0.0 0.0 0.0 0.0
0000e0 00 00 00 00 00 00 00 00 00 00 00 00 00 00 00 00
       0.0 0.0 0.0 0.0
0000f0 00 00 00 00 00 00 00 00 00 00 00 00 00 00 00 00
       0.0 0.0 0.0 0.0

bn5.running_var f4 [64]
000000 00 00 80 3f 00 00 80 3f 00 00 80 3f 00 00 80 3f
       1.0 1.0 1.0 1.0
000010 00 00 80 3f 00 00 80 3f 00 00 80 3f 00 00 80 3f
       1.0 1.0 1.0 1.0
000020 00 00 80 3f 00 00 80 3f 00 00 80 3f 00 00 80 3f
       1.0 1.0 1.0 1.0
000030 00 00 80 3f 00 00 80 3f 00 00 80 3f 00 00 80 3f
       1.0 1.0 1.0 1.0
000040 00 00 80 3f 00 00 80 3f 00 00 80 3f 00 00 80 3f
       1.0 1.0 1.0 1.0
000050 00 00 80 3f 00 00 80 3f 00 00 80 3f 00 00 80 3f
       1.0 1.0 1.0 1.0
000060 00 00 80 3f 00 00 80 3f 00 00 80 3f 00 00 80 3f
       1.0 1.0 1.0 1.0
000070 00 00 80 3f 00 00 80 3f 00 00 80 3f 00 00 80 3f
       1.0 1.0 1.0 1.0
000080 00 00 80 3f 00 00 80 3f 00 00 80 3f 00 00 80 3f
       1.0 1.0 1.0 1.0
000090 00 00 80 3f 00 00 80 3f 00 00 80 3f 00 00 80 3f
       1.0 1.0 1.0 1.0
0000a0 00 00 80 3f 00 00 80 3f 00 00 80 3f 00 00 80 3f
       1.0 1.0 1.0 1.0
0000b0 00 00 80 3f 00 00 80 3f 00 00 80 3f 00 00 80 3f
       1.0 1.0 1.0 1.0
0000c0 00 00 80 3f 00 00 80 3f 00 00 80 3f 00 00 80 3f
       1.0 1.0 1.0 1.0
0000d0 00 00 80 3f 00 00 80 3f 00 00 80 3f 00 00 80 3f
       1.0 1.0 1.0 1.0
0000e0 00 00 80 3f 00 00 80 3f 00 00 80 3f 00 00 80 3f
       1.0 1.0 1.0 1.0
0000f0 00 00 80 3f 00 00 80 3f 00 00 80 3f 00 00 80 3f
       1.0 1.0 1.0 1.0

conv1.0.weight f4 [64, 6, 1, 1]
000000 37 9c 24 bd aa 56 a6 be 77 70 69 be db c3 56 3e
       -0.04018804 -0.32487994 -0.22796808 0.2097315
000010 14 e3 ce bd 7d 0a 86 be 7e af 0a 3e ad 82 f8 3d
       -0.101019055 -0.26179877 0.13543507 0.121342994
000020 39 2b dc 3e 68 f6 f3 bc 83 6c 83 3d a6 88 ed 3b
       0.43001726 -0.029780582 0.06417181 0.007248956
000030 84 5d 53 3d 24 30 4c 3e b9 2f 1c be 96 3e 96 3e
       0.051602855 0.19940239 -0.1525258 0.29344624
000040 d8 dc 3f be e4 19 45 be 3b 85 21 3d 4d 7f 9d bc
       -0.18736589 -0.19248158 0.0394337 -0.01922574
000050 3d 04 9e 3a 5b 41 19 be 35 43 84 3e cb 01 1b bd
       0.0012055706 -0.14966337 0.25832525 -0.037843507
000060 58 8c 27 be 28 85 c7 3e 39 2e 58 3e 9e 7e 92 3e
       -0.1636213 0.38968778 0.21111383 0.28612226
000070 e1 99 93 be 43 bc 2c 3e 8d c5 24 bc 49 f3 f5 bd
       -0.28828338 0.16868691 -0.010056865 -0.120092936
000080 42 81 ee bc c0 44 99 be ab b5 90 3d 81 c7 8f be
       -0.02911437 -0.29935265 0.070659004 -0.28081897
000090 a3 6c 57 3d b0 65 74 be a1 ed 95 be 8b 63 9c 3e
       0.05259384 -0.23866916 -0.2928286 0.30544695
0000a0 48 4f 7f be ef c3 61 be 56 10 dd 3c 66 a1 5c 3d
       -0.24932587 -0.22047399 0.026985329 0.05386486
0000b0 75 cb 37 be ca 44 bb bd 04 93 90 be 88 31 4f be
       -0.17948706 -0.0914398 -0.28237164 -0.20233738
0000c0 7b 38 cb be c3 2c 47 3e 4e 6d d0 bd 66 97 df 3d
       -0.3969153 0.19450669 -0.10177098 0.10917549
0000d0 15 c3 93 3e 8a f4 46 3a 30 ef 0e 3e 0c 80 f3 bd
       0.28859773 0.000758954 0.1395843 -0.118896574
0000e0 b8 24 52 3e 2f a4 6e be 3f 38 73 be f1 8f b3 be
       0.2052182 -0.23304819 -0.23751925 -0.35070756
0000f0 49 70 a6 be 1b 00 7c be 1a 48 2e be eb 0a 99 3c
       -0.32507542 -0.24609415 -0.17019692 0.018681964
000100 45 f5 b1 be 1a f5 89 3e 95 aa ff bd 44 38 35 bc
       -0.34757438 0.2694481 -0.12483708 -0.011060778
000110 dc 3b 86 be 56 97 db 3e 91 91 b5 be 8f b7 bd 3b
       -0.26217544 0.42888898 -0.3546262 0.005789704
000120 60 82 9e 3d 13 d2 fb bd ad 9c cd 3e 75 5d 8c be
       0.07739711 -0.12295928 0.40158597 -0.27415052
000130 38 66 63 be 23 9a a2 bd c1 08 0c 3e f4 23 fd 3d
       -0.22206962 -0.079395555 0.13675214 0.12360373
000140 09 3a 41 3e f1 ec 78 3e d4 50 5c 3e 92 f4 5d 3e
       0.18869795 0.24309136 0.21515208 0.21675327
000150 1a 93 a6 3e 82 f9 5f be 39 5c 4e 3e 92 17 d4 bd
       0.32534105 -0.21872523 0.20152368 -0.10356058
000160 5e 6b c0 3e 7f 84 57 be ea be 5a 3d 1c 47 4b 3d
       0.37581915 -0.21046637 0.053404726 0.049628362
000170 9b 0d 89 3e 4d de e6 3c 3b 80 36 be d4 be 1c 3e
       0.26768193 0.028182173 -0.17822354 0.1530717
000180 72 f5 b5 be 91 f4 0f bc 90 19 a3 3e 99 03 72 3e
       -0.35538822 -0.0087863365 0.3185544 0.23634185
000190 95 3e 2d 3e b8 ba 8d be 7f 05 8f bd 98 02 86 3d
       0.16918404 -0.27681518 -0.0698347 0.065434635
0001a0 e1 01 1c 3e e1 0a 9d bc 74 a3 08 3e c3 53 ab bd
       0.15235092 -0.019170227 0.13343602 -0.08365586
0001b0 cb 72 22 bc 54 cb 10 be e3 fe 0d 3c f8 63 aa be
       -0.009915064 -0.14140064 0.008666727 -0.33279395
0001c0 9b cd 97 3e b7 c0 86 bd 50 96 26 be cc 3b 15 bd
       0.29649052 -0.06579726 -0.16268277 -0.03643398
0001d0 fc ed 06 3e 1c 14 85 3e 15 a4 29 3e ab be 12 be
       0.13176721 0.25991905 0.16566499 -0.14330547
0001e0 83 e0 cc 3e 42 d9 6f bb be 32 98 3e a6 32 9b 3e
       0.4001504 -0.0036598002 0.29726213 0.3031208
0001f0 18 e2 ee bd a1 0a a3 bd 87 df b1 bd 40 6c b2 be
       -0.11664218 -0.07961012 -0.086852126 -0.34848213
000200 bc a1 1f be 04 3e 12 be 04 93 38 bd d1 73 90 be
       -0.1558904 -0.1428147 -0.04506208 -0.2821336
000210 05 4a c9 ba b9 b1 fb 3b 89 02 34 be f4 91 3d be
       -0.0015357143 0.0076810983 -0.17579092 -0.18512708
000220 15 ab 70 be 74 76 b8 3e ea 0a 44 3e 8c d4 b9 3d
       -0.23502763 0.36027873 0.19144788 0.09073743
000230 fe 78 c7 bd 5c 68 43 3e 98 4b d5 bd 28 ab dc bd
       -0.09739874 0.19082779 -0.10414809 -0.10774833
000240 47 27 67 3e 47 f8 ab be 1d 3f cd bd 5b 50 ac be
       0.22573577 -0.33587858 -0.100218035 -0.33655056
000250 d4 08 cb be 78 9b f7 3c 2d 85 af 3e 12 7e 13 3e
       -0.39655173 0.0302255 0.34281293 0.14403561
000260 3c 40 c9 bd 49 56 24 be b9 6c d7 3d b0 ab 80 3e
       -0.09826705 -0.1604854 0.10518784 0.25130987
000270 bd 60 08 be 79 4c be be c9 cd 4b 3e f4 d6 a4 be
       -0.13318153 -0.3716772 0.1990272 -0.32195246
000280 fe de c6 be 7a 16 4b 3e 3b 00 e4 be d3 ec fc bd
       -0.38842005 0.19832793 -0.44531426 -0.12349858
000290 4a 43 66 be 83 87 3e bb ef 1b a8 bd 94 7c ee 3d
       -0.22486606 -0.002907247 -0.08208453 0.11644855
0002a0 81 3c 4a be 36 31 e4 be 0b 81 2f be 26 fa 8d be
       -0.19749643 -0.44568795 -0.1713907 -0.2772991
0002b0 81 30 d7 3d eb 21 d2 bd f8 b8 5f 3e 86 52 d6 3b
       0.10507298 -0.102603756 0.21847904 0.0065405993
0002c0 85 25 9e 3e 20 02 a2 3e 12 9e 65 3e 5b 35 00 3d
       0.30888 0.31642246 0.2242358 0.031300884
0002d0 12 d8 ad 3e ce 0d cb 3e 17 82 e3 3d 94 75 fb bc
       0.3395391 0.3965897 0.11108797 -0.030695714
0002e0 21 2d 5d be 07 d4 a1 bd b8 07 b7 be 8e 27 46 3e
       -0.21599247 -0.07901769 -0.35748076 0.19351026
0002f0 46 f4 75 3d d7 84 b1 be 22 d6 93 3e 0d b2 b2 3e
       0.06004741 -0.3467166 0.28874308 0.34901467
000300 7c b6 44 3d 93 84 e2 bd 38 2a 1a 3d 8b a8 2d 3c
       0.048025593 -0.11060443 0.03763792 0.010599266
000310 6f 02 d2 be 68 aa 25 be 5f 91 f6 be ab 0d 6c 3e
       -0.41017482 -0.16178286 -0.48157784 0.23052089
000320 3b f3 44 be 19 d4 aa be 60 39 32 3e 0b 76 8b bd
       -0.1923341 -0.33364943 0.174047 -0.06809624
000330 07 a5 aa be 56 c0 54 be b8 7f 3a be a2 54 41 be
       -0.3332903 -0.20776495 -0.18212783 -0.18879941
000340 d1 12 cd be 3a b1 c5 be 13 ff 9b bd fc 7e bc 3e
       -0.40053418 -0.38611776 -0.07617011 0.3681563
000350 34 3a 78 be f1 a2 97 be f0 80 c1 3e 0a fb a5 be
       -0.24240953 -0.29616502 0.37793684 -0.3241809
000360 01 af b4 bc d7 95 24 3e 95 a5 9d 3e df 28 7f be
       -0.022056105 0.16072784 0.30790392 -0.24917935
000370 65 8c 7b 3e c9 20 48 3e 36 59 f3 bd 53 a5 33 bd
       0.24565275 0.19543757 -0.1188225 -0.043858837
000380 98 d2 71 bc 30 fa a8 3d ef 59 7a 3e 6c 04 42 bd
       -0.014759682 0.082508445 0.2444837 -0.0473675
000390 17 58 e1 bc a9 be 2b bd 60 11 22 be 2f be af 3e
       -0.027507825 -0.041929875 -0.1582694 0.34324786
0003a0 2e 1c a1 3e cc af b7 3e 2d 31 c8 3d e5 ed a6 be
       0.31466812 0.3587631 0.097750045 -0.32603374
0003b0 e2 8f 37 be 93 f2 1d 3d c6 5f c2 3e a7 86 39 bd
       -0.1792598 0.038561415 0.37963694 -0.04529443
0003c0 96 32 89 be 3c 41 aa be 63 6b fb 3d f4 e2 8d 3e
       -0.26796407 -0.33252895 0.12276342 0.27712214
0003d0 4b c1 8f bd d0 83 13 3e cc fb 26 be b3 6a be bd
       -0.070192896 0.14405751 -0.1630699 -0.09297695
0003e0 6d f2 92 bd 3d cd 3b be f5 2c ce be 1d 18 6b 3d
       -0.07175145 -0.18340011 -0.40268674 0.057396043
0003f0 37 1f 30 be 45 9e 3d 3e 66 cd 7f 3e 2c 96 a6 be
       -0.17199408 0.18517406 0.24980697 -0.32536447

conv1.1.weight f4 [64]
000000 4e 19 80 3f 95 87 79 3f 3a 68 80 3f ff 86 80 3f
       1.0007722 0.97472507 1.0031807 1.0041198
000010 ee 06 73 3f 90 d5 7a 3f f9 65 81 3f 9e 18 80 3f
       0.9493245 0.9798212 1.0109245 1.0007513
000020 64 86 79 3f 3f a9 7c 3f 71 4d 77 3f 6f 61 80 3f
       0.9747069 0.9869575 0.9660254 1.0029734
000030 a8 d1 80 3f 1f 1c 79 3f 1b 15 80 3f 9c ec 7e 3f
       1.0063982 0.97308534 1.0006441 0.9957979
000040 34 cd 82 3f 74 cb 7b 3f e0 9d 81 3f b5 5d 82 3f
       1.0218873 0.9835732 1.0126305 1.0184847
000050 ff 0c 81 3f 25 77 77 3f ec 20 7d 3f 04 f5 81 3f
       1.0082091 0.96666175 0.9887836 1.0152898
000060 6e d2 7f 3f 86 f3 7a 3f e1 64 80 3f 66 a1 78 3f
       0.99930465 0.9802784 1.0030786 0.97121274
000070 23 06 7d 3f 5e c0 77 3f a5 08 81 3f 06 68 75 3f
       0.9883749 0.96777904 1.0080763 0.9586185
000080 ac 64 80 3f 04 11 85 3f 06 a5 7c 3f 44 82 83 3f
       1.0030723 1.0395818 0.98689306 1.0274129
000090 9f aa 78 3f 1a 69 7f 3f 9a 61 7d 3f 48 11 7f 3f
       0.9713535 0.9976975 0.98977053 0.99635744
0000a0 75 53 7c 3f 04 a2 76 3f 44 da 80 3f bb 37 80 3f
       0.98564845 0.96340966 1.0066609 1.0017008
0000b0 96 86 79 3f 64 99 79 3f 2e b3 7c 3f d9 da 7b 3f
       0.97470987 0.9749968 0.98710907 0.9838081
0000c0 d9 f3 7e 3f f6 75 7b 3f 97 10 7e 3f 42 cf 81 3f
       0.9959083 0.9822687 0.99244064 1.0141375
0000d0 d5 00 82 3f 5c 1f 7e 3f a5 b8 7a 3f 50 a9 7a 3f
       1.0156504 0.992666 0.97937995 0.979146
0000e0 53 6e 79 3f fa 81 7f 3f 28 85 7d 3f fa b1 7f 3f
       0.97433966 0.99807703 0.99031305 0.99880946
0000f0 b9 1b 81 3f 76 8e 7a 3f cd 10 81 3f bb 78 82 3f
       1.0086585 0.9787363 1.0083252 1.0193094

conv1.1.bias f4 [64]
000000 d6 79 59 bc 2c c8 8a 3d 78 65 e5 bc f3 16 5d bc
       -0.013273677 0.06776461 -0.028002486 -0.013494241
000010 18 ad 9e 3c f4 88 82 bd 4b d7 4c bc 7f f8 31 3c
       0.019369647 -0.06373778 -0.012502502 0.010862469
000020 d2 5d 31 bc dc 76 f2 bc 56 e1 cb bb 32 cc 7f 3c
       -0.010825591 -0.029597692 -0.0062219305 0.015612649
000030 54 fc 04 3d bb 7d 7e bc bf 43 19 bd c2 e7 b6 3a
       0.0324672 -0.015532906 -0.037418123 0.0013954567
000040 a5 29 95 bd 29 0e 7c bc fc ba 70 bb 0c a5 29 3b
       -0.07283334 -0.015384235 -0.0036732545 0.002588573
000050 72 df 01 3d 6a 4c 13 bd 36 a6 41 bc af 04 b6 3c
       0.031707235 -0.035961546 -0.011819413 0.02221903
000060 6d 9c ac 3c aa 84 58 3c 1b b2 f3 3c 87 dd 15 3c
       0.021070683 0.013215223 0.029748013 0.0091470545
000070 c4 bb cd bb 8e c3 97 3c 98 cb 3a bb 06 59 32 bd
       -0.006278487 0.018525865 -0.00285027 -0.04354193
000080 fc 0f b6 bc dc 61 27 bc 8d e0 3f bd 4c b0 61 3c
       -0.022224419 -0.010216203 -0.046845008 0.013774943
000090 b0 d7 ed 3c fc 38 6b 3b 66 3e 85 bc ad 85 3a bc
       0.029033512 0.003589212 -0.016265105 -0.01138441
0000a0 3d ba d6 3c 57 e9 a8 ba 32 5e 14 3c 30 65 6a 3d
       0.026211852 -0.0012886924 0.009055661 0.057225406
0000b0 6f 2e 81 3b 86 2f cf 3c 05 59 92 bc a5 b9 42 bc
       0.003942303 0.025291216 -0.017864713 -0.011885081
0000c0 ec 84 a4 bc 26 e8 60 3c 25 bb 1b bd 47 c0 e9 b9
       -0.020082913 0.0137272235 -0.03802027 -0.0004458448
0000d0 10 62 0a 3d 88 cf 94 bc 67 c7 a7 3a 93 b7 85 3b
       0.033784926 -0.018165365 0.0012800515 0.0040807216
0000e0 f7 da 50 3d 6e 68 03 bc 7b f9 41 bb f1 1d 30 3c
       0.05099007 -0.008020503 -0.0029598165 0.010749326
0000f0 f8 3f 00 bc 42 d4 3f bc 29 66 6c 3d 35 51 19 bc
       -0.007827751 -0.011708321 0.057714615 -0.00935774

conv1.1.running_mean f4 [64]
000000 65 61 a0 c5 96 db e8 42 d8 3c 6a c5 37 69 53 c4
       -5132.1743 116.42888 -3747.8027 -845.644
000010 9f d4 54 45 5b d6 af c5 91 e8 85 c5 d2 d5 73 c5
       3405.2888 -5626.7944 -4285.071 -3901.3638
000020 b3 4f 6e c2 43 c9 d8 c5 dd d3 a9 45 92 da 6f 43
       -59.57783 -6937.1577 5434.483 239.85379
000030 02 05 c3 c4 9f 79 84 45 b7 dc 85 c5 24 4e 3e 45
       -1560.1565 4239.2026 -4283.5894 3044.8838
000040 10 3a ac c5 71 2f d4 c4 8a 19 af c4 15 a6 31 c5
       -5511.258 -1697.4825 -1400.7981 -2842.3801
000050 c0 34 c2 c4 01 4a ae c5 01 a1 df 45 7e a4 03 c5
       -1553.6484 -5577.2505 7156.1255 -2106.2808
000060 1a 2e 21 44 56 9b 9a 45 2e dc 79 45 4d 54 13 45
       644.72034 4947.417 3997.7612 2357.2688
000070 48 c7 02 c5 70 02 12 44 31 76 c2 c4 2c a0 d5 45
       -2092.455 584.0381 -1555.6935 6836.0215
000080 86 cf 44 c5 8e 24 b3 c4 21 15 ed c5 ed 6b cb c5
       -3148.9702 -1433.1423 -7586.641 -6509.4907
000090 7d 80 6c 45 72 ef 76 c4 99 5b dd 45 68 0c 6c c4
       3784.0305 -987.74133 7083.4497 -944.19385
0000a0 11 1d 35 45 d0 8c 97 44 4e d3 29 c5 c1 2b a5 c4
       2897.8167 1212.4004 -2717.2065 -1321.3673
0000b0 d0 81 cd 45 ed 51 32 45 b4 d9 b0 c5 81 71 cb 45
       6576.2266 2853.1204 -5659.213 6510.188
0000c0 11 4e 1f c5 8c 20 36 45 4a 02 c5 c5 11 28 35 c4
       -2548.8792 2914.0342 -6304.286 -724.62604
0000d0 7e e5 9a c4 17 f3 f0 c5 b0 90 e9 45 7e bf 8e c5
       -1239.1716 -7710.386 7474.086 -4567.9365
0000e0 59 91 f5 44 44 bd 91 c5 2b 8f eb 45 5d 9d ec c4
       1964.5421 -4663.658 7537.896 -1892.9176
0000f0 01 e6 56 c5 4c 5c bd 45 f4 db d6 c4 ff ec f9 c4
       -3438.3752 6059.537 -1718.8735 -1999.4061

conv1.1.running_var f4 [64]
000000 e1 7d ef 4a e4 cc e9 48 02 69 da 4a f4 fd 47 4a
       7.8476645e+06 478823.12 7.156865e+06 3.276669e+06
000010 17 ee 12 4b ea 26 37 4b 28 22 0a 4b f2 9a cd 4a
       9.629207e+06 1.200305e+07 9.052712e+06 6.737273e+06
000020 46 6c 51 4a c2 51 7c 4b de a7 33 4b 5d e2 28 4b
       3.4311855e+06 1.6536002e+07 1.1773918e+07 1.1067997e+07
000030 74 64 a5 4a 4c 9e fd 4a 87 d7 20 4b 8e ba 54 4a
       5.419578e+06 8.310566e+06 1.0540935e+07 3.4853475e+06
000040 8d 8f 21 4b 4f 7a ac 49 94 c9 eb 4a 58 b2 9e 4a
       1.0588045e+07 1.4129379e+06 7.726282e+06 5.200172e+06
000050 37 1a 82 4a 78 03 07 4b 66 b8 6b 4b aa 4d 1a 4a
       4.2631955e+06 8.848248e+06 1.5448166e+07 2.5281065e+06
000060 66 45 0e 4b bd 9c dc 4a 39 b6 35 4b 23 4f f8 49
       9.323878e+06 7.2290225e+06 1.1908665e+07 2.0341484e+06
000070 c1 8b 91 4a f9 36 a4 4a 3c 7e 26 4a ed 24 82 4b
       4.7692485e+06 5.3809885e+06 2.727823e+06 1.7058266e+07
000080 d6 c8 eb 4a 74 85 af 4a 57 a8 9e 4b d8 32 93 4b
       7.726187e+06 5.751482e+06 2.0795566e+07 1.9293616e+07
000090 b3 87 d9 4a da 45 18 4a d4 de 9f 4b 54 d1 a6 4a
       7.1280255e+06 2.4948385e+06 2.0954536e+07 5.466282e+06
0000a0 48 fe ad 4a 24 71 cd 4a 1f d2 bd 4a 76 2e 4d 4a
       5.701412e+06 6.731922e+06 6.2200475e+06 3.3616935e+06
0000b0 21 9f 87 4b 4c 76 0c 4b 76 02 86 4b 0d c7 47 4b
       1.7776194e+07 9.205324e+06 1.7564908e+07 1.3092621e+07
0000c0 89 1a 09 4a d5 4a aa 4a 6a 36 58 4b 22 40 4b 4a
       2.2463062e+06 5.5801385e+06 1.4169706e+07 3.3300565e+06
0000d0 e2 c3 9c 49 2e 81 8b 4b 6c a6 85 4b 6c 7e 44 4b
       1.2842202e+06 1.8285148e+07 1.7517784e+07 1.287742e+07
0000e0 42 5a 6b 4a b3 b5 3a 4b b8 f3 6c 4b 4e 07 4e 4a
       3.8560165e+06 1.2236211e+07 1.5528888e+07 3.3755715e+06
0000f0 08 dc 60 4a 86 e1 39 4b 8e 76 af 4a 30 cb 9a 4a
       3.684098e+06 1.2181894e+07 5.749575e+06 5.07228e+06
