src/pipelineC/checkpoints/dgcnn_seg_final.pth (torch, 692188 bytes, 59 tensors)

bn1.weight f4 [64]
0	0x3f802180	1.0010223
1	0x3f7a6e27	0.9782433
2	0x3f7f93d7	0.9983496
3	0x3f805b54	1.0027871
4	0x3f71bb52	0.94426453
5	0x3f7afa06	0.98037755
6	0x3f80ec43	1.0072101
7	0x3f7e743d	0.99396116
8	0x3f7822e8	0.9692826
9	0x3f7b82c3	0.982464
10	0x3f75718e	0.95876396
11	0x3f803236	1.0015323
12	0x3f8057a2	1.0026743
13	0x3f76aae3	0.963545
14	0x3f800eb9	1.0004493
15	0x3f7e8b1e	0.99431026
16	0x3f82d8d7	1.0222424
17	0x3f7b918a	0.9826895
18	0x3f813a32	1.0095885
19	0x3f821aab	1.0164388
20	0x3f80ea93	1.0071586
21	0x3f764a70	0.9620733
22	0x3f7c8b0d	0.98649675
23	0x3f8181ae	1.01177
24	0x3f7f0e3b	0.9963109
25	0x3f797173	0.97438735
26	0x3f7ec490	0.9951868
27	0x3f7676c7	0.9627499
28	0x3f7cd018	0.98755026
29	0x3f747e06	0.95504797
30	0x3f812342	1.0088885
31	0x3f73738a	0.95098174
32	0x3f8025d5	1.0011545
33	0x3f8550fc	1.041534
34	0x3f7bde45	0.9838603
35	0x3f83abec	1.0286841
36	0x3f7805c1	0.9688378
37	0x3f7e2d70	0.9928808
38	0x3f7cd221	0.9875813
39	0x3f7ae84a	0.98010695
40	0x3f7b9c6d	0.9828556
41	0x3f75352c	0.9578426
42	0x3f806e58	1.0033674
43	0x3f7e8d7c	0.9943464
44	0x3f77f51e	0.96858394
45	0x3f786f16	0.97044504
46	0x3f79cafc	0.97575355
47	0x3f79fc8c	0.9765098
48	0x3f7f1e8c	0.99655986
49	0x3f79e2f6	0.9761194
50	0x3f7c8623	0.98642176
51	0x3f81d7af	1.0143946
52	0x3f82d049	1.0219814
53	0x3f7daf9d	0.9909609
54	0x3f791bb8	0.9730792
55	0x3f790c1d	0.9728411
56	0x3f7752ee	0.96610916
57	0x3f7fca3d	0.99917966
58	0x3f7bfb4a	0.9843031
59	0x3f7f1060	0.9963436
60	0x3f817f42	1.0116961
61	0x3f78f7fe	0.97253406
62	0x3f800266	1.0000732
63	0x3f82e153	1.0225013

bn1.bias f4 [64]
0	0xbc5cc2fd	-0.013474223
1	0x3d9adc32	0.0756153
2	0xbd267051	-0.040634457
3	0xbcccb962	-0.024990741
4	0x3d0fb15e	0.03508126
5	0xbd9dc4e0	-0.077035666
6	0xbc93ba20	-0.018033087
7	0x3c0cf19d	0.008602527
8	0xbc3f1caf	-0.011664554
9	0xbd3f53a2	-0.046710618
10	0xbbf365e3	-0.0074279173
11	0x3cbc1215	0.022957841
12	0x3d02dd30	0.031949222
13	0xbc955cdb	-0.018232754
14	0xbd303c2f	-0.043026146
15	0x3aeedb46	0.0018223308
16	0xbd9c4921	-0.07631136
17	0xbca61b9a	-0.020276833
18	0xbcd60572	-0.026125643
19	0xbb90bb9d	-0.0044168965
20	0x3cbe02f1	0.023194762
21	0xbd2960bc	-0.04135202
22	0xbc4e2247	-0.012581415
23	0x3cc44edb	0.023963382
24	0x3cb9583d	0.022625083
25	0x3c61ee86	0.013789779
26	0x3d22ac9d	0.039715398
27	0x3c518372	0.012787687
28	0x3be1b404	0.0068879146
29	0x3caccc29	0.021093445
30	0x3b8212f9	0.003969547
31	0xbd512074	-0.05105634
32	0xbcfb608b	-0.030685684
33	0xbc98018a	-0.018555421
34	0xbd660da9	-0.05616537
35	0x3c8059a2	0.01566774
36	0x3d2df873	0.042473268
37	0x3ac439c5	0.001497083
38	0xbc81c391	-0.015840324
39	0xbd2770b9	-0.040878985
40	0x3d219b44	0.039454713
41	0x3bdc5fd3	0.0067252903
42	0x3c25f67f	0.01012957
43	0x3d929dc0	0.07158995
44	0x3b9b3bf3	0.004737371
45	0x3cf9483d	0.030429954
46	0xbd026467	-0.031834032
47	0xbb8d54c2	-0.0043130824
48	0xbc246781	-0.010034443
49	0x3c2d8843	0.010591569
50	0xbd36cd53	-0.044629406
51	0xbac2f9d6	-0.0014875482
52	0x3d155b75	0.036464173
53	0xbcc58172	-0.024109576
54	0x3b9dbf07	0.004814032
55	0x3b7c8308	0.003853025
56	0x3d81d78b	0.0633994
57	0xbb947853	-0.0045309453
58	0x3b0b83ab	0.0021288197
59	0x3c247042	0.01003653
60	0xbbebbbb8	-0.0071940087
61	0xbc316709	-0.010827788
62	0x3d5dba8f	0.054132994
63	0xbc32d964	-0.010916088

bn1.running_mean f4 [64]
0	0xc5a18e6b	-5169.8022
1	0x430ca15c	140.63031
2	0xc56eb364	-3819.212
3	0xc464153b	-912.3317
4	0x453a3d84	2979.8447
5	0xc5b5b038	-5814.0273
6	0xc588d8ae	-4379.085
7	0xc5809468	-4114.551
8	0xc2e03168	-112.0965
9	0xc5dd7d98	-7087.699
10	0x45b1dea0	5691.828
11	0x42dd8fb0	110.78064
12	0xc4cb3e39	-1625.9445
13	0x458554e0	4266.6094
14	0xc588649e	-4364.577
15	0x4546a04f	3178.0193
16	0xc5b0fe7b	-5663.81
17	0xc4e0b6f5	-1797.7174
18	0xc4b57676	-1451.7019
19	0xc5364678	-2916.4043
20	0xc4c02bca	-1537.3684
21	0xc5b4e760	-5788.922
22	0x45e143c9	7208.473
23	0xc5072ec2	-2162.9224
24	0x43dafcc4	437.97473
25	0x459dfa1b	5055.263
26	0x45659adc	3673.6787
27	0x451e6ab9	2534.6702
28	0xc50a91eb	-2217.1199
29	0x43ba9d74	373.2301
30	0xc4cca0bb	-1637.0228
31	0x45dcbb75	7063.432
32	0xc54cc3f1	-3276.2463
33	0xc4b724ef	-1465.1542
34	0xc5f0a3d3	-7700.478
35	0xc5d2906a	-6738.052
36	0x455a61f2	3494.1216
37	0xc488fc5a	-1095.886
38	0x45e555d5	7338.729
39	0xc46ac567	-939.0844
40	0x4526e8f5	2670.5598
41	0x446a408e	937.00867
42	0xc530bcf0	-2827.8086
43	0xc4ac6cb9	-1379.3976
44	0x45cfaeb4	6645.838
45	0x45353ba1	2899.7268
46	0xc5b15209	-5674.2544
47	0x45cb4170	6504.1797
48	0xc515fe67	-2399.9001
49	0x453c753c	3015.3271
50	0xc5ca871d	-6480.889
51	0xc45798f4	-862.3899
52	0xc4a3cbd2	-1310.3694
53	0xc5fab40b	-8022.5054
54	0x45f291bb	7762.2163
55	0xc59597d3	-4786.978
56	0x44c7fe6e	1599.9509
57	0xc596800f	-4816.0073
58	0x45fcd088	8090.0664
59	0xc4f7ca75	-1982.3268
60	0xc5569ad2	-3433.6763
61	0x45bba3a5	6004.4556
62	0xc4d4e78d	-1703.236
63	0xc4ff9ca8	-2044.8955

bn1.running_var f4 [64]
0	0x4b11d678	9.557624e+06
1	0x48fd7646	519090.2
2	0x4b08c83e	8.964158e+06
3	0x4a5d8a02	3.6296965e+06
4	0x4b0a6a1b	9.071131e+06
5	0x4b365e00	1.1951616e+07
6	0x4b2ec8d1	1.1454673e+07
7	0x4aee0dc4	7.800546e+06
8	0x4a6073c0	3.677424e+06
9	0x4b867aa5	1.7626442e+07
10	0x4b408d6d	1.2619117e+07
11	0x4b398c57	1.2160087e+07
12	0x4aa2f455	5.3396905e+06
13	0x4b02d2fe	8.573694e+06
14	0x4b279130	1.098168e+07
15	0x4a64e681	3.7503042e+06
16	0x4b3adbf8	1.2246008e+07
17	0x49bba7a6	1.5372688e+06
18	0x4af9d54c	8.186534e+06
19	0x4ab29611	5.8519125e+06
20	0x4a940d0b	4.8513335e+06
21	0x4b119e70	9.54328e+06
22	0x4b827296	1.7098028e+07
23	0x4a39ffa0	3.0474e+06
24	0x4b13c1bb	9.683387e+06
25	0x4b06d6f2	8.83685e+06
26	0x4b41b568	1.2694888e+07
27	0x4a0bc29d	2.2898312e+06
28	0x4a88ba3d	4.4802865e+06
29	0x4aa4ca86	5.399875e+06
30	0x4a2fb4d6	2.8787735e+06
31	0x4ba65e6c	2.1806296e+07
32	0x4b0f7056	9.400406e+06
33	0x4aadca1b	5.6947335e+06
34	0x4bb08d4f	2.3141022e+07
35	0x4b9513c1	1.9539842e+07
36	0x4b0320ef	8.593647e+06
37	0x4a235e03	2.6766088e+06
38	0x4ba82fd8	2.2044592e+07
39	0x4abd5ee4	6.205298e+06
40	0x4a9dfac2	5.176673e+06
41	0x4ade8380	7.291328e+06
42	0x4ab20eba	5.834589e+06
43	0x4a4e7385	3.3824972e+06
44	0x4b96ee59	1.9782834e+07
45	0x4b10d722	9.492258e+06
46	0x4b8469c9	1.7355666e+07
47	0x4b73876e	1.5959918e+07
48	0x4a056719	2.1856702e+06
49	0x4ad61779	7.0153565e+06
50	0x4b6cc85e	1.551779e+07
51	0x4a61e922	3.7013205e+06
52	0x49a7f4cd	1.3758976e+06
53	0x4b92f05b	1.9259574e+07
54	0x4ba415c5	2.1506954e+07
55	0x4b4611ff	1.2980735e+07
56	0x4a55bdaa	3.5019305e+06
57	0x4b383a65	1.2073573e+07
58	0x4b89fa7f	1.8085118e+07
59	0x4a4100b1	3.1621562e+06
60	0x4a6ee93a	3.9143185e+06
61	0x4b605165	1.4700901e+07
62	0x4aba2345	6.0993625e+06
63	0x4aa12954	5.280938e+06

bn2.weight f4 [64]
0	0x3f764a44	0.9620707
1	0x3f806cb8	1.0033178
2	0x3f7ff29d	0.99979573
3	0x3f7ac02a	0.9794947
4	0x3f75d242	0.9602395
5	0x3f79763a	0.97446024
6	0x3f81a2c0	1.0127792
7	0x3f6d8ae7	0.92790073
8	0x3f7e6f2e	0.99388397
9	0x3f7f7a6f	0.99796194
10	0x3f7e5573	0.99349135
11	0x3f7f2aaa	0.99674475
12	0x3f800d22	1.0004008
13	0x3f7af299	0.98026425
14	0x3f73e09b	0.95264596
15	0x3f76d125	0.9641288
16	0x3f773cfb	0.96577424
17	0x3f7e558c	0.99349284
18	0x3f7d61c2	0.9897729
19	0x3f7c4d51	0.98555475
20	0x3f6ee606	0.9331974
21	0x3f776373	0.9663612
22	0x3f74ee37	0.95675987
23	0x3f7d8796	0.9903501
24	0x3f7518bb	0.9574086
25	0x3f802024	1.0009809
26	0x3f6d4f35	0.92698985
27	0x3f80b1e1	1.0054284
28	0x3f78413a	0.9697453
29	0x3f79ae87	0.9753193
30	0x3f77dfb9	0.9682575
31	0x3f78a7fb	0.9713132
32	0x3f74beba	0.95603526
33	0x3f799f17	0.97508377
34	0x3f7aa660	0.9791012
35	0x3f714c30	0.9425688
36	0x3f823d65	1.0174986
37	0x3f76c392	0.96392167
38	0x3f768c6a	0.96308005
39	0x3f7809ab	0.9688975
40	0x3f7d1433	0.98858947
41	0x3f7cb7d7	0.9871802
42	0x3f7075bf	0.93929666
43	0x3f7b17df	0.980833
44	0x3f7d5532	0.9895812
45	0x3f79988c	0.97498393
46	0x3f7b04a6	0.9805397
47	0x3f7af362	0.9802762
48	0x3f7e265e	0.99277294
49	0x3f742dff	0.95382684
50	0x3f746ad9	0.95475537
51	0x3f7dade4	0.9909346
52	0x3f82f1c5	1.0230032
53	0x3f7b495d	0.9815882
54	0x3f7f1c58	0.99652624
55	0x3f718d4c	0.94356227
56	0x3f78868c	0.970803
57	0x3f785639	0.97006565
58	0x3f81b36c	1.013288
59	0x3f7d4660	0.9893551
60	0x3f78e737	0.97227806
61	0x3f78f181	0.97243506
62	0x3f83ed85	1.030686
63	0x3f76e672	0.9644538

bn2.bias f4 [64]
0	0x3d1da5c7	0.038488176
1	0xbcb534da	-0.022119928
2	0xbc8fde27	-0.017561985
3	0x3c861515	0.016367475
4	0xbc7a25c4	-0.015267793
5	0xbc42ded2	-0.011893945
6	0xbc956a0c	-0.018239044
7	0xbd210393	-0.03931005
8	0xbccdaacc	-0.025105856
9	0x3d639ce6	0.055569552
10	0x3b1975b5	0.0023416106
11	0xbc59c910	-0.013292566
12	0x3b060c61	0.0020454156
13	0xbd025ed3	-0.031828713
14	0xbcb18fa5	-0.02167494
15	0x3d08f810	0.033439696
16	0x397722f2	0.00023568774
17	0xbdcee4b5	-0.10102216
18	0xbb358a56	-0.0027700863
19	0x3c7e5824	0.015523944
20	0xbb590b38	-0.003311826
21	0x3b410a57	0.0029455626
22	0x3d20f61c	0.03929721
23	0xbc58885a	-0.0132161025
24	0xbcd2e939	-0.025745975
25	0x3d349f49	0.04409722
26	0xbd340305	-0.043948192
27	0xbc861b1e	-0.016370352
28	0xbd89855d	-0.0671489
29	0x3b541140	0.0032358915
30	0xbd077089	-0.033066306
31	0xbc6ad001	-0.014331819
32	0xbd50963b	-0.05092452
33	0xbd6ffbb3	-0.05858965
34	0x3d0e2e9b	0.034712415
35	0xbcfffcb8	-0.031248435
36	0xbbb34974	-0.005471403
37	0xbcc8c600	-0.024508476
38	0x3cc4d330	0.024026483
39	0x3bdbb2ce	0.006704665
40	0x3bb1832e	0.005417249
41	0xbd1a1638	-0.037618846
42	0xbc8f11e4	-0.017464586
43	0xbce8e5b2	-0.02842984
44	0xbc00fd63	-0.007872912
45	0xbb8aa0a2	-0.0042305747
46	0xbd2f4953	-0.042794537
47	0xbc0693ef	-0.008213981
48	0xbba3c0f8	-0.004997369
49	0xbd233121	-0.039841775
50	0x3c9d8748	0.019229546
51	0xbc904a3f	-0.017613528
52	0x3cb34610	0.021883994
53	0xbc63fa9a	-0.013914729
54	0x3b136a84	0.0022493908
55	0xbd033e07	-0.032041576
56	0x3b107ec3	0.0022048212
57	0xbd80e7c0	-0.06294203
58	0xbd3ed382	-0.04658843
59	0x3d31a0ef	0.04336637
60	0x3bd24a2e	0.0064175343
61	0xbd5e3074	-0.054245427
62	0xbca98495	-0.020693103
63	0xbcbc8b38	-0.023015603

bn2.running_mean f4 [64]
0	0xbe35f1f4	-0.17768079
1	0x3dc88e17	0.097927265
2	0x3d9d103a	0.076691106
3	0xbe354a64	-0.17704159
4	0xbcef22ff	-0.029191492
5	0x3e56db14	0.20982009
6	0x3e828436	0.25491494
7	0x3de6c74c	0.112684816
8	0x3e507b62	0.20359567
9	0xbf061e83	-0.5239031
10	0x3ec80574	0.3906666
11	0x3f05808c	0.5214927
12	0xbd032554	-0.03201802
13	0x3e025acc	0.12729949
14	0x3f3b5d57	0.731893
15	0xbeee50ff	-0.4654617
16	0x3f1d1531	0.6136046
17	0x3edc7a5a	0.43062097
18	0xbe2fd1e1	-0.17169906
19	0xbe24b778	-0.16085613
20	0x3eeaadcc	0.45835721
21	0xbe474c47	-0.19462691
22	0xbe4b36d5	-0.19845136
23	0x3e5ccee7	0.21563302
24	0xbccaf5c5	-0.024775395
25	0xbe24f8d5	-0.16110547
26	0x3d101b15	0.035182077
27	0x3e415c5b	0.18882887
28	0x3ea27443	0.31729326
29	0xbc060136	-0.008179
30	0xbea6acdc	-0.32553756
31	0x3e658cae	0.22416946
32	0x3f0ac45c	0.5420587
33	0x3f102cb9	0.5631824
34	0xbe9552ad	-0.2916464
35	0xbe2a34e6	-0.16621742
36	0xbe1e13b8	-0.1543721
37	0xbf20884d	-0.6270798
38	0xbd1170ef	-0.035508092
39	0x3e2b771d	0.16744657
40	0x3c9b4969	0.018955903
41	0x3ec42187	0.3830683
42	0xbe7da7ef	-0.24771093
43	0x3e4211bc	0.18952078
44	0x3e9c6b47	0.30550596
45	0xbd6d6b57	-0.057963695
46	0x3e854120	0.2602625
47	0x3e2452b2	0.16047171
48	0x3dc2b83a	0.09507795
49	0x3e134bf0	0.14384437
50	0xbea3357b	-0.3187674
51	0x3d07d9d0	0.033166707
52	0x3d9bece6	0.07613544
53	0x3e183115	0.14862473
54	0xbed8706a	-0.42273265
55	0x3eae1540	0.34000587
56	0x3ce6e323	0.02818448
57	0x3ea533ef	0.32266185
58	0x3e218217	0.15772282
59	0xbf210372	-0.6289588
60	0xbeaf2573	-0.3420826
61	0x3d5c80ff	0.053833958
62	0xbefc3d6e	-0.49265617
63	0xbc4c89ed	-0.012484056

bn2.running_var f4 [64]
0	0x3dec2827	0.11531096
1	0x3ddfb211	0.10922635
2	0x3daa4fcc	0.08316001
3	0x3debbe52	0.1151091
4	0x3e353919	0.17697562
5	0x3e2fcb75	0.17167456
6	0x3db209fd	0.08693311
7	0x3eca7203	0.3954011
8	0x3d78345e	0.060596816
9	0x3dc10344	0.09424451
10	0x3d8a75ef	0.06760775
11	0x3dc95989	0.098315306
12	0x3d89d321	0.06729723
13	0x3d60e3c2	0.054904707
14	0x3e0b6a17	0.13614689
15	0x3e1303c1	0.14356901
16	0x3e3d3052	0.18475464
17	0x3d9f5154	0.07779184
18	0x3dd3cb3a	0.10341497
19	0x3e0f7fb2	0.14013556
20	0x3e1ae659	0.15126933
21	0x3e53af5c	0.20672363
22	0x3dc6ac08	0.09700781
23	0x3db1c5c0	0.08680296
24	0x3d9b9496	0.075967
25	0x3d4158de	0.04720389
26	0x3e6b7d71	0.22997071
27	0x3dade669	0.08491213
28	0x3d9be5a8	0.07612163
29	0x3e1d5151	0.15363051
30	0x3e3363fc	0.1751861
31	0x3ecf2b0c	0.4046253
32	0x3df728cb	0.120683275
33	0x3e0f0fad	0.13970824
34	0x3e83c512	0.2573629
35	0x3e8197d0	0.25311136
36	0x3db87cb1	0.09008158
37	0x3e4b508f	0.1985495
38	0x3e8d3ebb	0.27586922
39	0x3e05053f	0.12990282
40	0x3e566c6d	0.20939799
41	0x3e10b4a7	0.14131413
42	0x3e501322	0.20319799
43	0x3d9048a2	0.070451036
44	0x3d369038	0.04457113
45	0x3e36c08e	0.17846891
46	0x3d73aaa6	0.059488915
47	0x3dcfbc68	0.101433575
48	0x3d913627	0.07090407
49	0x3e13215e	0.14368197
50	0x3dd3c161	0.103396185
51	0x3de2a642	0.110668674
52	0x3d17d968	0.03707257
53	0x3e42bb77	0.19016825
54	0x3e7db71f	0.24776886
55	0x3e445810	0.19174218
56	0x3dab9a6e	0.083790645
57	0x3d581ed8	0.05276379
58	0x3d4c4710	0.049872458
59	0x3e2c8ed2	0.16851357
60	0x3e235674	0.15950948
61	0x3e2142d2	0.15748146
62	0x3dea254c	0.11432895
63	0x3e829f2a	0.25512058

bn3.weight f4 [64]
0	0x3f70af52	0.9401752
1	0x3f7d5060	0.9895077
2	0x3f7da083	0.99073046
3	0x3f6ead63	0.9323332
4	0x3f72abe7	0.9479355
5	0x3f7be1c5	0.9839137
6	0x3f714a9e	0.9425448
7	0x3f7a8ea0	0.9787388
8	0x3f739783	0.95153064
9	0x3f80d292	1.0064261
10	0x3f805437	1.00257
11	0x3f7f0ac9	0.9962583
12	0x3f63bfee	0.88964736
13	0x3f8108be	1.0080793
14	0x3f71c1d9	0.94436413
15	0x3f76c2cf	0.96391004
16	0x3f76bfb7	0.96386284
17	0x3f8007ae	1.0002344
18	0x3f7b60cd	0.9819458
19	0x3f742ca5	0.9538062
20	0x3f7925d5	0.9732335
21	0x3f7feb6d	0.99968606
22	0x3f800337	1.0000981
23	0x3f7c4617	0.9854445
24	0x3f74d60f	0.9563913
25	0x3f7a9ae3	0.9789259
26	0x3f74e410	0.95660496
27	0x3f84a7bd	1.036369
28	0x3f7e61f9	0.99368244
29	0x3f6ffcd1	0.9374514
30	0x3f7c79bf	0.9862327
31	0x3f791c6d	0.97309
32	0x3f842a3e	1.0325391
33	0x3f766c68	0.96259165
34	0x3f79da1c	0.97598433
35	0x3f7afbd4	0.9804051
36	0x3f78ad1f	0.9713916
37	0x3f72b995	0.94814426
38	0x3f7797ac	0.9671581
39	0x3f7a8d83	0.9787218
40	0x3f79553e	0.97395694
41	0x3f81ca4d	1.0139862
42	0x3f6fd480	0.93683624
43	0x3f701fea	0.93798697
44	0x3f784f9e	0.96996486
45	0x3f82f44f	1.0230807
46	0x3f6fe100	0.937027
47	0x3f8672b0	1.050375
48	0x3f77b2c3	0.96757144
49	0x3f69e33d	0.91362363
50	0x3f7c9c67	0.9867615
51	0x3f76fc6c	0.96478915
52	0x3f7bbcfd	0.9833525
53	0x3f8011ef	1.0005473
54	0x3f6e393f	0.930561
55	0x3f7e8520	0.9942188
56	0x3f75d3e5	0.9602645
57	0x3f72c62a	0.94833624
58	0x3f7b3cb9	0.9813953
59	0x3f7d4664	0.9893553
60	0x3f74c688	0.95615435
61	0x3f7b09c9	0.98061806
62	0x3f76dad3	0.9642765
63	0x3f78e3bb	0.9722249

bn3.bias f4 [64]
0	0xbcb6583f	-0.022258876
1	0xbcca5820	-0.024700224
2	0xbcfa8801	-0.03058243
3	0xbcc2dcc3	-0.023786908
4	0xbd1b4b83	-0.03791381
5	0xbd089044	-0.033340707
6	0xbc23e98f	-0.010004415
7	0xbd884523	-0.06653812
8	0xbb45428b	-0.0030099477
9	0x3c01db36	0.007925799
10	0x3d5bc608	0.053655654
11	0x3cb9bc51	0.022672804
12	0xbd35e0cf	-0.044403847
13	0x3cf6b789	0.030116813
14	0x39bb377a	0.00035708753
15	0x3bdef5cf	0.006804205
16	0xbd1d3fb8	-0.038390845
17	0x3ce91d1f	0.028456269
18	0x3c5e24aa	0.013558546
19	0xbc80cb0d	-0.015721822
20	0xbd10cdf1	-0.03535265
21	0x3d1ca032	0.03823871
22	0x3cb1f681	0.021723988
23	0x3abfbc10	0.001462819
24	0x39670d65	0.00022034867
25	0xbd712279	-0.058870766
26	0xbcb8af23	-0.02254445
27	0x3d1f5738	0.038901538
28	0xbca72a3b	-0.02040588
29	0x3b441019	0.0029916822
30	0xbcd6a631	-0.026202293
31	0xb77aeaf1	-1.4955863e-05
32	0xbcb73292	-0.022362981
33	0xbc84346e	-0.016138282
34	0xbd465990	-0.048425257
35	0xbcdef1f9	-0.02721499
36	0xbc9a257e	-0.018816706
37	0xbcd5aa77	-0.02608226
38	0xbcbf9ab3	-0.023389196
39	0x3aaaa3c5	0.0013018778
40	0x3cf0fc4b	0.029417178
41	0xbcd179a5	-0.0255707
42	0x3c923503	0.017847544
43	0xbd088de1	-0.03333843
44	0xbcc94efd	-0.024573797
45	0xbcfd685e	-0.030933555
46	0xbd1de44b	-0.038547795
47	0x3c2e5b9b	0.010641958
48	0x3ccd0b6c	0.02502986
49	0x3c221fdd	0.009895292
50	0xbc8f2184	-0.017472036
51	0xbc7c6580	-0.015405059
52	0xbca61839	-0.020275222
53	0xbd276bbd	-0.04087423
54	0xbd278e4c	-0.04090719
55	0x3dafcf42	0.08584453
56	0x3c9b5250	0.018960148
57	0xbd020e33	-0.031751823
58	0xbd00014f	-0.031251248
59	0x3c9016f0	0.017589062
60	0xbcab817b	-0.020935765
61	0xbcf77b28	-0.030210093
62	0xbc8b1a7f	-0.016980408
63	0xbd369c0c	-0.04458241

bn3.running_mean f4 [64]
0	0xbee73d00	-0.45163727
1	0x3e99bbf1	0.300262
2	0x3eb30408	0.34964013
3	0x3edcca24	0.4312297
4	0xbed7e5cc	-0.4216751
5	0xbe8000b9	-0.2500055
6	0x3eb38cc9	0.35068348
7	0x3eceb302	0.40370947
8	0x3e7f2fea	0.24920622
9	0x3d9c5c46	0.07634787
10	0xbb2ef84a	-0.0026698285
11	0xbe55ab09	-0.20866026
12	0xbe9ca1ba	-0.30592138
13	0x3f211230	0.62918377
14	0xbe78818b	-0.24268167
15	0xbf3dfebf	-0.74216837
16	0x3e971270	0.29506254
17	0x3e346444	0.17616373
18	0x3ee72b53	0.4515024
19	0xbee3c75a	-0.4448803
20	0x3ea97ad5	0.33101526
21	0xbe1f6573	-0.15566044
22	0xbe417977	-0.18893991
23	0x3dc625a0	0.09675145
24	0x3f0b2a29	0.54361206
25	0x3e2a4aeb	0.16630141
26	0x3ebb75be	0.36613268
27	0xbf2782de	-0.6543406
28	0xbe42b935	-0.19015963
29	0xbeba157c	-0.36344516
30	0x3ec5419e	0.38526624
31	0xbed890ad	-0.4229788
32	0x3e181225	0.14850672
33	0x3d814618	0.063121974
34	0x3e9faf65	0.31188503
35	0x3ecd793a	0.4013155
36	0x3e98b532	0.2982574
37	0x3f08d1fe	0.5344542
38	0xbe58343e	-0.21113679
39	0xbe37c6bf	-0.1794691
40	0x3da1b890	0.07896531
41	0x3dba5013	0.09097304
42	0xbf32a81f	-0.6978778
43	0xbe6a7261	-0.22895195
44	0xbeab82cf	-0.33498237
45	0xbf5f505f	-0.8723201
46	0xbdb0e9e4	-0.08638361
47	0xbeba55c5	-0.36393562
48	0xbe97292c	-0.295236
49	0x3f1bca2d	0.6085537
50	0xbd10d709	-0.035361324
51	0xbf15d548	-0.58528566
52	0x3ec5b503	0.38614663
53	0x3ed177c7	0.40911695
54	0xbda07931	-0.078356154
55	0xbe0bd535	-0.13655551
56	0xbe2486c6	-0.16067037
57	0x3dab065d	0.08350823
58	0x3df85359	0.12125272
59	0x3d69b0f8	0.057053536
60	0xbdf65b91	-0.12029184
61	0xbe069186	-0.1314145
62	0x3ed46fda	0.41491586
63	0xbe2b7765	-0.16744764

bn3.running_var f4 [64]
0	0x3e64b371	0.22334076
1	0x3e1834e6	0.14863929
2	0x3e3aa8f4	0.18228513
3	0x3e184e2d	0.14873572
4	0x3e33de1b	0.17565195
5	0x3e5472c4	0.20746905
6	0x3eaf2bbb	0.3421305
7	0x3e578259	0.21045817
8	0x3e27d9fe	0.16391751
9	0x3e615c85	0.2200795
10	0x3e0eded8	0.13952196
11	0x3e27f55f	0.16402195
12	0x3f1098ff	0.56483454
13	0x3e824ae1	0.25447753
14	0x3e03f5cb	0.12886731
15	0x3e91c93e	0.28473848
16	0x3ea395d1	0.31950238
17	0x3dd40976	0.10353367
18	0x3e41aad5	0.18912823
19	0x3e1d179e	0.1534104
20	0x3dfd5851	0.12370361
21	0x3e0931ac	0.13397855
22	0x3e24a9ce	0.160804
23	0x3e2217a6	0.15829334
24	0x3eb2e0c6	0.34937114
25	0x3e24097c	0.16019243
26	0x3e3af553	0.18257646
27	0x3eddd4ce	0.4332642
28	0x3e614602	0.21999362
29	0x3e90ca99	0.2827957
30	0x3e94a36a	0.29030925
31	0x3e4b202b	0.1983649
32	0x3e25f582	0.16206935
33	0x3e1f3b7b	0.15550034
34	0x3e4c148c	0.19929713
35	0x3e8246de	0.25444692
36	0x3e16cded	0.14726992
37	0x3eaf4baa	0.34237415
38	0x3e2e8ea2	0.17046598
39	0x3e1a8c35	0.15092547
40	0x3e09b2a7	0.13447057
41	0x3e40d333	0.18830566
42	0x3f2c68a5	0.67347175
43	0x3e91cac0	0.28474998
44	0x3e2c566e	0.16829845
45	0x3e914512	0.2837301
46	0x3e53e2fd	0.20692058
47	0x3e3a5099	0.18194808
48	0x3e112526	0.14174327
49	0x3ec14795	0.37749925
50	0x3e2ae203	0.16687779
51	0x3f0ffdf2	0.56246865
52	0x3e949372	0.29018742
53	0x3ef7ad7b	0.48374543
54	0x3e2585f5	0.16164382
55	0x3dd27b98	0.1027748
56	0x3e2cf029	0.16888489
57	0x3dbaf0b1	0.091279395
58	0x3df28cb9	0.11843247
59	0x3e696fa5	0.22796495
60	0x3e6378ec	0.22214097
61	0x3e392e8e	0.18084165
62	0x3e72683a	0.23672572
63	0x3e1dde2c	0.15416783

bn4.weight f4 [64]
0	0x3f81f985	1.0154272
1	0x3f7ccefc	0.98753333
2	0x3f7eb3ab	0.994929
3	0x3f6b313c	0.91872
4	0x3f67e259	0.90579754
5	0x3f7c8d51	0.9865313
6	0x3f7b0578	0.9805522
7	0x3f73b69b	0.9520051
8	0x3f7facd9	0.9987312
9	0x3f81b3d8	1.0133009
10	0x3f6899eb	0.9085986
11	0x3f7ddca2	0.99164784
12	0x3f84be71	1.0370618
13	0x3f700b8e	0.9376763
14	0x3f65a93c	0.89711356
15	0x3f7c2643	0.9849588
16	0x3f868f06	1.0512397
17	0x3f7d3886	0.9891437
18	0x3f72308b	0.9460532
19	0x3f782bf5	0.96942073
20	0x3f74849a	0.95514834
21	0x3f81cac6	1.0140007
22	0x3f71c7c2	0.9444543
23	0x3f7e321d	0.99295217
24	0x3f7a38b7	0.9774279
25	0x3f7d2d97	0.9889769
26	0x3f7ea8f3	0.99476546
27	0x3f75a6e8	0.95957804
28	0x3f7c8018	0.98632956
29	0x3f798496	0.97467935
30	0x3f835b0f	1.0262164
31	0x3f85f2f7	1.0464772
32	0x3f6c835b	0.9238793
33	0x3f6751d2	0.9035922
34	0x3f6e3374	0.9304726
35	0x3f70abb7	0.94012016
36	0x3f76eefc	0.9645841
37	0x3f7b450b	0.98152226
38	0x3f51ac6f	0.8190374
39	0x3f7d3bef	0.98919576
40	0x3f6748e8	0.9034562
41	0x3f787397	0.97051376
42	0x3f57b758	0.84264135
43	0x3f741562	0.9534513
44	0x3f7cc61e	0.987398
45	0x3f634b63	0.88786906
46	0x3f73a235	0.95169383
47	0x3f7fea71	0.99967104
48	0x3f7bf8b6	0.9842638
49	0x3f6d592b	0.92714185
50	0x3f768797	0.96300644
51	0x3f8126de	1.0089986
52	0x3f7e7e81	0.9941178
53	0x3f811208	1.0083628
54	0x3f8090ce	1.0044191
55	0x3f7dc8ea	0.99134696
56	0x3f813ea3	1.009724
57	0x3f7ce0b6	0.9878038
58	0x3f6cbd0f	0.9247598
59	0x3f7256df	0.94663805
60	0x3f7e2c21	0.99286085
61	0x3f86144a	1.0474942
62	0x3f70c4c2	0.9405023
63	0x3f7eb4db	0.99494714

bn4.bias f4 [64]
0	0x3bbab8f4	0.0056983177
1	0x3c0cf5b4	0.008603502
2	0x3ce303b9	0.027711736
3	0xbce161a6	-0.027512383
4	0xbcba5ff6	-0.022750836
5	0x3d182e5f	0.037153598
6	0xbbdd391d	-0.006751193
7	0x3d2fb5eb	0.0428981
8	0x3b1f0309	0.0024263284
9	0x3cb70dfe	0.02234554
10	0xbbb46d36	-0.005506183
11	0x3a5facf9	0.000853255
12	0x3d0349ed	0.032052923
13	0x3c1b0f29	0.009464064
14	0xbcf23b47	-0.029569281
15	0xb9b71007	-0.0003491642
16	0x3ca2c49f	0.019869147
17	0x3d025a46	0.031824373
18	0x3d28f4f7	0.04124924
19	0xbce87410	-0.028375655
20	0xbab3295e	-0.0013668945
21	0x3c9e3779	0.01931356
22	0xbc935c34	-0.017988302
23	0x3c65a33a	0.014015967
24	0xba4d308a	-0.0007827362
25	0x3cc44f38	0.023963556
26	0xbcb8ec3f	-0.022573588
27	0x3ca153f9	0.019693362
28	0xbcc71ec2	-0.024306659
29	0x3a5830fc	0.00082470453
30	0xbce9607d	-0.028488392
31	0x3cd2f100	0.025749683
32	0xbc6b9b0c	-0.014380228
33	0xbcbe053d	-0.023195857
34	0xbbf2caa1	-0.007409409
35	0xbd118134	-0.03552361
36	0x3be32fc9	0.0069331867
37	0x39ef60db	0.00045657795
38	0x3caeef05	0.021354208
39	0x3b73cf90	0.0037202574
40	0x3b583a33	0.0032993674
41	0x3bfc830f	0.007706053
42	0xbbc58653	-0.0060279756
43	0xbd1ea9d8	-0.038736194
44	0x3c40f83f	0.0117779365
45	0x3bab8e0f	0.0052354406
46	0xbcb0a599	-0.021563338
47	0x3c9af283	0.018914467
48	0xbcf42dbb	-0.029806962
49	0x3c0c4c9e	0.008563189
50	0xbd039944	-0.032128587
51	0x3c72988d	0.014806879
52	0x3d301f61	0.042998675
53	0x3bd71f46	0.0065650074
54	0x3ca735ee	0.020411458
55	0x3aa822cc	0.0012827753
56	0x3d4120fc	0.047150597
57	0x3cf786c1	0.030215623
58	0xbcf98ed6	-0.030463617
59	0xbce95fac	-0.028488003
60	0x3c265816	0.010152837
61	0xbc60521e	-0.013691453
62	0x3bfee6e1	0.0077789878
63	0xbd1d73a9	-0.03844038

bn4.running_mean f4 [64]
0	0xbe31e272	-0.17371538
1	0xbeb0a3f8	-0.34500098
2	0x3e35a35e	0.17738101
3	0xbee860f2	-0.45386463
4	0x3d4237da	0.047416545
5	0xbdea64a1	-0.11444975
6	0x3ead3041	0.33825877
7	0x3d1ceb18	0.03831014
8	0x3dcb5bf4	0.09929648
9	0xb9ba03ea	-0.000354796
10	0xbd0383c0	-0.03210807
11	0x3e6e9687	0.23299609
12	0x3e15417d	0.14575763
13	0x3e0854a6	0.13313541
14	0x3e81ee49	0.2537711
15	0xbd5cf718	-0.053946584
16	0xbeb5ad0f	-0.35483596
17	0x3e58993d	0.21152206
18	0xbec08c4d	-0.3760704
19	0xbd1b71c7	-0.037950303
20	0x3ca532ce	0.020165827
21	0x3e0b5db3	0.13609962
22	0x3ea8b83b	0.32953057
23	0x3e8afcc4	0.2714597
24	0x3e9eab13	0.30989894
25	0x3d0b3c95	0.033993322
26	0xbe841c00	-0.25802612
27	0xbdc51e0d	-0.09624872
28	0x3d7ad648	0.06123951
29	0x3e96ff5d	0.29491702
30	0x3e6f7c83	0.23387341
31	0xbe0d1f7d	-0.13781543
32	0xbf2fb703	-0.6863863
33	0xbd9b468f	-0.07581817
34	0x3db9f578	0.090800226
35	0x3e92636b	0.28591475
36	0xbd4779b3	-0.048700046
37	0x3e219915	0.15781052
38	0xbea32c54	-0.31869757
39	0x3d6b6356	0.05746778
40	0x3e729de5	0.23693044
41	0x3eaf1915	0.34198824
42	0xbe8906a2	-0.26762873
43	0xbd95a6db	-0.07307216
44	0x3d8240ed	0.0636004
45	0xbe848934	-0.25885928
46	0x3cf6dce6	0.03013463
47	0xbe008332	-0.12550047
48	0x3db4d2d4	0.08829275
49	0x3eb175eb	0.34660277
50	0x3ea2b0e6	0.31775588
51	0xbe5d4136	-0.21606907
52	0x3dbb9494	0.091591984
53	0x3ecaf4e2	0.39639956
54	0x3e91fdcd	0.28513947
55	0x3ea9aef8	0.33141303
56	0x3c51971f	0.012792378
57	0xbdecfbf9	-0.115714975
58	0x3dec56ec	0.115400165
59	0x3d844e5f	0.064602606
60	0x3e0813e2	0.13288835
61	0xbf1abfc5	-0.6044887
62	0x3eff8726	0.49907798
63	0x3e32fe33	0.17479782

bn4.running_var f4 [64]
0	0x3e6388e0	0.22220182
1	0x3e8a75eb	0.2704309
2	0x3e030d08	0.1279794
3	0x3e9283dc	0.28616226
4	0x3db6d99e	0.08928226
5	0x3e15ac14	0.14616424
6	0x3e1875d7	0.14888702
7	0x3e06d6b5	0.13167842
8	0x3e22cc0a	0.15898147
9	0x3e2423e1	0.16029312
10	0x3e2d24a1	0.16908504
11	0x3de5c909	0.11219985
12	0x3e199479	0.14998044
13	0x3e0c20c7	0.13684379
14	0x3e649de8	0.22325861
15	0x3df59403	0.119911216
16	0x3e2f832c	0.17139882
17	0x3e07e4bb	0.13270847
18	0x3e4ab797	0.19796596
19	0x3e35264d	0.17690392
20	0x3e20283d	0.1564035
21	0x3e012cfa	0.12614813
22	0x3e498abc	0.19681829
23	0x3de95448	0.113930285
24	0x3e4cfdc1	0.20018674
25	0x3e0fa6fd	0.14028545
26	0x3f0c4035	0.5478547
27	0x3e2ba364	0.16761547
28	0x3de5efbf	0.112273686
29	0x3e538cd5	0.20659192
30	0x3de82f12	0.11337103
31	0x3e2f6f35	0.17132266
32	0x3f10e6be	0.56602085
33	0x3e1f17d0	0.15536427
34	0x3e4744da	0.19459859
35	0x3df98e25	0.12185315
36	0x3e62e604	0.22158056
37	0x3e267a76	0.16257653
38	0x3e5a9b0f	0.21348213
39	0x3e0d0e9a	0.13775101
40	0x3e39d488	0.1814748
41	0x3df4439a	0.119269565
42	0x3e4ab461	0.19795372
43	0x3df57e53	0.11986985
44	0x3e03baeb	0.12864272
45	0x3e0e23b2	0.13880804
46	0x3e0ac1df	0.13550518
47	0x3dfe94c3	0.12430718
48	0x3e04c2fc	0.12965006
49	0x3e5ddb77	0.2166575
50	0x3e18ef66	0.14935073
51	0x3ea4ffe4	0.3222648
52	0x3dfd64af	0.123727195
53	0x3e15b858	0.14621103
54	0x3e04679f	0.12930153
55	0x3e10114a	0.14069095
56	0x3dd86b66	0.105673596
57	0x3dd4320d	0.10361109
58	0x3e234f92	0.15948322
59	0x3e0e772e	0.13912651
60	0x3e26d511	0.16292216
61	0x3f0b71e5	0.54470664
62	0x3e5e3b20	0.21702242
63	0x3e0c07d9	0.13674869

bn5.weight f4 [64]
0	0x3f800000	1.0
1	0x3f800000	1.0
2	0x3f800000	1.0
3	0x3f800000	1.0
4	0x3f800000	1.0
5	0x3f800000	1.0
6	0x3f800000	1.0
7	0x3f800000	1.0
8	0x3f800000	1.0
9	0x3f800000	1.0
10	0x3f800000	1.0
11	0x3f800000	1.0
12	0x3f800000	1.0
13	0x3f800000	1.0
14	0x3f800000	1.0
15	0x3f800000	1.0
16	0x3f800000	1.0
17	0x3f800000	1.0
18	0x3f800000	1.0
19	0x3f800000	1.0
20	0x3f800000	1.0
21	0x3f800000	1.0
22	0x3f800000	1.0
23	0x3f800000	1.0
24	0x3f800000	1.0
25	0x3f800000	1.0
26	0x3f800000	1.0
27	0x3f800000	1.0
28	0x3f800000	1.0
29	0x3f800000	1.0
30	0x3f800000	1.0
31	0x3f800000	1.0
32	0x3f800000	1.0
33	0x3f800000	1.0
34	0x3f800000	1.0
35	0x3f800000	1.0
36	0x3f800000	1.0
37	0x3f800000	1.0
38	0x3f800000	1.0
39	0x3f800000	1.0
40	0x3f800000	1.0
41	0x3f800000	1.0
42	0x3f800000	1.0
43	0x3f800000	1.0
44	0x3f800000	1.0
45	0x3f800000	1.0
46	0x3f800000	1.0
47	0x3f800000	1.0
48	0x3f800000	1.0
49	0x3f800000	1.0
50	0x3f800000	1.0
51	0x3f800000	1.0
52	0x3f800000	1.0
53	0x3f800000	1.0
54	0x3f800000	1.0
55	0x3f800000	1.0
56	0x3f800000	1.0
57	0x3f800000	1.0
58	0x3f800000	1.0
59	0x3f800000	1.0
60	0x3f800000	1.0
61	0x3f800000	1.0
62	0x3f800000	1.0
63	0x3f800000	1.0

bn5.bias f4 [64]
0	0x00000000	0.0
1	0x00000000	0.0
2	0x00000000	0.0
3	0x00000000	0.0
4	0x00000000	0.0
5	0x00000000	0.0
6	0x00000000	0.0
7	0x00000000	0.0
8	0x00000000	0.0
9	0x00000000	0.0
10	0x00000000	0.0
11	0x00000000	0.0
12	0x00000000	0.0
13	0x00000000	0.0
14	0x00000000	0.0
15	0x00000000	0.0
16	0x00000000	0.0
17	0x00000000	0.0
18	0x00000000	0.0
19	0x00000000	0.0
20	0x00000000	0.0
21	0x00000000	0.0
22	0x00000000	0.0
23	0x00000000	0.0
24	0x00000000	0.0
25	0x00000000	0.0
26	0x00000000	0.0
27	0x00000000	0.0
28	0x00000000	0.0
29	0x00000000	0.0
30	0x00000000	0.0
31	0x00000000	0.0
32	0x00000000	0.0
33	0x00000000	0.0
34	0x00000000	0.0
35	0x00000000	0.0
36	0x00000000	0.0
37	0x00000000	0.0
38	0x00000000	0.0
39	0x00000000	0.0
40	0x00000000	0.0
41	0x00000000	0.0
42	0x00000000	0.0
43	0x00000000	0.0
44	0x00000000	0.0
45	0x00000000	0.0
46	0x00000000	0.0
47	0x00000000	0.0
48	0x00000000	0.0
49	0x00000000	0.0
50	0x00000000	0.0
51	0x00000000	0.0
52	0x00000000	0.0
53	0x00000000	0.0
54	0x00000000	0.0
55	0x00000000	0.0
56	0x00000000	0.0
57	0x00000000	0.0
58	0x00000000	0.0
59	0x00000000	0.0
60	0x00000000	0.0
61	0x00000000	0.0
62	0x00000000	0.0
63	0x00000000	0.0

bn5.running_mean f4 [64]
0	0x00000000	0.0
1	0x00000000	0.0
2	0x00000000	0.0
3	0x00000000	0.0
4	0x00000000	0.0
5	0x00000000	0.0
6	0x00000000	0.0
7	0x00000000	0.0
8	0x00000000	0.0
9	0x00000000	0.0
10	0x00000000	0.0
11	0x00000000	0.0
12	0x00000000	0.0
13	0x00000000	0.0
14	0x00000000	0.0
15	0x00000000	0.0
16	0x00000000	0.0
17	0x00000000	0.0
18	0x00000000	0.0
19	0x00000000	0.0
20	0x00000000	0.0
21	0x00000000	0.0
22	0x00000000	0.0
23	0x00000000	0.0
24	0x00000000	0.0
25	0x00000000	0.0
26	0x00000000	0.0
27	0x00000000	0.0
28	0x00000000	0.0
29	0x00000000	0.0
30	0x00000000	0.0
31	0x00000000	0.0
32	0x00000000	0.0
33	0x00000000	0.0
34	0x00000000	0.0
35	0x00000000	0.0
36	0x00000000	0.0
37	0x00000000	0.0
38	0x00000000	0.0
39	0x00000000	0.0
40	0x00000000	0.0
41	0x00000000	0.0
42	0x00000000	0.0
43	0x00000000	0.0
44	0x00000000	0.0
45	0x00000000	0.0
46	0x00000000	0.0
47	0x00000000	0.0
48	0x00000000	0.0
49	0x00000000	0.0
50	0x00000000	0.0
51	0x00000000	0.0
52	0x00000000	0.0
53	0x00000000	0.0
54	0x00000000	0.0
55	0x00000000	0.0
56	0x00000000	0.0
57	0x00000000	0.0
58	0x00000000	0.0
59	0x00000000	0.0
60	0x00000000	0.0
61	0x00000000	0.0
62	0x00000000	0.0
63	0x00000000	0.0

bn5.running_var f4 [64]
0	0x3f800000	1.0
1	0x3f800000	1.0
2	0x3f800000	1.0
3	0x3f800000	1.0
4	0x3f800000	1.0
5	0x3f800000	1.0
6	0x3f800000	1.0
7	0x3f800000	1.0
8	0x3f800000	1.0
9	0x3f800000	1.0
10	0x3f800000	1.0
11	0x3f800000	1.0
12	0x3f800000	1.0
13	0x3f800000	1.0
14	0x3f800000	1.0
15	0x3f800000	1.0
16	0x3f800000	1.0
17	0x3f800000	1.0
18	0x3f800000	1.0
19	0x3f800000	1.0
20	0x3f800000	1.0
21	0x3f800000	1.0
22	0x3f800000	1.0
23	0x3f800000	1.0
24	0x3f800000	1.0
25	0x3f800000	1.0
26	0x3f800000	1.0
27	0x3f800000	1.0
28	0x3f800000	1.0
29	0x3f800000	1.0
30	0x3f800000	1.0
31	0x3f800000	1.0
32	0x3f800000	1.0
33	0x3f800000	1.0
34	0x3f800000	1.0
35	0x3f800000	1.0
36	0x3f800000	1.0
37	0x3f800000	1.0
38	0x3f800000	1.0
39	0x3f800000	1.0
40	0x3f800000	1.0
41	0x3f800000	1.0
42	0x3f800000	1.0
43	0x3f800000	1.0
44	0x3f800000	1.0
45	0x3f800000	1.0
46	0x3f800000	1.0
47	0x3f800000	1.0
48	0x3f800000	1.0
49	0x3f800000	1.0
50	0x3f800000	1.0
51	0x3f800000	1.0
52	0x3f800000	1.0
53	0x3f800000	1.0
54	0x3f800000	1.0
55	0x3f800000	1.0
56	0x3f800000	1.0
57	0x3f800000	1.0
58	0x3f800000	1.0
59	0x3f800000	1.0
60	0x3f800000	1.0
61	0x3f800000	1.0
62	0x3f800000	1.0
63	0x3f800000	1.0

conv1.0.weight f4 [64, 6, 1, 1]
0	0xbd0a9205	-0.03383066
1	0xbeb405fe	-0.35160822
2	0xbe5a089c	-0.21292347
3	0x3e5b5032	0.21417311
4	0xbdcb9c35	-0.099419035
5	0xbe833531	-0.2562652
6	0x3e04349e	0.12910697
7	0x3defb6aa	0.11704762
8	0x3ee2357f	0.4418144
9	0xbceffef6	-0.02929638
10	0x3d76ee55	0.060285885
11	0x3c14e213	0.009087103
12	0x3d54e0bd	0.05197214
13	0x3e48e4ea	0.19618574
14	0xbe185cd7	-0.14879166
15	0x3e965d61	0.29368117
16	0xbe42897c	-0.18997759
17	0xbe442567	-0.19154893
18	0x3c54e4a2	0.012993963
19	0xbbf5101a	-0.007478726
20	0xbb353c1c	-0.0027654236
21	0xbe1329ec	-0.1437146
22	0x3e876035	0.26440588
23	0xbd28cb15	-0.0412093
24	0xbe2dd8c0	-0.16977215
25	0x3ed3b76a	0.4135087
26	0x3e579e76	0.21056542
27	0x3e96508c	0.29358327
28	0xbe93896d	-0.28815785
29	0x3e10df03	0.14147572
30	0x3b0fb31e	0.002192683
31	0xbddbdbd9	-0.10735292
32	0xbcb60bcf	-0.022222428
33	0xbe9a15c2	-0.30094725
34	0x3d859ef3	0.06524458
35	0xbe8ff7eb	-0.28118834
36	0x3da21973	0.0791501
37	0xbe895d34	-0.2682892
38	0xbe86c320	-0.26320744
39	0x3e9c14e2	0.30484682
40	0xbe809692	-0.25114876
41	0xbe6122ab	-0.21985881
42	0x3cf5268b	0.029925605
43	0x3d4e9c18	0.05044183
44	0xbe416328	-0.18885481
45	0xbd9bd4c3	-0.076089405
46	0xbe90ef16	-0.28307408
47	0xbe505d62	-0.20348123
48	0xbec5f8f1	-0.3866649
49	0x3e6088ac	0.21927136
50	0xbdcb1036	-0.09915201
51	0x3dde5ae3	0.10857179
52	0x3e936439	0.287874
53	0xbb907693	-0.0044086664
54	0x3e0babdc	0.13639778
55	0xbde7d60c	-0.11320123
56	0x3e4ea20d	0.20179005
57	0xbe6be7ab	-0.23037593
58	0xbe7d0947	-0.2471057
59	0xbeb11aef	-0.3459086
60	0xbea753f7	-0.32681248
61	0xbe7ce58f	-0.24696945
62	0xbe1afa33	-0.15134506
63	0x3cd99bcf	0.026563553
64	0xbeada15a	-0.33912164
65	0x3e8cd0bf	0.2750301
66	0xbdf979a3	-0.121814035
67	0xbc8a4128	-0.016876772
68	0xbe75d493	-0.24006872
69	0x3ededb81	0.43526843
70	0xbeb4499f	-0.35212418
71	0xbb0c8971	-0.0021444226
72	0x3d725e2c	0.05917184
73	0xbdf544fd	-0.11976049
74	0x3ed252d0	0.41078806
75	0xbe878171	-0.26465943
76	0xbe6b65c3	-0.22988038
77	0xbd9edaaf	-0.07756554
78	0x3e04835f	0.12940739
79	0x3de33eef	0.11095988
80	0x3e39538a	0.18098274
81	0x3e8062d1	0.2507539
82	0x3e619e63	0.22033076
83	0x3e55cb0c	0.20878237
84	0x3ea6e4be	0.3259639
85	0xbe6d5ca8	-0.23179877
86	0x3e4a62cc	0.1976425
87	0xbdd7dfdb	-0.10540744
88	0x3ec08792	0.37603432
89	0xbe55e420	-0.20887804
90	0x3d40dc5d	0.047085155
91	0x3d2f3099	0.042770956
92	0x3e89757f	0.26847455
93	0x3cd4e85a	0.0259897
94	0xbe357c72	-0.17723253
95	0x3e1e62cb	0.15467374
96	0xbeba0ced	-0.36337987
97	0xbc6ac295	-0.0143286185
98	0x3e9c87ba	0.305723
99	0x3e72720f	0.23676322
100	0x3e2b92ad	0.16755171
101	0xbe8da27a	-0.27663022
102	0xbd708e59	-0.058729503
103	0x3d7edddc	0.0622233
104	0x3e135b22	0.14390233
105	0xbc823bcc	-0.015897654
106	0x3e096937	0.13419043
107	0xbdb0961a	-0.086223796
108	0xbb96e0ba	-0.004604426
109	0xbdf0db07	-0.11760526
110	0xbc9ebac0	-0.019376159
111	0xbeaf9388	-0.34292245
112	0x3e953ec5	0.29149452
113	0xbd865578	-0.065592706
114	0xbe23b966	-0.15988693
115	0xbd12093b	-0.035653334
116	0x3e03fef8	0.12890232
117	0x3e86706d	0.2625765
118	0x3e26ea85	0.163004
119	0xbe12a357	-0.14320122
120	0x3ed078a6	0.40717047
121	0xbcc6e2e6	-0.024278115
122	0x3e975c9c	0.29562843
123	0x3e9a8759	0.30181387
124	0xbde9edba	-0.11422296
125	0xbd9fa65f	-0.07795405
126	0xbda855a0	-0.08219457
127	0xbeb4b088	-0.35290933
128	0xbe2013e4	-0.15632588
129	0xbe0daac0	-0.13834667
130	0xbd3f8cd4	-0.046765164
131	0xbe90c51e	-0.28275388
132	0x3b41a038	0.002954496
133	0x3c2ae32c	0.010430139
134	0xbe343f38	-0.17602241
135	0xbe459444	-0.1929484
136	0xbe71b94a	-0.23605838
137	0x3eb41dbe	0.3517894
138	0x3e5be14c	0.21472663
139	0x3dac3311	0.08408178
140	0xbdd6ac26	-0.104820535
141	0x3e3d7f43	0.18505578
142	0xbdcf3501	-0.101175316
143	0xbddea1bf	-0.10870694
144	0x3e663e0c	0.22484607
145	0xbea8234a	-0.32839423
146	0xbdddeaa7	-0.10835772
147	0xbeb0541c	-0.3443917
148	0xbec723cb	-0.38894495
149	0x3cac392c	0.021023355
150	0x3eaf43e2	0.34231478
151	0x3e0fc928	0.14041579
152	0xbdcf33ea	-0.10117324
153	0xbe25fdaa	-0.16210046
154	0x3dd39909	0.103319235
155	0x3e7f17fd	0.24911495
156	0xbe111801	-0.14169313
157	0xbeb74136	-0.3579194
158	0x3e357ccc	0.17723387
159	0xbeaa4f59	-0.33263662
160	0xbecb72e5	-0.39736095
161	0x3e38920d	0.18024464
162	0xbee57035	-0.4481217
163	0xbdfd4a8f	-0.123677365
164	0xbe596d2e	-0.21233055
165	0x3911eba3	0.00013916059
166	0xbd9d50cf	-0.07681429
167	0x3dfb77e1	0.122787245
168	0xbe543e89	-0.2072698
169	0xbeea89ac	-0.4580816
170	0xbe317b32	-0.17332152
171	0xbe885f0f	-0.26635024
172	0x3dcb6327	0.09931021
173	0xbdd8712f	-0.10568463
174	0x3e61f26a	0.2206513
175	0x3c915505	0.017740736
176	0x3e993dd0	0.29929972
177	0x3ea0e919	0.3142784
178	0x3e6cbc03	0.23118596
179	0x3c95573d	0.018230075
180	0x3eb16041	0.34643748
181	0x3ed0e5ba	0.40800267
182	0x3dd4feea	0.104001835
183	0xbd2a9321	-0.04164422
184	0xbe48e37e	-0.19618031
185	0xbda601a7	-0.08105784
186	0xbeb15001	-0.3463135
187	0x3e33503e	0.17511079
188	0x3d7f277f	0.062293526
189	0xbeb1258c	-0.34598958
190	0x3e94af51	0.29040006
191	0x3eb3d7b6	0.35125512
192	0x3d54c425	0.05194487
193	0xbdd4d765	-0.10392646
194	0x3d1ca870	0.038246572
195	0x3c96ff28	0.018432215
196	0xbed11a28	-0.40840268
197	0xbe277c04	-0.16355902
198	0xbef94871	-0.4868808
199	0x3e764d5b	0.24052946
200	0xbe4f8557	-0.20265709
201	0xbea9dd07	-0.33176443
202	0x3e2e40ea	0.1701695
203	0xbd8af3cf	-0.06784784
204	0xbeacb20d	-0.33729592
205	0xbe470f95	-0.19439538
206	0xbe3d04ae	-0.18458816
207	0xbe3f4b59	-0.18681087
208	0xbed13526	-0.40860862
209	0xbec1ea87	-0.37874243
210	0xbd7b9787	-0.061423805
211	0x3ebabb21	0.36470893
212	0xbe758c1a	-0.23979226
213	0xbe93d875	-0.2887608
214	0x3ec38c3a	0.38192922
215	0xbea64673	-0.32475623
216	0xbd28cfee	-0.041213922
217	0x3e127e22	0.14305928
218	0x3ea009d3	0.31257495
219	0xbe82c879	-0.25543573
220	0x3e8338b3	0.25629196
221	0x3e349662	0.17635491
222	0xbdd0e778	-0.10200399
223	0xbd246e7b	-0.040144425
224	0xbc320e14	-0.010867614
225	0x3db91051	0.09036315
226	0x3e74175b	0.23837034
227	0xbd571474	-0.05250974
228	0xbcf8b1e8	-0.03035827
229	0xbd094f69	-0.033522997
230	0xbe141418	-0.1446079
231	0x3eaf0925	0.34186664
232	0x3ea28054	0.31738532
233	0x3eb742c6	0.35793132
234	0x3dd34198	0.103152454
235	0xbe9f090b	-0.31061587
236	0xbe36e94c	-0.17862433
237	0x3d09af08	0.03361419
238	0x3ec6d606	0.38835162
239	0xbd3338b1	-0.043755237
240	0xbe8e127c	-0.27748477
241	0xbeadb2a4	-0.33925354
242	0x3e081bb0	0.13291812
243	0x3e909cd4	0.2824465
244	0xbd923aee	-0.07140146
245	0x3e03209c	0.12805408
246	0xbe16fd60	-0.14745092
247	0xbda04c95	-0.07827107
248	0xbd858cbe	-0.06520985
249	0xbe417fbd	-0.18896385
250	0xbecfc17d	-0.40577307
251	0x3d3470d3	0.04405291
252	0xbe3a6f29	-0.18206467
253	0x3e46d704	0.1941796
254	0x3e85d9b2	0.2614265
255	0xbea51eb8	-0.3225

conv1.1.weight f4 [64]
0	0x3f802180	1.0010223
1	0x3f7a6e27	0.9782433
2	0x3f7f93d7	0.9983496
3	0x3f805b54	1.0027871
4	0x3f71bb52	0.94426453
5	0x3f7afa06	0.98037755
6	0x3f80ec43	1.0072101
7	0x3f7e743d	0.99396116
8	0x3f7822e8	0.9692826
9	0x3f7b82c3	0.982464
10	0x3f75718e	0.95876396
11	0x3f803236	1.0015323
12	0x3f8057a2	1.0026743
13	0x3f76aae3	0.963545
14	0x3f800eb9	1.0004493
15	0x3f7e8b1e	0.99431026
16	0x3f82d8d7	1.0222424
17	0x3f7b918a	0.9826895
18	0x3f813a32	1.0095885
19	0x3f821aab	1.0164388
20	0x3f80ea93	1.0071586
21	0x3f764a70	0.9620733
22	0x3f7c8b0d	0.98649675
23	0x3f8181ae	1.01177
24	0x3f7f0e3b	0.9963109
25	0x3f797173	0.97438735
26	0x3f7ec490	0.9951868
27	0x3f7676c7	0.9627499
28	0x3f7cd018	0.98755026
29	0x3f747e06	0.95504797
30	0x3f812342	1.0088885
31	0x3f73738a	0.95098174
32	0x3f8025d5	1.0011545
33	0x3f8550fc	1.041534
34	0x3f7bde45	0.9838603
35	0x3f83abec	1.0286841
36	0x3f7805c1	0.9688378
37	0x3f7e2d70	0.9928808
38	0x3f7cd221	0.9875813
39	0x3f7ae84a	0.98010695
40	0x3f7b9c6d	0.9828556
41	0x3f75352c	0.9578426
42	0x3f806e58	1.0033674
43	0x3f7e8d7c	0.9943464
44	0x3f77f51e	0.96858394
45	0x3f786f16	0.97044504
46	0x3f79cafc	0.97575355
47	0x3f79fc8c	0.9765098
48	0x3f7f1e8c	0.99655986
49	0x3f79e2f6	0.9761194
50	0x3f7c8623	0.98642176
51	0x3f81d7af	1.0143946
52	0x3f82d049	1.0219814
53	0x3f7daf9d	0.9909609
54	0x3f791bb8	0.9730792
55	0x3f790c1d	0.9728411
56	0x3f7752ee	0.96610916
57	0x3f7fca3d	0.99917966
58	0x3f7bfb4a	0.9843031
59	0x3f7f1060	0.9963436
60	0x3f817f42	1.0116961
61	0x3f78f7fe	0.97253406
62	0x3f800266	1.0000732
63	0x3f82e153	1.0225013

conv1.1.bias f4 [64]
0	0xbc5cc2fd	-0.013474223
1	0x3d9adc32	0.0756153
2	0xbd267051	-0.040634457
3	0xbcccb962	-0.024990741
4	0x3d0fb15e	0.03508126
5	0xbd9dc4e0	-0.077035666
6	0xbc93ba20	-0.018033087
7	0x3c0cf19d	0.008602527
8	0xbc3f1caf	-0.011664554
9	0xbd3f53a2	-0.046710618
10	0xbbf365e3	-0.0074279173
11	0x3cbc1215	0.022957841
12	0x3d02dd30	0.031949222
13	0xbc955cdb	-0.018232754
14	0xbd303c2f	-0.043026146
15	0x3aeedb46	0.0018223308
16	0xbd9c4921	-0.07631136
17	0xbca61b9a	-0.020276833
18	0xbcd60572	-0.026125643
19	0xbb90bb9d	-0.0044168965
20	0x3cbe02f1	0.023194762
21	0xbd2960bc	-0.04135202
22	0xbc4e2247	-0.012581415
23	0x3cc44edb	0.023963382
24	0x3cb9583d	0.022625083
25	0x3c61ee86	0.013789779
26	0x3d22ac9d	0.039715398
27	0x3c518372	0.012787687
28	0x3be1b404	0.0068879146
29	0x3caccc29	0.021093445
30	0x3b8212f9	0.003969547
31	0xbd512074	-0.05105634
32	0xbcfb608b	-0.030685684
33	0xbc98018a	-0.018555421
34	0xbd660da9	-0.05616537
35	0x3c8059a2	0.01566774
36	0x3d2df873	0.042473268
37	0x3ac439c5	0.001497083
38	0xbc81c391	-0.015840324
39	0xbd2770b9	-0.040878985
40	0x3d219b44	0.039454713
41	0x3bdc5fd3	0.0067252903
42	0x3c25f67f	0.01012957
43	0x3d929dc0	0.07158995
44	0x3b9b3bf3	0.004737371
45	0x3cf9483d	0.030429954
46	0xbd026467	-0.031834032
47	0xbb8d54c2	-0.0043130824
48	0xbc246781	-0.010034443
49	0x3c2d8843	0.010591569
50	0xbd36cd53	-0.044629406
51	0xbac2f9d6	-0.0014875482
52	0x3d155b75	0.036464173
53	0xbcc58172	-0.024109576
54	0x3b9dbf07	0.004814032
55	0x3b7c8308	0.003853025
56	0x3d81d78b	0.0633994
57	0xbb947853	-0.0045309453
58	0x3b0b83ab	0.0021288197
59	0x3c247042	0.01003653
60	0xbbebbbb8	-0.0071940087
61	0xbc316709	-0.010827788
62	0x3d5dba8f	0.054132994
63	0xbc32d964	-0.010916088

conv1.1.running_mean f4 [64]
0	0xc5a18e6b	-5169.8022
1	0x430ca15c	140.63031
2	0xc56eb364	-3819.212
3	0xc464153b	-912.3317
4	0x453a3d84	2979.8447
5	0xc5b5b038	-5814.0273
6	0xc588d8ae	-4379.085
7	0xc5809468	-4114.551
8	0xc2e03168	-112.0965
9	0xc5dd7d98	-7087.699
10	0x45b1dea0	5691.828
11	0x42dd8fb0	110.78064
12	0xc4cb3e39	-1625.9445
13	0x458554e0	4266.6094
14	0xc588649e	-4364.577
15	0x4546a04f	3178.0193
16	0xc5b0fe7b	-5663.81
17	0xc4e0b6f5	-1797.7174
18	0xc4b57676	-1451.7019
19	0xc5364678	-2916.4043
20	0xc4c02bca	-1537.3684
21	0xc5b4e760	-5788.922
22	0x45e143c9	7208.473
23	0xc5072ec2	-2162.9224
24	0x43dafcc4	437.97473
25	0x459dfa1b	5055.263
26	0x45659adc	3673.6787
27	0x451e6ab9	2534.6702
28	0xc50a91eb	-2217.1199
29	0x43ba9d74	373.2301
30	0xc4cca0bb	-1637.0228
31	0x45dcbb75	7063.432
32	0xc54cc3f1	-3276.2463
33	0xc4b724ef	-1465.1542
34	0xc5f0a3d3	-7700.478
35	0xc5d2906a	-6738.052
36	0x455a61f2	3494.1216
37	0xc488fc5a	-1095.886
38	0x45e555d5	7338.729
39	0xc46ac567	-939.0844
40	0x4526e8f5	2670.5598
41	0x446a408e	937.00867
42	0xc530bcf0	-2827.8086
43	0xc4ac6cb9	-1379.3976
44	0x45cfaeb4	6645.838
45	0x45353ba1	2899.7268
46	0xc5b15209	-5674.2544
47	0x45cb4170	6504.1797
48	0xc515fe67	-2399.9001
49	0x453c753c	3015.3271
50	0xc5ca871d	-6480.889
51	0xc45798f4	-862.3899
52	0xc4a3cbd2	-1310.3694
53	0xc5fab40b	-8022.5054
54	0x45f291bb	7762.2163
55	0xc59597d3	-4786.978
56	0x44c7fe6e	1599.9509
57	0xc596800f	-4816.0073
58	0x45fcd088	8090.0664
59	0xc4f7ca75	-1982.3268
60	0xc5569ad2	-3433.6763
61	0x45bba3a5	6004.4556
62	0xc4d4e78d	-1703.236
63	0xc4ff9ca8	-2044.8955

conv1.1.running_var f4 [64]
0	0x4b11d678	9.557624e+06
1	0x48fd7646	519090.2
2	0x4b08c83e	8.964158e+06
3	0x4a5d8a02	3.6296965e+06
4	0x4b0a6a1b	9.071131e+06
5	0x4b365e00	1.1951616e+07
6	0x4b2ec8d1	1.1454673e+07
7	0x4aee0dc4	7.800546e+06
8	0x4a6073c0	3.677424e+06
9	0x4b867aa5	1.7626442e+07
10	0x4b408d6d	1.2619117e+07
11	0x4b398c57	1.2160087e+07
12	0x4aa2f455	5.3396905e+06
13	0x4b02d2fe	8.573694e+06
14	0x4b279130	1.098168e+07
15	0x4a64e681	3.7503042e+06
16	0x4b3adbf8	1.2246008e+07
17	0x49bba7a6	1.5372688e+06
18	0x4af9d54c	8.186534e+06
19	0x4ab29611	5.8519125e+06
20	0x4a940d0b	4.8513335e+06
21	0x4b119e70	9.54328e+06
22	0x4b827296	1.7098028e+07
23	0x4a39ffa0	3.0474e+06
24	0x4b13c1bb	9.683387e+06
25	0x4b06d6f2	8.83685e+06
26	0x4b41b568	1.2694888e+07
27	0x4a0bc29d	2.2898312e+06
28	0x4a88ba3d	4.4802865e+06
29	0x4aa4ca86	5.399875e+06
30	0x4a2fb4d6	2.8787735e+06
31	0x4ba65e6c	2.1806296e+07
32	0x4b0f7056	9.400406e+06
33	0x4aadca1b	5.6947335e+06
34	0x4bb08d4f	2.3141022e+07
35	0x4b9513c1	1.9539842e+07
36	0x4b0320ef	8.593647e+06
37	0x4a235e03	2.6766088e+06
38	0x4ba82fd8	2.2044592e+07
39	0x4abd5ee4	6.205298e+06
40	0x4a9dfac2	5.176673e+06
41	0x4ade8380	7.291328e+06
42	0x4ab20eba	5.834589e+06
43	0x4a4e7385	3.3824972e+06
44	0x4b96ee59	1.9782834e+07
45	0x4b10d722	9.492258e+06
46	0x4b8469c9	1.7355666e+07
47	0x4b73876e	1.5959918e+07
48	0x4a056719	2.1856702e+06
49	0x4ad61779	7.0153565e+06
50	0x4b6cc85e	1.551779e+07
51	0x4a61e922	3.7013205e+06
52	0x49a7f4cd	1.3758976e+06
53	0x4b92f05b	1.9259574e+07
54	0x4ba415c5	2.1506954e+07
55	0x4b4611ff	1.2980735e+07
56	0x4a55bdaa	3.5019305e+06
57	0x4b383a65	1.2073573e+07
58	0x4b89fa7f	1.8085118e+07
59	0x4a4100b1	3.1621562e+06
60	0x4a6ee93a	3.9143185e+06
61	0x4b605165	1.4700901e+07
62	0x4aba2345	6.0993625e+06
63	0x4aa12954	5.280938e+06
