src/pipelineC/checkpoints/dgcnn_seg_epoch10.pth (torch, 692288 bytes, 59 tensors)

bn1.weight f4 [64]
0	0x3f806d51	1.0033361
1	0x3f79ce87	0.9758076
2	0x3f7fbb9f	0.9989566
3	0x3f7f75d6	0.9978918
4	0x3f75d99b	0.96035165
5	0x3f7bd2ba	0.9836842
6	0x3f80c1fc	1.0059199
7	0x3f805c02	1.0028079
8	0x3f7b57c9	0.98180825
9	0x3f7eacfc	0.99482703
10	0x3f791868	0.97302866
11	0x3f80009c	1.0000186
12	0x3f8177a7	1.011464
13	0x3f7cbc27	0.987246
14	0x3f807197	1.0034665
15	0x3f7fe6a8	0.9996133
16	0x3f82cf72	1.0219557
17	0x3f7c89b3	0.9864761
18	0x3f807bd5	1.003779
19	0x3f81c6b1	1.0138761
20	0x3f8001b0	1.0000515
21	0x3f7a5914	0.9779217
22	0x3f7ec06d	0.9951237
23	0x3f81627f	1.0108184
24	0x3f7fe16d	0.9995335
25	0x3f7c908f	0.9865808
26	0x3f80e2ac	1.0069175
27	0x3f7a5f0d	0.97801286
28	0x3f7db448	0.9910321
29	0x3f7b56db	0.98179406
30	0x3f806b07	1.0032662
31	0x3f79dbef	0.9760122
32	0x3f806b81	1.0032808
33	0x3f83742f	1.0269831
34	0x3f7de892	0.99183
35	0x3f81ef33	1.0151123
36	0x3f7eef63	0.99584025
37	0x3f808610	1.0040913
38	0x3f7e9824	0.994509
39	0x3f81c70a	1.0138867
40	0x3f7cbc63	0.98724955
41	0x3f78cd55	0.9718831
42	0x3f805283	1.002518
43	0x3f7f9ad6	0.99845636
44	0x3f7b0327	0.98051685
45	0x3f7a74db	0.9783456
46	0x3f7ed8e0	0.99549675
47	0x3f7def40	0.9919319
48	0x3f7f95c1	0.9983788
49	0x3f7bfc42	0.9843179
50	0x3f802d1a	1.0013764
51	0x3f815a5b	1.0105699
52	0x3f81426b	1.0098394
53	0x3f7e4fda	0.99340594
54	0x3f7c360a	0.9851996
55	0x3f7ca165	0.9868377
56	0x3f79da83	0.9759905
57	0x3f802eec	1.001432
58	0x3f7eea1b	0.99575967
59	0x3f806614	1.0031152
60	0x3f8115df	1.00848
61	0x3f7e129c	0.99247146
62	0x3f808b27	1.0042466
63	0x3f8231da	1.0171463

bn1.bias f4 [64]
0	0xbbc47055	-0.0059948363
1	0x3d3d27b6	0.04618045
2	0xbc9aae1f	-0.018881856
3	0x3c0c16ea	0.008550385
4	0x3b9fe5b0	0.004879676
5	0xbd2bc243	-0.04193331
6	0xba241961	-0.0006259885
7	0x3b670c01	0.0035254958
8	0xbb3103c7	-0.0027010308
9	0xbc767d28	-0.015044488
10	0xbb1c91c9	-0.0023890606
11	0x3c0d8886	0.008638507
12	0x3cf4ebf0	0.02989766
13	0xbbe8d5ea	-0.0071055787
14	0xbcb968dd	-0.02263301
15	0x3b72868a	0.003700646
16	0xbd396f8e	-0.045272402
17	0xbc1f0d13	-0.009707707
18	0x3c01f566	0.007932043
19	0x3b0c76bb	0.0021433074
20	0x3ca58026	0.020202707
21	0xbcbf155a	-0.02332561
22	0xbbbd1028	-0.0057697482
23	0x3c8acdd8	0.016943857
24	0x3c7134d1	0.014722065
25	0x3bc1355a	0.0058962526
26	0x3c8113f6	0.015756588
27	0x3bf06dad	0.007337293
28	0xb9b03158	-0.000336061
29	0x3caec8eb	0.02133604
30	0xbc6634b9	-0.014050656
31	0xbd004b29	-0.03132168
32	0xbc420b03	-0.011843446
33	0xbb451ed5	-0.0030078192
34	0xbce45fc4	-0.027877696
35	0x3c20b6ee	0.009809239
36	0x3c8b198f	0.01697996
37	0x3c090276	0.008362403
38	0xbbb729bb	-0.0055896915
39	0x3ad89ffa	0.0016527169
40	0x3c583e6e	0.013198478
41	0xbaaffc62	-0.0013426656
42	0x3adedc7a	0.0017002963
43	0x3d33cc0a	0.04389576
44	0x3a08c3c4	0.00052171596
45	0x3c49804f	0.012298658
46	0xbb841b57	-0.0040315795
47	0xbc052894	-0.00812735
48	0xbc91b90f	-0.017788438
49	0x3c08f712	0.008359687
50	0xbcaaa5ee	-0.020831075
51	0x3b67890a	0.0035329484
52	0x3cbc5bab	0.02299293
53	0xbc56fa9c	-0.013121273
54	0x3a31961c	0.0006774382
55	0x3b8fc3b2	0.0043873424
56	0x3cb08024	0.021545477
57	0x3a764b63	0.0009395389
58	0xb69f825f	-4.7537465e-06
59	0x3c3a67bd	0.011377272
60	0xbb81eef1	-0.0039652516
61	0xbb3b0951	-0.0028539489
62	0x3d06e393	0.032931875
63	0xbaf6bd6b	-0.0018824762

bn1.running_mean f4 [64]
0	0xc5a387ff	-5232.9995
1	0x440372ed	525.7957
2	0xc56edd61	-3821.8362
3	0xc4137e2f	-589.9716
4	0x45585c05	3461.7512
5	0xc5a59d7e	-5299.6865
6	0xc58b6aae	-4461.335
7	0xc569f419	-3743.256
8	0x42d54e60	106.653076
9	0xc5cbf136	-6526.1514
10	0x45a1e522	5180.6416
11	0x43612e71	225.18141
12	0xc4b2c5ae	-1430.1775
13	0x4580594d	4107.1626
14	0xc57bd114	-4029.0674
15	0x45346274	2886.1533
16	0xc5ac8996	-5521.198
17	0xc4c6e9fe	-1591.3123
18	0xc481e01d	-1039.0035
19	0xc52b6b6a	-2742.7134
20	0xc4c1eb89	-1551.3605
21	0xc5acbf03	-5527.8765
22	0x45da48d8	6985.1055
23	0xc50863d4	-2182.2393
24	0x446748f0	925.13965
25	0x4599f1f3	4926.2437
26	0x4585709c	4270.076
27	0x45168d2c	2408.8232
28	0xc4eb63a5	-1883.1139
29	0x44486d0a	801.70374
30	0xc4b12e52	-1417.4475
31	0x45d054eb	6666.6147
32	0xc53c83c7	-3016.236
33	0xc4919c9b	-1164.8939
34	0xc5ec94cb	-7570.599
35	0xc5ba341f	-5958.515
36	0x458394c1	4210.594
37	0xc449efbe	-807.746
38	0x45d402b2	6784.337
39	0xc4354297	-725.04047
40	0x453e6a80	3046.6562
41	0x44cb74d2	1627.6506
42	0xc52235d8	-2595.3652
43	0xc48f2e1a	-1145.4407
44	0x45c73096	6374.073
45	0x4538ac1c	2954.7568
46	0xc59f92b8	-5106.34
47	0x45c48e50	6289.789
48	0xc525f532	-2655.3247
49	0x45378039	2936.014
50	0xc5c3a4f6	-6260.62
51	0xc42ada9a	-683.41565
52	0xc4a4bd9c	-1317.9253
53	0xc5e03c7e	-7175.5615
54	0x45ea6dc4	7501.7207
55	0xc583b8d8	-4215.1055
56	0x452a83ed	2728.2454
57	0xc589f4a8	-4414.582
58	0x45dbd1a5	7034.2056
59	0xc4d0f9bd	-1671.8043
60	0xc55a77ab	-3495.4792
61	0x45b5ddc8	5819.7227
62	0xc4c795d1	-1596.6818
63	0xc4dbe7b1	-1759.2404

bn1.running_var f4 [64]
0	0x4b17eea0	9.957024e+06
1	0x48fc6cf4	516967.62
2	0x4b07d14b	8.900939e+06
3	0x4a3b3730	3.06734e+06
4	0x4b0339aa	8.599978e+06
5	0x4b237368	1.0711912e+07
6	0x4b304d98	1.15542e+07
7	0x4ae31dd4	7.442154e+06
8	0x4a4de17f	3.3731518e+06
9	0x4b7e205c	1.6654428e+07
10	0x4b22cffa	1.0670074e+07
11	0x4b23305c	1.0694748e+07
12	0x4a977922	4.963473e+06
13	0x4afe973e	8.342431e+06
14	0x4b0c5481	9.196673e+06
15	0x4a3d9d66	3.1066495e+06
16	0x4b2e60d1	1.1428049e+07
17	0x49947e56	1.2164588e+06
18	0x4ad6de8d	7.0408385e+06
19	0x4a9ec353	5.2023455e+06
20	0x4a941b89	4.8531885e+06
21	0x4b1014fc	9.442556e+06
22	0x4b73614b	1.5950155e+07
23	0x4a41ba02	3.1740165e+06
24	0x4b03219a	8.593818e+06
25	0x4b07ae17	8.891927e+06
26	0x4b32986a	1.1704426e+07
27	0x4a00fadb	2.1132068e+06
28	0x4a7f6728	4.184522e+06
29	0x4a940f97	4.8516595e+06
30	0x4a453511	3.2310442e+06
31	0x4ba0c974	2.1074664e+07
32	0x4b078bfc	8.883196e+06
33	0x4aa1fa9f	5.3077275e+06
34	0x4bb3173c	2.3473784e+07
35	0x4b794232	1.633541e+07
36	0x4b13417e	9.650558e+06
37	0x4a0c46f9	2.2983022e+06
38	0x4ba10542	2.1105284e+07
39	0x4a99245c	5.018158e+06
40	0x4aa1a802	5.297153e+06
41	0x4abba672	6.148921e+06
42	0x4aa62b7e	5.445055e+06
43	0x4a4c46f5	3.3468772e+06
44	0x4b87e935	1.7814122e+07
45	0x4b0a2f2f	9.056047e+06
46	0x4b5fac4f	1.4658639e+07
47	0x4b6fedbf	1.5723967e+07
48	0x4a1ee06e	2.6030355e+06
49	0x4ad081e7	6.8323715e+06
50	0x4b6d5107	1.5552775e+07
51	0x4a606f21	3.6771282e+06
52	0x49a6e06f	1.3670539e+06
53	0x4b83d93e	1.728166e+07
54	0x4ba519c9	2.1640082e+07
55	0x4b2757d0	1.0966992e+07
56	0x4a7eff1a	4.1778625e+06
57	0x4b2ba8ef	1.1249903e+07
58	0x4b659ae9	1.5047401e+07
59	0x4a3668b7	2.9885898e+06
60	0x4a700a81	3.9328322e+06
61	0x4b5e29fe	1.4559742e+07
62	0x4aade590	5.698248e+06
63	0x4a8f343f	4.6925115e+06

bn2.weight f4 [64]
0	0x3f7db27b	0.99100465
1	0x3f80785a	1.0036728
2	0x3f807b16	1.0037563
3	0x3f7cf198	0.9880614
4	0x3f7ae6eb	0.980086
5	0x3f7c15b5	0.9847062
6	0x3f81ac5a	1.0130723
7	0x3f77e324	0.96830964
8	0x3f8153e8	1.0103731
9	0x3f7fed1c	0.99971175
10	0x3f8085ff	1.0040892
11	0x3f810563	1.0079769
12	0x3f8115f7	1.0084828
13	0x3f7f2de3	0.9967939
14	0x3f77225c	0.96536803
15	0x3f7c75a2	0.98616993
16	0x3f7c4511	0.98542887
17	0x3f808651	1.004099
18	0x3f7e6114	0.9936688
19	0x3f7c8745	0.98643905
20	0x3f77d845	0.96814376
21	0x3f7cab3a	0.9869877
22	0x3f7a3ffd	0.9775389
23	0x3f7ee142	0.99562466
24	0x3f7d51ae	0.9895276
25	0x3f80cca0	1.0062447
26	0x3f7791bf	0.96706766
27	0x3f810089	1.0078288
28	0x3f7ad6e5	0.97984153
29	0x3f7ecb0e	0.99528587
30	0x3f7b996d	0.98280984
31	0x3f7a288c	0.9771812
32	0x3f7c43d1	0.9854098
33	0x3f796efc	0.97434974
34	0x3f7ded64	0.99190354
35	0x3f79a8f8	0.9752345
36	0x3f80cd40	1.0062637
37	0x3f7916f1	0.9730063
38	0x3f7d7af2	0.99015725
39	0x3f7c437d	0.9854048
40	0x3f7f34b8	0.9968982
41	0x3f7f10b8	0.99634886
42	0x3f79d620	0.97592354
43	0x3f7c4213	0.9853832
44	0x3f7efddf	0.99606127
45	0x3f7c877e	0.98644245
46	0x3f7dc6c1	0.991314
47	0x3f80c1d7	1.0059155
48	0x3f7ecf91	0.9953547
49	0x3f7a2118	0.9770675
50	0x3f7971df	0.9743938
51	0x3f7fbb45	0.99895126
52	0x3f81d29a	1.0142395
53	0x3f7f87f3	0.9981682
54	0x3f7ed552	0.9954425
55	0x3f78e72a	0.9722773
56	0x3f7ac2d9	0.97953564
57	0x3f7af0b1	0.98023516
58	0x3f816ae3	1.0110744
59	0x3f7eb34e	0.9949235
60	0x3f7b17ac	0.98082995
61	0x3f7aa9d5	0.97915393
62	0x3f8126c0	1.008995
63	0x3f7bed54	0.9840901

bn2.bias f4 [64]
0	0x3c9f6624	0.019457884
1	0xbbdcd827	-0.0067396346
2	0xba8b121a	-0.0010610253
3	0x3bde0330	0.0067752823
4	0xbbeb6c19	-0.007184517
5	0xbbedf061	-0.0072613214
6	0xb8a4749e	-7.841851e-05
7	0xbc903e22	-0.017607752
8	0x3beba400	0.007191181
9	0x3d1c7556	0.038197838
10	0x3be75cf9	0.0070606438
11	0xbb569e8f	-0.0032748317
12	0xbbd1fc01	-0.006408215
13	0x3c8e9d07	0.01740886
14	0x3a8a95e7	0.0010573239
15	0x3d31f15a	0.04344306
16	0x3c6b1d30	0.014350221
17	0xbd4bdbf2	-0.049770303
18	0xbb9bfd42	-0.0047604153
19	0x3c16134b	0.009159873
20	0xbb084cfa	-0.0020797835
21	0xbbf7ddc4	-0.0075642783
22	0x3d0bf55d	0.034169544
23	0xbc1e3e64	-0.00965843
24	0xbc0d0a4e	-0.008608414
25	0x3cec10f1	0.028816672
26	0xbc618416	-0.013764402
27	0xbbcf18fe	-0.006320118
28	0xbc9f74c6	-0.019464862
29	0x3c637187	0.0138820475
30	0xbc2326ce	-0.009957982
31	0xbcb6ff90	-0.022338659
32	0xbb785e1d	-0.0037897893
33	0xbd0fcb70	-0.035106122
34	0x3d00d042	0.03144861
35	0xbc745373	-0.014912474
36	0xbb197e11	-0.0023421089
37	0xbc88c7d1	-0.016696842
38	0x3c9f7451	0.019464644
39	0xbaf8298b	-0.0018933279
40	0x3b913f61	0.004432604
41	0x3b5a2e13	0.0033291623
42	0xbc56475a	-0.013078535
43	0xbc2ff6e8	-0.010740019
44	0x3b3366cf	0.002737451
45	0x3ad2c822	0.0016081373
46	0xbc5bd866	-0.013418293
47	0x3c6a8b62	0.014315458
48	0x3c0f56ae	0.008748693
49	0xbc959547	-0.018259658
50	0x3be063bb	0.0068478263
51	0xbc1c03a0	-0.009522349
52	0x3ce9ae64	0.028525539
53	0xbb565f25	-0.003271052
54	0x3cacb8de	0.021084245
55	0xbc835f2b	-0.01603659
56	0xbc19e38e	-0.009392632
57	0xbd13b0a4	-0.03605713
58	0xbb61796c	-0.0034404648
59	0x3d17155b	0.0368856
60	0xbc1b5ff5	-0.009483327
61	0xbca414bb	-0.020029416
62	0x3b8973a1	0.0041946922
63	0xbb7be660	-0.0038436875

bn2.running_mean f4 [64]
0	0xbd89ac22	-0.06722285
1	0x3d236f87	0.039901283
2	0x3cff3856	0.031154793
3	0xbdb62433	-0.08893623
4	0xbd0d9cb6	-0.03457328
5	0x3e55484f	0.20828365
6	0x3e4a1d19	0.19737662
7	0x3e6dad59	0.23210658
8	0x3e00ed8a	0.12590614
9	0xbec7850d	-0.38968697
10	0x3eb7e819	0.35919264
11	0x3ecd8085	0.40137115
12	0xbd527139	-0.05137751
13	0x3d358372	0.04431481
14	0x3f1a49e0	0.60268974
15	0xbe91ae1f	-0.28453156
16	0x3f05093a	0.51967204
17	0x3e67bc26	0.22630367
18	0xbe00f122	-0.12591985
19	0xbe285f9a	-0.16442719
20	0x3e8f270e	0.27959484
21	0xbd95b6a1	-0.07310224
22	0xbe614068	-0.21997225
23	0x3e1c1fb2	0.15246466
24	0xbd062f56	-0.032759987
25	0xbe053fa4	-0.13012558
26	0xbcba9e24	-0.022780485
27	0x3dd57a2d	0.10423694
28	0x3e480bdc	0.19535774
29	0xbcae2f5d	-0.021262819
30	0xbe80b70c	-0.25139654
31	0x3e792b86	0.24333009
32	0x3e8067a8	0.25079083
33	0x3ea6b77a	0.32561857
34	0xbe8ec05a	-0.27881128
35	0xbe2fc7d0	-0.17166066
36	0xbe3366bb	-0.17519657
37	0xbec9c3a2	-0.39407068
38	0x3d977f42	0.073973194
39	0x3dd062ff	0.10175132
40	0x3d9ba1db	0.07599231
41	0x3e1ada96	0.15122446
42	0xbe2fda9d	-0.17173238
43	0x3dd05dbd	0.10174129
44	0x3e194e1a	0.149712
45	0xbd696528	-0.056981236
46	0x3dd12cc0	0.102136135
47	0x3d72374a	0.05913476
48	0xbd4924bf	-0.04910731
49	0x3d26d701	0.040732387
50	0xbe693aaf	-0.22776292
51	0xbcbb4839	-0.022861587
52	0x3ce9aef9	0.028525816
53	0x3ca299f4	0.019848801
54	0xbee143e4	-0.4399711
55	0x3e5f498c	0.218054
56	0xbd86051e	-0.06543945
57	0x3e5fc60e	0.21852896
58	0x3dc116eb	0.094281994
59	0xbee2c4ed	-0.44290867
60	0xbe46bf02	-0.19408801
61	0xbd8e3170	-0.06943023
62	0xbeffdcb8	-0.49973083
63	0x3b730aa7	0.0037085207

bn2.running_var f4 [64]
0	0x3e3d7f4e	0.18505594
1	0x3ddd8230	0.10815847
2	0x3d991f67	0.07476693
3	0x3de1204a	0.10992487
4	0x3df32f3c	0.118742436
5	0x3e920c8e	0.28525203
6	0x3d8bffcd	0.068358995
7	0x3eb4988a	0.35272628
8	0x3d25fcba	0.040524222
9	0x3da7a7f0	0.081863284
10	0x3d7a546d	0.06111567
11	0x3d8d84b3	0.06910076
12	0x3d1c1d1c	0.0381137
13	0x3d4dc30a	0.050234832
14	0x3e0520ef	0.13000844
15	0x3df138ec	0.11778435
16	0x3e326cab	0.17424266
17	0x3d971113	0.073763035
18	0x3d7526e1	0.05985153
19	0x3e4f8bee	0.20268223
20	0x3e1f673d	0.15566726
21	0x3e074a4a	0.13211933
22	0x3daa758f	0.08323204
23	0x3d877723	0.066145204
24	0x3d8f792c	0.070055336
25	0x3d1e5bba	0.038661696
26	0x3e565859	0.2093214
27	0x3d9aa334	0.0755066
28	0x3dafc297	0.08582037
29	0x3dcd506f	0.10025107
30	0x3e09e399	0.13465728
31	0x3e93d710	0.28875017
32	0x3dc2ec39	0.09517712
33	0x3e531485	0.20613296
34	0x3e535ecc	0.20641631
35	0x3e665508	0.22493374
36	0x3d8437dd	0.064559676
37	0x3e576660	0.21035147
38	0x3e548b28	0.20756209
39	0x3db158a8	0.08659488
40	0x3e00f84c	0.12594718
41	0x3df64aa0	0.12025952
42	0x3e382dae	0.17986175
43	0x3db71d21	0.08941103
44	0x3d4b741d	0.04967128
45	0x3e066808	0.13125622
46	0x3d848bc1	0.064719684
47	0x3d94a122	0.07257296
48	0x3dc888c8	0.09791714
49	0x3e0c0b9f	0.13676308
50	0x3d89cb16	0.06728189
51	0x3db06e9e	0.086148486
52	0x3ce6d1ab	0.02817615
53	0x3e50d3c1	0.20393278
54	0x3e317802	0.17330936
55	0x3e7347f1	0.23757912
56	0x3dbe3005	0.09286503
57	0x3dbd310b	0.0923787
58	0x3d18b4f6	0.037281953
59	0x3e00d53f	0.12581347
60	0x3dfdb8af	0.12388741
61	0x3e36e940	0.17862415
62	0x3e019a29	0.12656464
63	0x3e3ca860	0.18423605

bn3.weight f4 [64]
0	0x3f74f74f	0.9568986
1	0x3f800b12	1.0003378
2	0x3f8038e1	1.0017358
3	0x3f753aeb	0.95793027
4	0x3f7b061e	0.9805621
5	0x3f801b17	1.0008267
6	0x3f78edad	0.97237664
7	0x3f7e1b23	0.9926016
8	0x3f7ea960	0.99477196
9	0x3f7fba4a	0.9989363
10	0x3f816c4c	1.0111175
11	0x3f820e12	1.0160544
12	0x3f723bbb	0.9462239
13	0x3f826143	1.0185932
14	0x3f77cdc3	0.9679834
15	0x3f7b61e3	0.9819624
16	0x3f7c24d6	0.9849371
17	0x3f826ec3	1.0190052
18	0x3f7d603f	0.98974985
19	0x3f79ee98	0.9762969
20	0x3f7e264f	0.99277204
21	0x3f80b5eb	1.0055517
22	0x3f80b7b2	1.0056059
23	0x3f807f52	1.0038855
24	0x3f7b39b7	0.9813494
25	0x3f7cf72d	0.9881466
26	0x3f7ba838	0.98303556
27	0x3f83f8b9	1.0310279
28	0x3f80ba1c	1.0056796
29	0x3f7a0535	0.97664195
30	0x3f7f9229	0.998324
31	0x3f7accdb	0.97968835
32	0x3f83ba28	1.0291185
33	0x3f7ad32e	0.97978485
34	0x3f800861	1.0002557
35	0x3f7f290a	0.99671996
36	0x3f7eec8d	0.995797
37	0x3f76920b	0.96316594
38	0x3f7d5184	0.9895251
39	0x3f7f6f88	0.9977956
40	0x3f806cc9	1.0033199
41	0x3f8272b9	1.019126
42	0x3f7632e5	0.9617141
43	0x3f795f2c	0.97410846
44	0x3f7c0e5b	0.98459405
45	0x3f80a407	1.0050057
46	0x3f779690	0.96714115
47	0x3f807cd2	1.0038092
48	0x3f7c47a3	0.9854681
49	0x3f741ed5	0.95359546
50	0x3f800336	1.000098
51	0x3f7cb2fe	0.9871062
52	0x3f7f39ab	0.9969737
53	0x3f80605c	1.0029407
54	0x3f78332d	0.9695309
55	0x3f7d6590	0.989831
56	0x3f7bd6ff	0.98374933
57	0x3f7cae10	0.987031
58	0x3f7ef097	0.9958586
59	0x3f806749	1.003152
60	0x3f7b32d3	0.98124427
61	0x3f7e9014	0.99438596
62	0x3f7c7306	0.9861301
63	0x3f7e221e	0.9927081

bn3.bias f4 [64]
0	0xbc85f603	-0.01635266
1	0x3c17a5ba	0.009255821
2	0xbb2f470b	-0.0026745226
3	0xbc650826	-0.0139789935
4	0xbb16f068	-0.0023031477
5	0xbca70d9c	-0.020392232
6	0xbb420542	-0.0029605185
7	0xbcc3c328	-0.023896769
8	0x3c1cf71d	0.009580401
9	0x3b274858	0.0025525298
10	0x3ce8968b	0.028392097
11	0x3d0600c3	0.03271557
12	0xbd1519db	-0.03640161
13	0x3d13a70d	0.036047984
14	0xbc68bbe6	-0.014204955
15	0x3c043a80	0.008070588
16	0xbc94ac9e	-0.018148717
17	0x3ccb4a0c	0.024815582
18	0x3c9bb3e9	0.019006686
19	0xbba70c48	-0.0050978996
20	0xbc9a506f	-0.018837182
21	0x3cc64216	0.024201434
22	0x3c935d83	0.017988926
23	0x3c5784f7	0.01315426
24	0x3bca6f1b	0.0061777956
25	0xbce144f6	-0.027498703
26	0xbb682bf1	-0.0035426582
27	0x3d27224a	0.040804185
28	0xbbaa1681	-0.005190671
29	0x3c67dd86	0.014151936
30	0x3c1aa5d8	0.009438954
31	0x3baca115	0.005268226
32	0x3c133501	0.008984805
33	0xbc9b3523	-0.018946236
34	0xbca6a6c5	-0.020343194
35	0xbbb4e896	-0.0055208905
36	0xbbac0470	-0.0052495524
37	0xbcb83cfb	-0.022490015
38	0xbbc2af31	-0.0059412946
39	0x3c5817eb	0.013189296
40	0x3cd1309c	0.025535874
41	0x3bedc097	0.0072556245
42	0xbbf9d62d	-0.0076244087
43	0xbc07c4be	-0.008286653
44	0xbc1cd399	-0.009571933
45	0x3aba6366	0.0014220297
46	0xbcc15f25	-0.023604939
47	0x3bd3b55d	0.006460829
48	0x3aa98a4f	0.0012934896
49	0x3ca8e474	0.020616747
50	0x3a29db05	0.0006479475
51	0x384e138c	4.913243e-05
52	0x38c69873	9.4697716e-05
53	0xbc868978	-0.016422972
54	0xbcad3f4f	-0.021148352
55	0x3d301417	0.04298791
56	0x3c4c0e5e	0.012454597
57	0xbbb5aaca	-0.0055440413
58	0xbc2b656f	-0.010461195
59	0x3cca9067	0.02472706
60	0x3a99186e	0.0011680254
61	0xbc070560	-0.008241028
62	0x3b887c56	0.0041652126
63	0xbccc47f8	-0.024936661

bn3.running_mean f4 [64]
0	0xbf018b59	-0.5060325
1	0x3e3131ca	0.1730415
2	0x3e90bda9	0.282697
3	0x3ee590ca	0.44837028
4	0xbe6965a0	-0.22792673
5	0xbda2b33b	-0.07944342
6	0x3ed6c476	0.41946763
7	0x3df2edeb	0.118617855
8	0x3e58fbca	0.211898
9	0x3e8d27a8	0.27569318
10	0x3e01e781	0.12685968
11	0xbdff5e8d	-0.12469206
12	0x3e4e1eba	0.20128909
13	0x3eaddfb2	0.33959728
14	0xbe15ba48	-0.14621842
15	0xbf26c7b0	-0.6514845
16	0x3e914dbd	0.28379622
17	0x3ddb7937	0.10716479
18	0x3ed8ed46	0.42368525
19	0xbef4b1c5	-0.47791877
20	0x3e356d90	0.17717576
21	0x3caf1603	0.0213728
22	0xbda511bc	-0.08060023
23	0x3e297ec8	0.1655227
24	0x3ed85124	0.42249405
25	0x3e00f395	0.12592919
26	0x3e86def7	0.26341984
27	0xbf161d29	-0.58638245
28	0xbdacc1b8	-0.084353864
29	0xbd2db090	-0.04240471
30	0x3e65fc4d	0.22459526
31	0xbefe7ba8	-0.49703717
32	0x3dbd1aeb	0.0923365
33	0x3cfbfac7	0.030759228
34	0x3e7be805	0.24600227
35	0x3ed73f1f	0.42040345
36	0x3d24d88c	0.040245578
37	0x3e7154f1	0.23567559
38	0xbe9dd00a	-0.30822784
39	0xbdd96da6	-0.10616617
40	0x3e395548	0.18098938
41	0x3dd15a5f	0.10222315
42	0xbefba0fa	-0.49146253
43	0xbef8c06a	-0.485843
44	0xbd05c406	-0.032657646
45	0xbf3f4175	-0.74709255
46	0x3d231838	0.03981802
47	0xbefd31cc	-0.49452055
48	0xbe612697	-0.21987377
49	0x3f04edf6	0.519256
50	0x3c577446	0.01315028
51	0xbe9544ea	-0.2915414
52	0x3eac79ed	0.33686772
53	0x3e49ff29	0.19726242
54	0xbcdbff5d	-0.026855165
55	0xbdca461e	-0.09876655
56	0xbcdf44e3	-0.027254527
57	0x3db6a3a7	0.08917933
58	0x3d64bd21	0.05584443
59	0x3e0b2503	0.13588338
60	0x3cbaee63	0.02281875
61	0xbdda3527	-0.10654669
62	0x3eb36730	0.35039663
63	0xbcf6d37f	-0.030130146

bn3.running_var f4 [64]
0	0x3e2f6c96	0.17131266
1	0x3dc44c7f	0.09584903
2	0x3de93215	0.113865055
3	0x3e45c350	0.19312787
4	0x3dd8f504	0.10593608
5	0x3e6174e4	0.22017246
6	0x3e9fd8d1	0.31220105
7	0x3dd757b9	0.10514779
8	0x3e085ecb	0.1331741
9	0x3e4a482e	0.19754097
10	0x3e270575	0.16310675
11	0x3e30c0fc	0.17261118
12	0x3eb09b84	0.3449365
13	0x3e15bc71	0.14622666
14	0x3dbfbf0e	0.09362613
15	0x3e99f9c9	0.30073383
16	0x3e56289c	0.20913929
17	0x3dd26ab5	0.10274259
18	0x3e199ac4	0.15000445
19	0x3e446383	0.19178586
20	0x3da294a4	0.07938507
21	0x3dd2cc50	0.10292876
22	0x3de3720d	0.11105738
23	0x3e0bfe61	0.13671257
24	0x3e822c85	0.2542459
25	0x3dedab81	0.116049774
26	0x3e294920	0.16531801
27	0x3e96c59b	0.29447636
28	0x3e67844d	0.22609062
29	0x3e5a3237	0.21308218
30	0x3e1aa837	0.15103231
31	0x3e7829f0	0.24234748
32	0x3db03d77	0.086054735
33	0x3e1aad66	0.15105209
34	0x3e23baa4	0.15989166
35	0x3e6b1f8c	0.22961253
36	0x3dee93bf	0.11649274
37	0x3e714a7d	0.23563571
38	0x3e111071	0.14166428
39	0x3dde7bd1	0.1086346
40	0x3dd0595d	0.10173295
41	0x3e0bb37c	0.13642687
42	0x3ef1ba5b	0.4721249
43	0x3ea7c7e8	0.32769704
44	0x3de649b9	0.1124453
45	0x3e2c25d3	0.16811304
46	0x3e5b6e49	0.21428789
47	0x3e3fde95	0.18737252
48	0x3e00d288	0.12580311
49	0x3e6f8e34	0.2339409
50	0x3deba9ca	0.11506994
51	0x3ec0ac86	0.37631625
52	0x3e4d2fa4	0.20037705
53	0x3e81bd42	0.25339705
54	0x3e301696	0.17196116
55	0x3dacaf53	0.08431878
56	0x3dfeb235	0.12436334
57	0x3d84d4fc	0.06485936
58	0x3dcc5be9	0.09978468
59	0x3e3ddb93	0.18540792
60	0x3e0f638c	0.14002818
61	0x3e3f5ab6	0.18686947
62	0x3e15a91e	0.14615294
63	0x3e30169b	0.17196123

bn4.weight f4 [64]
0	0x3f826ada	1.0188859
1	0x3f80cd62	1.0062678
2	0x3f80da58	1.0066633
3	0x3f7438fa	0.9539944
4	0x3f742172	0.95363533
5	0x3f7be173	0.98390883
6	0x3f7d8ec6	0.9904598
7	0x3f7c0aae	0.98453796
8	0x3f81ab39	1.0130378
9	0x3f82e8a8	1.0227251
10	0x3f7673a5	0.9627021
11	0x3f801fba	1.0009682
12	0x3f8463fc	1.0343013
13	0x3f7afda2	0.9804326
14	0x3f731722	0.9495717
15	0x3f808fef	1.0043925
16	0x3f844642	1.0333941
17	0x3f81b67f	1.0133818
18	0x3f7c02d4	0.98441815
19	0x3f7ba33a	0.9829594
20	0x3f7c04fc	0.98445106
21	0x3f82bbd5	1.0213572
22	0x3f7a13a3	0.97686213
23	0x3f801c4b	1.0008634
24	0x3f7df4d5	0.9920171
25	0x3f80deae	1.0067956
26	0x3f7fe196	0.9995359
27	0x3f7ba0ff	0.98292536
28	0x3f7fbcf2	0.9989768
29	0x3f7ebb5b	0.9950463
30	0x3f8192ce	1.0122926
31	0x3f85e912	1.0461752
32	0x3f785c44	0.97015786
33	0x3f72114a	0.9455763
34	0x3f77e344	0.96831155
35	0x3f7a681a	0.97815096
36	0x3f7bf9d0	0.9842806
37	0x3f7dcd11	0.9914103
38	0x3f6a7950	0.9159136
39	0x3f802233	1.0010437
40	0x3f73e9da	0.95278704
41	0x3f7bd762	0.98375523
42	0x3f70c29b	0.94046944
43	0x3f7ac221	0.9795247
44	0x3f7fd9a1	0.9994145
45	0x3f740001	0.95312506
46	0x3f79ed4a	0.976277
47	0x3f818c07	1.0120858
48	0x3f80170d	1.0007035
49	0x3f79c336	0.97563493
50	0x3f7b281c	0.9810808
51	0x3f812c65	1.0091673
52	0x3f808f91	1.0043813
53	0x3f83773e	1.0270765
54	0x3f815af7	1.0105885
55	0x3f7ffa40	0.99991226
56	0x3f821b5f	1.0164603
57	0x3f7f8988	0.9981923
58	0x3f7794b7	0.96711296
59	0x3f7b0736	0.9805788
60	0x3f806f3d	1.0033947
61	0x3f85dcbe	1.045799
62	0x3f789421	0.97101027
63	0x3f80c667	1.0060548

bn4.bias f4 [64]
0	0x3bda6b51	0.006665625
1	0x3be59d42	0.007007272
2	0x3ced03f2	0.028932545
3	0xbcc07b6f	-0.023496358
4	0xbc1c3c8a	-0.009535918
5	0x3c915905	0.017742643
6	0x3a7fd665	0.00097594253
7	0x3d1572a9	0.0364863
8	0x3ba5bde3	0.0050580367
9	0x3d05bf01	0.03265286
10	0x3bdcb039	0.0067348746
11	0x3c2161ea	0.009850005
12	0x3d568774	0.052375272
13	0x3cce1c8a	0.025160093
14	0xbc842459	-0.016130613
15	0x3ab70034	0.0013961853
16	0x3cc8fab4	0.024533607
17	0x3d2cffee	0.04223626
18	0x3cd3ca4c	0.025853299
19	0xbb95a41b	-0.004566682
20	0x3bf039b2	0.0073310966
21	0x3d02902f	0.031875785
22	0xbc2b6dcc	-0.010463189
23	0x3cdada01	0.02671528
24	0x3c5cbdbf	0.013472973
25	0x3caec63c	0.02133476
26	0xbc410a54	-0.011782248
27	0x3b7b3853	0.0038333132
28	0xbc8bd51b	-0.01706939
29	0x3c055b5d	0.0081394585
30	0xbc51e298	-0.012810372
31	0x3d042135	0.03225823
32	0xbb640e99	-0.003479874
33	0xbc251bf8	-0.010077469
34	0x3c278e17	0.010226748
35	0xbb8d01f8	-0.004303213
36	0x3aed10e3	0.0018086698
37	0xbacc2055	-0.00155736
38	0x3c4e6910	0.012598291
39	0x3c5de428	0.013543166
40	0x3c86a576	0.01643632
41	0x3ca97ce6	0.020689439
42	0xbccfe4ae	-0.025377598
43	0x3a4c4ded	0.0007793594
44	0x3c5219b2	0.012823509
45	0x3b486cc4	0.0030582407
46	0xbc04e4d2	-0.008111196
47	0x3c9e7a3f	0.0193454
48	0xbc6575c5	-0.014005129
49	0x3c4ec3bb	0.012619908
50	0xbc886371	-0.01664898
51	0x3c53018b	0.012878786
52	0x3ce70bc0	0.028203845
53	0x3cb7a37b	0.02241682
54	0x3d22d51e	0.039754026
55	0x3c07788e	0.008268489
56	0x3d1358e8	0.03597346
57	0x3d02ac20	0.031902432
58	0xbcb9e9eb	-0.022694549
59	0xbc4c2e73	-0.012462246
60	0x3cd281d2	0.025696669
61	0xbaa0d2d2	-0.0012269861
62	0x3c8a7c88	0.016905084
63	0xbc9a172b	-0.018809875

bn4.running_mean f4 [64]
0	0xbeb12d16	-0.3460471
1	0xbf112d9d	-0.56710225
2	0x3e50ee24	0.20403343
3	0xbf295808	-0.6614995
4	0xbd685245	-0.056719083
5	0xbe49190a	-0.19638458
6	0x3e85300d	0.26013222
7	0xbc0a33ea	-0.008435229
8	0x3e3d3d75	0.18480475
9	0xbb9e8eda	-0.0048388066
10	0x3db719b1	0.08940447
11	0x3e84eb2f	0.2596068
12	0x3e2af739	0.1669587
13	0x3df64cf1	0.12026394
14	0x3da39559	0.0798747
15	0x3d6a7ab9	0.057245944
16	0xbf1c6bde	-0.6110209
17	0x3e4cc973	0.19998722
18	0xbe627d86	-0.22118196
19	0xbb6f593d	-0.0036521696
20	0x3d0d55e7	0.03450575
21	0x3e0e2944	0.13882929
22	0x3e9e175f	0.30877206
23	0x3e619267	0.22028504
24	0x3e328b14	0.17435867
25	0x3dc32b50	0.095297456
26	0xbee21aa2	-0.44160944
27	0xbd8088fc	-0.06276128
28	0x3de717f6	0.11283867
29	0x3ea6e280	0.3259468
30	0x3e9673b4	0.2938515
31	0xbdb00529	-0.08594734
32	0xbf2fc720	-0.68663216
33	0xbe2a5ebf	-0.16637705
34	0x3e856dc0	0.26060295
35	0x3e80ff41	0.25194743
36	0xbe2ac19b	-0.16675417
37	0x3e3e93e8	0.1861111
38	0xbe95816e	-0.2920031
39	0x3deece78	0.116604745
40	0x3e98b9bd	0.29829207
41	0x3eabd1af	0.33558413
42	0xbe8ab65e	-0.2709226
43	0xbe0bfacb	-0.13669889
44	0x3dc228ff	0.09480476
45	0xbddb6e52	-0.10714401
46	0x3e4cf2aa	0.20014444
47	0xbd0b1961	-0.03395975
48	0x3c30f5e4	0.010800812
49	0x3e8ee35c	0.27907836
50	0x3ec500e2	0.38477236
51	0xbecccd2b	-0.4000028
52	0x3e33e828	0.1756903
53	0x3ed12133	0.40845641
54	0x3e8b794a	0.27240974
55	0x3e98cb0b	0.2984241
56	0x3d8a1f1a	0.067442134
57	0xbdd6a48e	-0.10480605
58	0x3dfd47df	0.12367224
59	0xbd8139ef	-0.06309878
60	0x3db02502	0.08600809
61	0xbf3aa5d2	-0.7290927
62	0x3ebf7a44	0.3739797
63	0x3d42cc8a	0.047558345

bn4.running_var f4 [64]
0	0x3e995378	0.29946494
1	0x3ec77c6a	0.38962108
2	0x3e0e8a77	0.13920008
3	0x3ec809db	0.3907002
4	0x3e08ff94	0.13378745
5	0x3e39b3de	0.1813502
6	0x3e058995	0.13040765
7	0x3e0de39b	0.13856356
8	0x3e3fdf8f	0.18737625
9	0x3e24008e	0.16015837
10	0x3e60e77f	0.21963309
11	0x3e03a10e	0.12854406
12	0x3e139953	0.14413957
13	0x3e2379ec	0.15964478
14	0x3e8bae0f	0.27281234
15	0x3e159f09	0.14611448
16	0x3e9da859	0.30792502
17	0x3e2577a4	0.1615892
18	0x3e2be982	0.16788295
19	0x3e10f96f	0.14157651
20	0x3e132605	0.14369972
21	0x3e09687a	0.13418761
22	0x3e7a5fda	0.24450627
23	0x3e019959	0.12656154
24	0x3df97e9d	0.12182353
25	0x3e47253d	0.19447799
26	0x3eee8bd9	0.4659107
27	0x3e1ce08a	0.1532003
28	0x3e06de45	0.13170727
29	0x3e91c102	0.28467566
30	0x3e2267e6	0.15859947
31	0x3e06e5af	0.13173555
32	0x3f2fa867	0.68616337
33	0x3e0ed25d	0.13947435
34	0x3e49a586	0.19692048
35	0x3e191337	0.14948736
36	0x3e705e2e	0.23473427
37	0x3e56e367	0.20985185
38	0x3e2e67ae	0.17031738
39	0x3e02ed36	0.12785801
40	0x3e9aa27c	0.3020209
41	0x3ddb9470	0.107216716
42	0x3e32f9bd	0.1747808
43	0x3e01756c	0.12642449
44	0x3e32d67f	0.17464636
45	0x3e23ee72	0.16008928
46	0x3dd29a35	0.10283319
47	0x3e082fc5	0.13299473
48	0x3e2de0eb	0.1698033
49	0x3e61ab4e	0.22038004
50	0x3e59af1b	0.21258204
51	0x3f018f51	0.5060931
52	0x3e065101	0.13116838
53	0x3e0db035	0.13836749
54	0x3e098885	0.13430984
55	0x3e2e4daf	0.17021821
56	0x3dedabde	0.11605047
57	0x3df23669	0.11826784
58	0x3e63df66	0.22253188
59	0x3df20a19	0.11818332
60	0x3e1281b2	0.14307287
61	0x3f0fd4c9	0.5618406
62	0x3e984028	0.29736447
63	0x3e2d5e9d	0.16930623

bn5.weight f4 [64]
0	0x3f800000	1.0
1	0x3f800000	1.0
2	0x3f800000	1.0
3	0x3f800000	1.0
4	0x3f800000	1.0
5	0x3f800000	1.0
6	0x3f800000	1.0
7	0x3f800000	1.0
8	0x3f800000	1.0
9	0x3f800000	1.0
10	0x3f800000	1.0
11	0x3f800000	1.0
12	0x3f800000	1.0
13	0x3f800000	1.0
14	0x3f800000	1.0
15	0x3f800000	1.0
16	0x3f800000	1.0
17	0x3f800000	1.0
18	0x3f800000	1.0
19	0x3f800000	1.0
20	0x3f800000	1.0
21	0x3f800000	1.0
22	0x3f800000	1.0
23	0x3f800000	1.0
24	0x3f800000	1.0
25	0x3f800000	1.0
26	0x3f800000	1.0
27	0x3f800000	1.0
28	0x3f800000	1.0
29	0x3f800000	1.0
30	0x3f800000	1.0
31	0x3f800000	1.0
32	0x3f800000	1.0
33	0x3f800000	1.0
34	0x3f800000	1.0
35	0x3f800000	1.0
36	0x3f800000	1.0
37	0x3f800000	1.0
38	0x3f800000	1.0
39	0x3f800000	1.0
40	0x3f800000	1.0
41	0x3f800000	1.0
42	0x3f800000	1.0
43	0x3f800000	1.0
44	0x3f800000	1.0
45	0x3f800000	1.0
46	0x3f800000	1.0
47	0x3f800000	1.0
48	0x3f800000	1.0
49	0x3f800000	1.0
50	0x3f800000	1.0
51	0x3f800000	1.0
52	0x3f800000	1.0
53	0x3f800000	1.0
54	0x3f800000	1.0
55	0x3f800000	1.0
56	0x3f800000	1.0
57	0x3f800000	1.0
58	0x3f800000	1.0
59	0x3f800000	1.0
60	0x3f800000	1.0
61	0x3f800000	1.0
62	0x3f800000	1.0
63	0x3f800000	1.0

bn5.bias f4 [64]
0	0x00000000	0.0
1	0x00000000	0.0
2	0x00000000	0.0
3	0x00000000	0.0
4	0x00000000	0.0
5	0x00000000	0.0
6	0x00000000	0.0
7	0x00000000	0.0
8	0x00000000	0.0
9	0x00000000	0.0
10	0x00000000	0.0
11	0x00000000	0.0
12	0x00000000	0.0
13	0x00000000	0.0
14	0x00000000	0.0
15	0x00000000	0.0
16	0x00000000	0.0
17	0x00000000	0.0
18	0x00000000	0.0
19	0x00000000	0.0
20	0x00000000	0.0
21	0x00000000	0.0
22	0x00000000	0.0
23	0x00000000	0.0
24	0x00000000	0.0
25	0x00000000	0.0
26	0x00000000	0.0
27	0x00000000	0.0
28	0x00000000	0.0
29	0x00000000	0.0
30	0x00000000	0.0
31	0x00000000	0.0
32	0x00000000	0.0
33	0x00000000	0.0
34	0x00000000	0.0
35	0x00000000	0.0
36	0x00000000	0.0
37	0x00000000	0.0
38	0x00000000	0.0
39	0x00000000	0.0
40	0x00000000	0.0
41	0x00000000	0.0
42	0x00000000	0.0
43	0x00000000	0.0
44	0x00000000	0.0
45	0x00000000	0.0
46	0x00000000	0.0
47	0x00000000	0.0
48	0x00000000	0.0
49	0x00000000	0.0
50	0x00000000	0.0
51	0x00000000	0.0
52	0x00000000	0.0
53	0x00000000	0.0
54	0x00000000	0.0
55	0x00000000	0.0
56	0x00000000	0.0
57	0x00000000	0.0
58	0x00000000	0.0
59	0x00000000	0.0
60	0x00000000	0.0
61	0x00000000	0.0
62	0x00000000	0.0
63	0x00000000	0.0

bn5.running_mean f4 [64]
0	0x00000000	0.0
1	0x00000000	0.0
2	0x00000000	0.0
3	0x00000000	0.0
4	0x00000000	0.0
5	0x00000000	0.0
6	0x00000000	0.0
7	0x00000000	0.0
8	0x00000000	0.0
9	0x00000000	0.0
10	0x00000000	0.0
11	0x00000000	0.0
12	0x00000000	0.0
13	0x00000000	0.0
14	0x00000000	0.0
15	0x00000000	0.0
16	0x00000000	0.0
17	0x00000000	0.0
18	0x00000000	0.0
19	0x00000000	0.0
20	0x00000000	0.0
21	0x00000000	0.0
22	0x00000000	0.0
23	0x00000000	0.0
24	0x00000000	0.0
25	0x00000000	0.0
26	0x00000000	0.0
27	0x00000000	0.0
28	0x00000000	0.0
29	0x00000000	0.0
30	0x00000000	0.0
31	0x00000000	0.0
32	0x00000000	0.0
33	0x00000000	0.0
34	0x00000000	0.0
35	0x00000000	0.0
36	0x00000000	0.0
37	0x00000000	0.0
38	0x00000000	0.0
39	0x00000000	0.0
40	0x00000000	0.0
41	0x00000000	0.0
42	0x00000000	0.0
43	0x00000000	0.0
44	0x00000000	0.0
45	0x00000000	0.0
46	0x00000000	0.0
47	0x00000000	0.0
48	0x00000000	0.0
49	0x00000000	0.0
50	0x00000000	0.0
51	0x00000000	0.0
52	0x00000000	0.0
53	0x00000000	0.0
54	0x00000000	0.0
55	0x00000000	0.0
56	0x00000000	0.0
57	0x00000000	0.0
58	0x00000000	0.0
59	0x00000000	0.0
60	0x00000000	0.0
61	0x00000000	0.0
62	0x00000000	0.0
63	0x00000000	0.0

bn5.running_var f4 [64]
0	0x3f800000	1.0
1	0x3f800000	1.0
2	0x3f800000	1.0
3	0x3f800000	1.0
4	0x3f800000	1.0
5	0x3f800000	1.0
6	0x3f800000	1.0
7	0x3f800000	1.0
8	0x3f800000	1.0
9	0x3f800000	1.0
10	0x3f800000	1.0
11	0x3f800000	1.0
12	0x3f800000	1.0
13	0x3f800000	1.0
14	0x3f800000	1.0
15	0x3f800000	1.0
16	0x3f800000	1.0
17	0x3f800000	1.0
18	0x3f800000	1.0
19	0x3f800000	1.0
20	0x3f800000	1.0
21	0x3f800000	1.0
22	0x3f800000	1.0
23	0x3f800000	1.0
24	0x3f800000	1.0
25	0x3f800000	1.0
26	0x3f800000	1.0
27	0x3f800000	1.0
28	0x3f800000	1.0
29	0x3f800000	1.0
30	0x3f800000	1.0
31	0x3f800000	1.0
32	0x3f800000	1.0
33	0x3f800000	1.0
34	0x3f800000	1.0
35	0x3f800000	1.0
36	0x3f800000	1.0
37	0x3f800000	1.0
38	0x3f800000	1.0
39	0x3f800000	1.0
40	0x3f800000	1.0
41	0x3f800000	1.0
42	0x3f800000	1.0
43	0x3f800000	1.0
44	0x3f800000	1.0
45	0x3f800000	1.0
46	0x3f800000	1.0
47	0x3f800000	1.0
48	0x3f800000	1.0
49	0x3f800000	1.0
50	0x3f800000	1.0
51	0x3f800000	1.0
52	0x3f800000	1.0
53	0x3f800000	1.0
54	0x3f800000	1.0
55	0x3f800000	1.0
56	0x3f800000	1.0
57	0x3f800000	1.0
58	0x3f800000	1.0
59	0x3f800000	1.0
60	0x3f800000	1.0
61	0x3f800000	1.0
62	0x3f800000	1.0
63	0x3f800000	1.0

conv1.0.weight f4 [64, 6, 1, 1]
0	0xbd295efc	-0.04135035
1	0xbe92c410	-0.2866521
2	0xbe82390a	-0.25434142
3	0x3e510af0	0.20414329
4	0xbdbd86ef	-0.09254252
5	0xbe8aa853	-0.27081546
6	0x3debff87	0.11523347
7	0x3df0d934	0.11760178
8	0x3ed37b8d	0.413052
9	0xbd053cb2	-0.032528587
10	0x3d80a80b	0.06282052
11	0x3cdf9cf2	0.027296517
12	0x3d249525	0.040181298
13	0x3e485fa1	0.1956773
14	0xbe31a1d0	-0.17346883
15	0x3e95cf25	0.292596
16	0xbe39d9be	-0.18149468
17	0xbe469ad1	-0.19394995
18	0x3d8c4b75	0.0685033
19	0xbd56cfe6	-0.05244436
20	0xbb73b5d6	-0.003718724
21	0xbe0c1c3a	-0.13682643
22	0x3e873f16	0.26415318
23	0xbd165eb8	-0.036711425
24	0xbe2d3030	-0.16912913
25	0x3ec02969	0.37531593
26	0x3e6a590b	0.2288553
27	0x3e9273eb	0.28604063
28	0xbe8d3f7b	-0.27587494
29	0x3e401ba4	0.18760544
30	0xbade3485	-0.0016952908
31	0xbe07673f	-0.13222979
32	0xbd241773	-0.040061425
33	0xbe96cb13	-0.29451808
34	0x3d87309a	0.06601067
35	0xbe91fc8c	-0.2851299
36	0x3d394524	0.045231953
37	0xbe4e911a	-0.2017254
38	0xbea350b9	-0.31897524
39	0x3e983ea8	0.29735303
40	0xbe79895a	-0.24368802
41	0xbe68cac2	-0.22733596
42	0x3d0328d6	0.032021366
43	0x3d8af4cb	0.06784972
44	0xbe3cccc2	-0.18437484
45	0xbdc92e92	-0.09823336
46	0xbe9357f8	-0.28778052
47	0xbe46b54f	-0.19405101
48	0xbecddd55	-0.40207925
49	0x3e299356	0.1656011
50	0xbdd9eb2b	-0.10640558
51	0x3dd18320	0.10230088
52	0x3e982604	0.29716504
53	0x3b5436e1	0.0032381343
54	0x3e317e66	0.17333373
55	0xbe2270b4	-0.15863305
56	0x3e5b1c45	0.21397503
57	0xbe6f959b	-0.23396914
58	0xbe7609d4	-0.24027187
59	0xbeafecb4	-0.34360278
60	0xbea5d486	-0.32388705
61	0xbe750297	-0.23926769
62	0xbe3fd2e0	-0.18732786
63	0x3c5dcb69	0.013537266
64	0xbeb125a7	-0.3459904
65	0x3e8bddb2	0.27317578
66	0xbe0d2aab	-0.13785808
67	0x3ae2be4b	0.0017299143
68	0xbe9773ed	-0.29580632
69	0x3ed84f8e	0.42248195
70	0xbeb2bbfe	-0.34909052
71	0x3caeb6f9	0.021327483
72	0x3dd9b6ff	0.10630607
73	0xbe0946f0	-0.13405967
74	0x3ecd37ef	0.40081736
75	0xbe89d758	-0.26922107
76	0xbe67aaea	-0.22623792
77	0xbd9ebd9b	-0.07751008
78	0x3e1747ee	0.14773533
79	0x3e05577b	0.13021652
80	0x3e3a9174	0.18219548
81	0x3e765db3	0.24059181
82	0x3e5c483e	0.21511933
83	0x3e606f70	0.2191751
84	0x3ea38e99	0.3194473
85	0xbe47c940	-0.19510365
86	0x3e53446a	0.20631567
87	0xbdd2b021	-0.102875
88	0x3ebe9ece	0.37230533
89	0xbe5c6127	-0.21521436
90	0x3d35b872	0.044365354
91	0x3d8238bd	0.06358478
92	0x3e8ae100	0.27124786
93	0x3cd5a3b4	0.026079036
94	0xbe324b07	-0.17411433
95	0x3e1d0e7c	0.15337557
96	0xbead2b1e	-0.33821958
97	0x3b041bce	0.0020158174
98	0x3eaada84	0.3336984
99	0x3e67ede9	0.2264935
100	0x3e2a237c	0.16615099
101	0xbe924431	-0.2856765
102	0xbdb7f617	-0.08982485
103	0x3d8934f3	0.066995524
104	0x3e2b2ef7	0.16717134
105	0xbcadf332	-0.021234129
106	0x3e02a479	0.12758054
107	0xbdabe514	-0.083933026
108	0xbce44115	-0.027863065
109	0xbe28efca	-0.16497722
110	0x3d647cf0	0.055783212
111	0xbeaa536e	-0.33266777
112	0x3e95baf2	0.2924419
113	0xbd83e21c	-0.06439611
114	0xbe3618cc	-0.17782897
115	0xbcff04cf	-0.031130223
116	0x3e11720b	0.1420366
117	0x3e866285	0.2624704
118	0x3e2719ca	0.16318431
119	0xbe0e4618	-0.13893926
120	0x3ecb5ca5	0.3971912
121	0x3c6e039b	0.014527227
122	0x3e996dc0	0.29966545
123	0x3ea0c6af	0.31401584
124	0xbdec9a90	-0.11552918
125	0xbd946dc4	-0.07247499
126	0xbd996186	-0.07489304
127	0xbea6d571	-0.32584718
128	0xbe1d20d0	-0.15344548
129	0xbe0e3d41	-0.13890554
130	0xbd2c06ff	-0.04199886
131	0xbe96b88f	-0.29437682
132	0xbbd4ff22	-0.0065001408
133	0xbc4d31c5	-0.012524073
134	0xbe3dcf85	-0.18536194
135	0xbe372925	-0.17886789
136	0xbe700b38	-0.2344178
137	0x3eba7ff8	0.36425757
138	0x3e2c910c	0.16852206
139	0x3dcb8a56	0.09938495
140	0xbdda4b3d	-0.10658882
141	0x3e454ccb	0.19267575
142	0xbdd0a72c	-0.101881355
143	0xbddef751	-0.108870156
144	0x3e69ad8b	0.22820108
145	0xbea69682	-0.32536703
146	0xbdc7ef21	-0.09762407
147	0xbead44fc	-0.33841693
148	0xbec89195	-0.3917357
149	0x3d2d94fb	0.042378407
150	0x3eae5a0b	0.34053072
151	0x3e127489	0.14302267
152	0xbdc3ec6f	-0.095665805
153	0xbe237b2d	-0.15964957
154	0x3de01c63	0.10942914
155	0x3e817f8a	0.25292617
156	0xbdeaf532	-0.114725485
157	0xbec3ad77	-0.3821828
158	0x3e63a811	0.22232081
159	0xbea1a28a	-0.3156932
160	0xbec01382	-0.37514883
161	0x3e5fc0a2	0.21850827
162	0xbed90f0c	-0.42394292
163	0xbde7e8cf	-0.113237016
164	0xbe7b9b71	-0.24571015
165	0xbb777413	-0.0037758395
166	0xbda2b1a2	-0.07944037
167	0x3e008924	0.12552315
168	0xbe359ec0	-0.1773634
169	0xbeddbf3a	-0.43309957
170	0xbe35df3f	-0.17760943
171	0xbe8be041	-0.2731953
172	0x3df1badb	0.11803218
173	0xbddb4fcb	-0.10708579
174	0x3e5e7fa8	0.21728384
175	0x3c927ab3	0.017880773
176	0x3ea67b1d	0.32515803
177	0x3e9b5448	0.3033774
178	0x3e69fe23	0.22850852
179	0x3d3f66b5	0.04672881
180	0x3eae4430	0.34036398
181	0x3ec0bc0d	0.3764347
182	0x3dfb68b9	0.12275834
183	0xbd0fcf69	-0.03510991
184	0xbe76c4f1	-0.24098565
185	0xbd951655	-0.0727965
186	0xbec1f561	-0.37882522
187	0x3e5f5032	0.21807936
188	0x3d8dc37e	0.06922053
189	0xbeae8dcb	-0.34092554
190	0x3e97d534	0.2965485
191	0x3eaf0a67	0.34187624
192	0x3d7b0be8	0.06129065
193	0xbddd53db	-0.1080701
194	0x3d276f92	0.040877886
195	0xbc8020ac	-0.01564058
196	0xbed5aa0e	-0.41731304
197	0xbe1d8dec	-0.1538617
198	0xbeecee68	-0.4627564
199	0x3e5467fa	0.20742789
200	0xbe3d7c35	-0.18504412
201	0xbeacaaf2	-0.3372417
202	0x3e38fa55	0.18064244
203	0xbd920e93	-0.07131686
204	0xbea5e116	-0.3239829
205	0xbe56130f	-0.20905708
206	0xbe3cc78b	-0.18435495
207	0xbe4103c5	-0.18849094
208	0xbec63c1d	-0.38717738
209	0xbecc7418	-0.39932323
210	0xbd608414	-0.05481346
211	0x3ec39dc7	0.38206312
212	0xbe77c16d	-0.2419488
213	0xbe9d040b	-0.30667147
214	0x3ebe7898	0.3720138
215	0xbea4d72d	-0.32195416
216	0xbc8d3064	-0.017234989
217	0x3e337b6c	0.1752755
218	0x3e9c7325	0.30556598
219	0xbe7e141f	-0.24812363
220	0x3e699fe4	0.228149
221	0x3e5bfce4	0.21483189
222	0xbe09f329	-0.13471664
223	0xbd6c872b	-0.057746094
224	0x3be5f9b0	0.0070182905
225	0x3d999156	0.07498424
226	0x3e7eb8db	0.24875204
227	0xbd2f4681	-0.042791847
228	0xbcfd1f56	-0.030898731
229	0xbd2ad2ad	-0.041704822
230	0xbe2e9e72	-0.1705263
231	0x3eab64ec	0.33475435
232	0x3ea4d608	0.32194543
233	0x3eb8512b	0.35999426
234	0x3d996b19	0.074911304
235	0xbeb4e345	-0.35329643
236	0xbe2618a4	-0.16220337
237	0x3d291256	0.041277252
238	0x3ec13377	0.37734577
239	0xbd1e30c4	-0.038620725
240	0xbe82bcb8	-0.25534606
241	0xbea18eb6	-0.31554192
242	0x3df72d99	0.12069244
243	0x3e8a0048	0.2695334
244	0xbd89a7c6	-0.06721453
245	0x3e28fbc5	0.16502292
246	0xbe4153c5	-0.18879612
247	0xbdc211d5	-0.094760574
248	0xbd9e1217	-0.07718294
249	0xbe36af31	-0.17840268
250	0xbec87e0c	-0.39158666
251	0x3da5b94b	0.080919825
252	0xbe257df0	-0.16161323
253	0x3e353b66	0.1769844
254	0x3e8119c8	0.25214982
255	0xbea50852	-0.3223291

conv1.1.weight f4 [64]
0	0x3f806d51	1.0033361
1	0x3f79ce87	0.9758076
2	0x3f7fbb9f	0.9989566
3	0x3f7f75d6	0.9978918
4	0x3f75d99b	0.96035165
5	0x3f7bd2ba	0.9836842
6	0x3f80c1fc	1.0059199
7	0x3f805c02	1.0028079
8	0x3f7b57c9	0.98180825
9	0x3f7eacfc	0.99482703
10	0x3f791868	0.97302866
11	0x3f80009c	1.0000186
12	0x3f8177a7	1.011464
13	0x3f7cbc27	0.987246
14	0x3f807197	1.0034665
15	0x3f7fe6a8	0.9996133
16	0x3f82cf72	1.0219557
17	0x3f7c89b3	0.9864761
18	0x3f807bd5	1.003779
19	0x3f81c6b1	1.0138761
20	0x3f8001b0	1.0000515
21	0x3f7a5914	0.9779217
22	0x3f7ec06d	0.9951237
23	0x3f81627f	1.0108184
24	0x3f7fe16d	0.9995335
25	0x3f7c908f	0.9865808
26	0x3f80e2ac	1.0069175
27	0x3f7a5f0d	0.97801286
28	0x3f7db448	0.9910321
29	0x3f7b56db	0.98179406
30	0x3f806b07	1.0032662
31	0x3f79dbef	0.9760122
32	0x3f806b81	1.0032808
33	0x3f83742f	1.0269831
34	0x3f7de892	0.99183
35	0x3f81ef33	1.0151123
36	0x3f7eef63	0.99584025
37	0x3f808610	1.0040913
38	0x3f7e9824	0.994509
39	0x3f81c70a	1.0138867
40	0x3f7cbc63	0.98724955
41	0x3f78cd55	0.9718831
42	0x3f805283	1.002518
43	0x3f7f9ad6	0.99845636
44	0x3f7b0327	0.98051685
45	0x3f7a74db	0.9783456
46	0x3f7ed8e0	0.99549675
47	0x3f7def40	0.9919319
48	0x3f7f95c1	0.9983788
49	0x3f7bfc42	0.9843179
50	0x3f802d1a	1.0013764
51	0x3f815a5b	1.0105699
52	0x3f81426b	1.0098394
53	0x3f7e4fda	0.99340594
54	0x3f7c360a	0.9851996
55	0x3f7ca165	0.9868377
56	0x3f79da83	0.9759905
57	0x3f802eec	1.001432
58	0x3f7eea1b	0.99575967
59	0x3f806614	1.0031152
60	0x3f8115df	1.00848
61	0x3f7e129c	0.99247146
62	0x3f808b27	1.0042466
63	0x3f8231da	1.0171463

conv1.1.bias f4 [64]
0	0xbbc47055	-0.0059948363
1	0x3d3d27b6	0.04618045
2	0xbc9aae1f	-0.018881856
3	0x3c0c16ea	0.008550385
4	0x3b9fe5b0	0.004879676
5	0xbd2bc243	-0.04193331
6	0xba241961	-0.0006259885
7	0x3b670c01	0.0035254958
8	0xbb3103c7	-0.0027010308
9	0xbc767d28	-0.015044488
10	0xbb1c91c9	-0.0023890606
11	0x3c0d8886	0.008638507
12	0x3cf4ebf0	0.02989766
13	0xbbe8d5ea	-0.0071055787
14	0xbcb968dd	-0.02263301
15	0x3b72868a	0.003700646
16	0xbd396f8e	-0.045272402
17	0xbc1f0d13	-0.009707707
18	0x3c01f566	0.007932043
19	0x3b0c76bb	0.0021433074
20	0x3ca58026	0.020202707
21	0xbcbf155a	-0.02332561
22	0xbbbd1028	-0.0057697482
23	0x3c8acdd8	0.016943857
24	0x3c7134d1	0.014722065
25	0x3bc1355a	0.0058962526
26	0x3c8113f6	0.015756588
27	0x3bf06dad	0.007337293
28	0xb9b03158	-0.000336061
29	0x3caec8eb	0.02133604
30	0xbc6634b9	-0.014050656
31	0xbd004b29	-0.03132168
32	0xbc420b03	-0.011843446
33	0xbb451ed5	-0.0030078192
34	0xbce45fc4	-0.027877696
35	0x3c20b6ee	0.009809239
36	0x3c8b198f	0.01697996
37	0x3c090276	0.008362403
38	0xbbb729bb	-0.0055896915
39	0x3ad89ffa	0.0016527169
40	0x3c583e6e	0.013198478
41	0xbaaffc62	-0.0013426656
42	0x3adedc7a	0.0017002963
43	0x3d33cc0a	0.04389576
44	0x3a08c3c4	0.00052171596
45	0x3c49804f	0.012298658
46	0xbb841b57	-0.0040315795
47	0xbc052894	-0.00812735
48	0xbc91b90f	-0.017788438
49	0x3c08f712	0.008359687
50	0xbcaaa5ee	-0.020831075
51	0x3b67890a	0.0035329484
52	0x3cbc5bab	0.02299293
53	0xbc56fa9c	-0.013121273
54	0x3a31961c	0.0006774382
55	0x3b8fc3b2	0.0043873424
56	0x3cb08024	0.021545477
57	0x3a764b63	0.0009395389
58	0xb69f825f	-4.7537465e-06
59	0x3c3a67bd	0.011377272
60	0xbb81eef1	-0.0039652516
61	0xbb3b0951	-0.0028539489
62	0x3d06e393	0.032931875
63	0xbaf6bd6b	-0.0018824762

conv1.1.running_mean f4 [64]
0	0xc5a387ff	-5232.9995
1	0x440372ed	525.7957
2	0xc56edd61	-3821.8362
3	0xc4137e2f	-589.9716
4	0x45585c05	3461.7512
5	0xc5a59d7e	-5299.6865
6	0xc58b6aae	-4461.335
7	0xc569f419	-3743.256
8	0x42d54e60	106.653076
9	0xc5cbf136	-6526.1514
10	0x45a1e522	5180.6416
11	0x43612e71	225.18141
12	0xc4b2c5ae	-1430.1775
13	0x4580594d	4107.1626
14	0xc57bd114	-4029.0674
15	0x45346274	2886.1533
16	0xc5ac8996	-5521.198
17	0xc4c6e9fe	-1591.3123
18	0xc481e01d	-1039.0035
19	0xc52b6b6a	-2742.7134
20	0xc4c1eb89	-1551.3605
21	0xc5acbf03	-5527.8765
22	0x45da48d8	6985.1055
23	0xc50863d4	-2182.2393
24	0x446748f0	925.13965
25	0x4599f1f3	4926.2437
26	0x4585709c	4270.076
27	0x45168d2c	2408.8232
28	0xc4eb63a5	-1883.1139
29	0x44486d0a	801.70374
30	0xc4b12e52	-1417.4475
31	0x45d054eb	6666.6147
32	0xc53c83c7	-3016.236
33	0xc4919c9b	-1164.8939
34	0xc5ec94cb	-7570.599
35	0xc5ba341f	-5958.515
36	0x458394c1	4210.594
37	0xc449efbe	-807.746
38	0x45d402b2	6784.337
39	0xc4354297	-725.04047
40	0x453e6a80	3046.6562
41	0x44cb74d2	1627.6506
42	0xc52235d8	-2595.3652
43	0xc48f2e1a	-1145.4407
44	0x45c73096	6374.073
45	0x4538ac1c	2954.7568
46	0xc59f92b8	-5106.34
47	0x45c48e50	6289.789
48	0xc525f532	-2655.3247
49	0x45378039	2936.014
50	0xc5c3a4f6	-6260.62
51	0xc42ada9a	-683.41565
52	0xc4a4bd9c	-1317.9253
53	0xc5e03c7e	-7175.5615
54	0x45ea6dc4	7501.7207
55	0xc583b8d8	-4215.1055
56	0x452a83ed	2728.2454
57	0xc589f4a8	-4414.582
58	0x45dbd1a5	7034.2056
59	0xc4d0f9bd	-1671.8043
60	0xc55a77ab	-3495.4792
61	0x45b5ddc8	5819.7227
62	0xc4c795d1	-1596.6818
63	0xc4dbe7b1	-1759.2404

conv1.1.running_var f4 [64]
0	0x4b17eea0	9.957024e+06
1	0x48fc6cf4	516967.62
2	0x4b07d14b	8.900939e+06
3	0x4a3b3730	3.06734e+06
4	0x4b0339aa	8.599978e+06
5	0x4b237368	1.0711912e+07
6	0x4b304d98	1.15542e+07
7	0x4ae31dd4	7.442154e+06
8	0x4a4de17f	3.3731518e+06
9	0x4b7e205c	1.6654428e+07
10	0x4b22cffa	1.0670074e+07
11	0x4b23305c	1.0694748e+07
12	0x4a977922	4.963473e+06
13	0x4afe973e	8.342431e+06
14	0x4b0c5481	9.196673e+06
15	0x4a3d9d66	3.1066495e+06
16	0x4b2e60d1	1.1428049e+07
17	0x49947e56	1.2164588e+06
18	0x4ad6de8d	7.0408385e+06
19	0x4a9ec353	5.2023455e+06
20	0x4a941b89	4.8531885e+06
21	0x4b1014fc	9.442556e+06
22	0x4b73614b	1.5950155e+07
23	0x4a41ba02	3.1740165e+06
24	0x4b03219a	8.593818e+06
25	0x4b07ae17	8.891927e+06
26	0x4b32986a	1.1704426e+07
27	0x4a00fadb	2.1132068e+06
28	0x4a7f6728	4.184522e+06
29	0x4a940f97	4.8516595e+06
30	0x4a453511	3.2310442e+06
31	0x4ba0c974	2.1074664e+07
32	0x4b078bfc	8.883196e+06
33	0x4aa1fa9f	5.3077275e+06
34	0x4bb3173c	2.3473784e+07
35	0x4b794232	1.633541e+07
36	0x4b13417e	9.650558e+06
37	0x4a0c46f9	2.2983022e+06
38	0x4ba10542	2.1105284e+07
39	0x4a99245c	5.018158e+06
40	0x4aa1a802	5.297153e+06
41	0x4abba672	6.148921e+06
42	0x4aa62b7e	5.445055e+06
43	0x4a4c46f5	3.3468772e+06
44	0x4b87e935	1.7814122e+07
45	0x4b0a2f2f	9.056047e+06
46	0x4b5fac4f	1.4658639e+07
47	0x4b6fedbf	1.5723967e+07
48	0x4a1ee06e	2.6030355e+06
49	0x4ad081e7	6.8323715e+06
50	0x4b6d5107	1.5552775e+07
51	0x4a606f21	3.6771282e+06
52	0x49a6e06f	1.3670539e+06
53	0x4b83d93e	1.728166e+07
54	0x4ba519c9	2.1640082e+07
55	0x4b2757d0	1.0966992e+07
56	0x4a7eff1a	4.1778625e+06
57	0x4b2ba8ef	1.1249903e+07
58	0x4b659ae9	1.5047401e+07
59	0x4a3668b7	2.9885898e+06
60	0x4a700a81	3.9328322e+06
61	0x4b5e29fe	1.4559742e+07
62	0x4aade590	5.698248e+06
63	0x4a8f343f	4.6925115e+06
